results/run_20260214_013852/model_last.pt (torch, 50229 bytes, 22 tensors)

Q f4 [4, 4]
0	0x3727c5ac	1e-05
1	0x00000000	0.0
2	0x00000000	0.0
3	0x00000000	0.0
4	0x00000000	0.0
5	0x38d1b717	1e-04
6	0x00000000	0.0
7	0x00000000	0.0
8	0x00000000	0.0
9	0x00000000	0.0
10	0x358637bd	1e-06
11	0x00000000	0.0
12	0x00000000	0.0
13	0x00000000	0.0
14	0x00000000	0.0
15	0x358637bd	1e-06

R f4 [2, 2]
0	0x3b23d70a	0.0025
1	0x00000000	0.0
2	0x00000000	0.0
3	0x3b23d70a	0.0025

wm f4 [9]
0	0xbf100000	-0.5625
1	0x3e480000	0.1953125
2	0x3e480000	0.1953125
3	0x3e480000	0.1953125
4	0x3e480000	0.1953125
5	0x3e480000	0.1953125
6	0x3e480000	0.1953125
7	0x3e480000	0.1953125
8	0x3e480000	0.1953125

wc f4 [9]
0	0x3fe6147b	1.7975
1	0x3e480000	0.1953125
2	0x3e480000	0.1953125
3	0x3e480000	0.1953125
4	0x3e480000	0.1953125
5	0x3e480000	0.1953125
6	0x3e480000	0.1953125
7	0x3e480000	0.1953125
8	0x3e480000	0.1953125

gain_net.ln.weight f4 [20]
0	0x3f91656e	1.1359079
1	0x3fa67468	1.3004274
2	0x3f784057	0.96973175
3	0x3f8ca7cb	1.0988706
4	0x3f82da7a	1.0222924
5	0x3f8c7363	1.0972713
6	0x3f93a990	1.1536121
7	0x3f8d9456	1.1060894
8	0x3f8c2e5f	1.0951651
9	0x3f89e2df	1.077236
10	0x3f83e542	1.0304339
11	0x3f7bb0ed	0.9831684
12	0x3f9266f5	1.143767
13	0x3f8dc155	1.1074625
14	0x3f8896f1	1.0671064
15	0x3f7dfc7b	0.9921338
16	0x3f8c9eee	1.0986001
17	0x3f919111	1.1372396
18	0x3f762f88	0.96166277
19	0x3f92948e	1.1451585

gain_net.ln.bias f4 [20]
0	0x3cda66b8	0.026660308
1	0x3d941391	0.072302945
2	0xbc8d9c4b	-0.01728644
3	0xbd20f979	-0.039300416
4	0xbda22e2b	-0.07918962
5	0x3c6170c4	0.013759796
6	0x3d13e58b	0.03610758
7	0x3b8b7bce	0.004256702
8	0xbd22edb0	-0.039777458
9	0xbcef4077	-0.029205544
10	0xbd4a9eff	-0.049468037
11	0x3cd66309	0.02617027
12	0x3cdf52cd	0.027261162
13	0x3cc2ad2f	0.023764221
14	0xbc9af762	-0.01891679
15	0xbd7c2c47	-0.061565664
16	0xbc855a50	-0.016278416
17	0xbd31c8da	-0.043404438
18	0xbd3be040	-0.04586816
19	0xbd48f5b4	-0.049062446

gain_net.enc.0.weight f4 [32, 20]
0	0x3d4a9c69	0.04946557
1	0x3ed94bef	0.42440745
2	0xbd33ebcd	-0.04392605
3	0xbea56332	-0.32302243
4	0xbc6386c2	-0.013887109
5	0x3e1852a4	0.14875275
6	0x3dc52e67	0.09627991
7	0x3e8b3845	0.27191368
8	0xbe3395d8	-0.1753763
9	0xbdb59a7d	-0.08867357
10	0xbdf47a7b	-0.11937424
11	0xbe237e4f	-0.15966152
12	0xbde47bb4	-0.11156407
13	0xbdb9daf3	-0.090749644
14	0xbbe0f6c9	-0.0068653566
15	0x3d3fe58e	0.04684978
16	0x3e25f4b6	0.16206631
17	0x3e95b847	0.29242155
18	0xbe2fa874	-0.17154104
19	0xbe403732	-0.18771055
20	0x3db27958	0.08714551
21	0x3ef9c17c	0.4878043
22	0xbacd6963	-0.0015671666
23	0x3d059c43	0.032619726
24	0x3d2fbb0b	0.042902987
25	0x3de22f7b	0.110442124
26	0x3e99588b	0.29950365
27	0xbde70857	-0.112808876
28	0xbe895660	-0.2682371
29	0xbe2f5c4c	-0.17125052
30	0xbda79729	-0.081831284
31	0x3e080430	0.13282847
32	0xbd3e368d	-0.046438742
33	0xbd510f5e	-0.051040046
34	0xbd923778	-0.07139486
35	0xbe2dc5ff	-0.16970061
36	0xbd6a6209	-0.0572224
37	0x3eb1f184	0.34754574
38	0x3daecf48	0.085356295
39	0x3d148805	0.03626253
40	0x3ded2e49	0.11581094
41	0x3d801de5	0.06255702
42	0x3ccb8571	0.024843903
43	0xbe89a61f	-0.26884553
44	0xbd6ac008	-0.05731204
45	0xbca7158b	-0.020396015
46	0x3e6c2709	0.23061766
47	0x3e6c990d	0.23105259
48	0xbe1b6e68	-0.15178835
49	0xbd585407	-0.05281451
50	0x3e420eec	0.18951005
51	0x3e572703	0.21010976
52	0x3e392fd0	0.18084645
53	0x3dc2629f	0.09491467
54	0x3e7d17aa	0.24716058
55	0xbd521ef4	-0.05129905
56	0x3e029a78	0.12754238
57	0xbc77244a	-0.015084336
58	0xbdfe2f99	-0.12411422
59	0xbe2d2fb0	-0.16912723
60	0x3dcf3564	0.10117605
61	0x3db82b04	0.089925796
62	0xbe07a208	-0.13245404
63	0x3d8a5954	0.06755319
64	0x3dfb6660	0.12275386
65	0xbce73410	-0.028223068
66	0x3c0be180	0.00853765
67	0x3d543780	0.05181074
68	0x3e0e0cba	0.13872042
69	0x3e5bdbde	0.21470591
70	0xbe3073c8	-0.17231667
71	0xbda7d2d8	-0.08194512
72	0x3db3fa44	0.08787969
73	0x3e3db73a	0.18526927
74	0x3e47411a	0.19458428
75	0x3e4a0944	0.19730097
76	0x3d3646b0	0.044501007
77	0xbe471c7c	-0.1944446
78	0x3ca882b8	0.020570144
79	0xbe0f3f38	-0.1398896
80	0xbe11a2c0	-0.1422224
81	0x3e9498e0	0.29022884
82	0x3e19c232	0.15015486
83	0xbe8be452	-0.27322632
84	0x3e311859	0.17294444
85	0x3d9e591d	0.07731841
86	0x3d9c498e	0.07631217
87	0x3cbc4f70	0.022987098
88	0x3d4a7412	0.0494271
89	0xbe1bef84	-0.15228087
90	0x3e41d038	0.18927085
91	0x3e1eff46	0.15527067
92	0x3e8d15d0	0.27555704
93	0x3e330867	0.17483674
94	0xbdcf4b8e	-0.10121833
95	0xbd60a84a	-0.054847993
96	0x3e67d682	0.22640422
97	0x3e59cd38	0.21269691
98	0xbda839ea	-0.08214171
99	0xbdd11eaa	-0.10210927
100	0x3e876b71	0.2644916
101	0x3ec7bd54	0.39011633
102	0xbd4e55b6	-0.05037471
103	0xbe36df62	-0.17858651
104	0xbde0ea9d	-0.10982249
105	0x3dd1a529	0.1023658
106	0xbd75a38d	-0.059970427
107	0xbd7921be	-0.060823195
108	0xbe01906c	-0.12652749
109	0xbd9b05f2	-0.07569493
110	0xbdade88b	-0.0849162
111	0x3da438b1	0.080186255
112	0xbcd79407	-0.026315702
113	0x3e8e7e00	0.27830505
114	0x3e832a07	0.25618002
115	0xbdeac211	-0.114627965
116	0x3d1beebe	0.03806948
117	0x3e386db4	0.18010598
118	0x3d59d1ed	0.053178716
119	0x3b52e8c4	0.0032182196
120	0x3db3b614	0.08774963
121	0x3c5b72e0	0.013394088
122	0xbddf7204	-0.10910419
123	0x3dd8b204	0.10580829
124	0xbe5ba477	-0.21449457
125	0xbe07b6cc	-0.13253325
126	0xbd654684	-0.055975452
127	0xbddf126c	-0.108921856
128	0xbda0347e	-0.07822512
129	0xbe3babe9	-0.18327297
130	0xbd42d30c	-0.04756455
131	0x3d43c730	0.047797382
132	0xbe152b16	-0.14567217
133	0xbc3c0320	-0.011475354
134	0x3e23e928	0.16006911
135	0xbcbc4ee0	-0.02298683
136	0x3bcba340	0.0062145293
137	0xbc9e06b8	-0.019290313
138	0x3d395c18	0.045253843
139	0x3e11971e	0.14217803
140	0x3eadb83d	0.33929625
141	0x3e9b864c	0.30375898
142	0x3e4a966e	0.19783947
143	0xbda634c9	-0.08115537
144	0xbd948580	-0.072520256
145	0x3c340a73	0.010988819
146	0x3e86dffd	0.26342764
147	0x3dfa1076	0.12210171
148	0xbe29e6aa	-0.16591898
149	0xbe5e846e	-0.21730205
150	0xbe165b07	-0.14683162
151	0xbe3e5383	-0.18586545
152	0x3d8c881c	0.06861898
153	0x3e58cc8b	0.21171777
154	0x3e766031	0.24060132
155	0xbded9b98	-0.11601943
156	0x3e81220d	0.2522129
157	0x3a28d3c5	0.00064402475
158	0x3c7921b0	0.015205786
159	0xbdd5967c	-0.10429093
160	0x3d3501ef	0.044191297
161	0xbd1129a8	-0.035440117
162	0xbe7b1d30	-0.24522853
163	0xbe81b948	-0.2533667
164	0x3e82b57d	0.2552909
165	0x3e6cdbec	0.23130769
166	0x3dd9a642	0.10627414
167	0x3ea4c177	0.32178852
168	0xbe783bdf	-0.24241589
169	0xbd86c6b7	-0.065808706
170	0x3ea6a586	0.3254816
171	0xbc14f7c8	-0.009092279
172	0x3ed3d342	0.41372114
173	0x3e9a0685	0.300831
174	0x3d34ad9c	0.04411088
175	0x3eb6b28c	0.35683095
176	0x3e686f8b	0.226988
177	0x3e42258c	0.18959635
178	0x3ed55f9e	0.41674513
179	0xbc29da48	-0.010366984
180	0xbce5010f	-0.027954606
181	0xbe19b48d	-0.15010281
182	0x3e3a1102	0.1817055
183	0x3d716e13	0.058942866
184	0x3d35375b	0.044242244
185	0x3d17fec6	0.037108205
186	0xbe0ad156	-0.13556418
187	0xbdcc6233	-0.099796675
188	0xbe45b65b	-0.19307844
189	0x3dc425e1	0.09577537
190	0x3d836a0f	0.064167134
191	0x3ddf7b64	0.10912207
192	0xbe70eacc	-0.23527068
193	0x3ba793ea	0.0051140683
194	0xbe66a203	-0.2252274
195	0xbe0ed8ed	-0.13949938
196	0xbe2f7355	-0.1713384
197	0xbd25c97b	-0.04047535
198	0xbde9fc81	-0.114251144
199	0x3dd31edd	0.10308621
200	0x3d014407	0.031559017
201	0x3ee3177e	0.4435386
202	0xbd61fda7	-0.055173542
203	0xbe940a8d	-0.289143
204	0xbd680c4d	-0.056652356
205	0x3e734f17	0.23760639
206	0x3c18fbb5	0.009337355
207	0x3e8d69bd	0.27619734
208	0xbd5432e1	-0.051806334
209	0xbdc4c186	-0.09607224
210	0xbd080b38	-0.033213824
211	0xbe0f0caf	-0.13969682
212	0x3df46452	0.11933197
213	0xba5eb0cd	-0.00084949733
214	0x3da23747	0.079206996
215	0x3d8bf4ca	0.06833799
216	0xbddeddc3	-0.108821414
217	0x3d20caaa	0.039255776
218	0x3e202057	0.15637337
219	0xbe95a85e	-0.29230016
220	0x3db223cd	0.08698235
221	0x3ebbb05b	0.36657986
222	0x3da8a3e5	0.082343854
223	0xbd7eba48	-0.06218937
224	0xbd9bdd91	-0.0761062
225	0x3e5b0f30	0.21392512
226	0xbd6ec933	-0.058297347
227	0x3d3ec089	0.046570335
228	0xbe097414	-0.13423187
229	0xbda8087f	-0.082047455
230	0x3d41469a	0.04718647
231	0x3e32be99	0.1745552
232	0x3e060ec9	0.13091578
233	0x3e8c1fa4	0.2736789
234	0x3e7bfc13	0.24607877
235	0xbd543755	-0.05181058
236	0x3e4ab17f	0.19794272
237	0x3a866116	0.0010252323
238	0xbd0278ad	-0.031853367
239	0x3d6c2d77	0.057660546
240	0x3e24918d	0.16071148
241	0x3ec8244f	0.390902
242	0xbd20883c	-0.039192423
243	0xbe063f87	-0.13110171
244	0x3e7f22b6	0.24915585
245	0xbd9d5c11	-0.07683576
246	0x3e9a7814	0.30169737
247	0xbd247194	-0.04014738
248	0xbdee9544	-0.11649564
249	0xbe18962d	-0.14901038
250	0xbdbb4959	-0.09144849
251	0xbbe0d45e	-0.0068612536
252	0x3ea72e47	0.32652494
253	0x3d29eae7	0.041483786
254	0x3ab14aed	0.0013526358
255	0x3c8eb825	0.017421791

gain_net.enc.0.bias f4 [32]
0	0x3c5d713d	0.013515768
1	0x3df3b13e	0.11899041
2	0x3dac642f	0.08417546
3	0x3c81b298	0.01583223
4	0xbe0c8385	-0.13722046
5	0x3e94d388	0.29067636
6	0xbe0525dc	-0.13002723
7	0x3e49c968	0.19705737
8	0xbe376cca	-0.17912593
9	0xbcfb83e5	-0.03070254
10	0x3e7f2d68	0.24919665
11	0xbd83ee8e	-0.06441985
12	0x3e814712	0.25249535
13	0xbd605939	-0.05477259
14	0xbe40490a	-0.18777862
15	0xbdce7f38	-0.10082859
16	0x3d47d096	0.048782907
17	0x3e3267ed	0.17422457
18	0xbdda9fca	-0.106750086
19	0x3df7e48b	0.12104138
20	0xbd659ef4	-0.056059793
21	0xbd93a58b	-0.07209309
22	0x3e73c492	0.23805454
23	0xbe23fab4	-0.16013604
24	0x3cc28f68	0.023750022
25	0x3e581795	0.21102746
26	0xbc8be0d5	-0.017074982
27	0x3e5bc5e4	0.21462208
28	0xbd8d071e	-0.06886123
29	0x3e38509c	0.179995
30	0xbe5d7e2d	-0.21630163
31	0x3c2c6429	0.010521927

gain_net.enc.2.weight f4 [32, 32]
0	0x3d7d6eb5	0.061873157
1	0x3dd18311	0.10230077
2	0x3e3e3e84	0.18578535
3	0x3e0afd5d	0.13573213
4	0x3d7225fd	0.05911826
5	0x3d1da585	0.03848793
6	0x3df7ed9a	0.12105866
7	0x3c7d073e	0.015443621
8	0x3eaf19ce	0.34199375
9	0xbdb85c87	-0.09002023
10	0x3d93d13d	0.072176434
11	0x3d0e3a09	0.034723315
12	0x3e14c3d6	0.1452783
13	0x3db1c76b	0.08680614
14	0xbce589b8	-0.028019771
15	0xbe15f894	-0.14645606
16	0x3ea01bda	0.3127125
17	0x3e3488fd	0.17630382
18	0x3d916e42	0.07101108
19	0xbcf06c2e	-0.02934846
20	0x3de901aa	0.113772705
21	0x3e413e42	0.18871406
22	0x3e594e56	0.21221289
23	0xbd118c4d	-0.035534192
24	0x3dfe25c2	0.124095455
25	0xbd6c83ea	-0.05774299
26	0x3e0e1dc8	0.13878548
27	0x3df12520	0.11774659
28	0xbda97284	-0.08273795
29	0x3d7c1ed8	0.061552852
30	0xbe21e8dc	-0.15811485
31	0x3df31f74	0.118712336
32	0xbdf8e0f7	-0.12152284
33	0xbd9d1ccc	-0.07671508
34	0x3dde405d	0.1085212
35	0x3e1a37eb	0.15060394
36	0xbccfba38	-0.02535735
37	0x3e111120	0.14166689
38	0xbcb7f6f0	-0.022456616
39	0x3c8aecb3	0.01695857
40	0xbe2361ad	-0.15955229
41	0x3c4808f7	0.012209169
42	0x3e239b2c	0.15977162
43	0x3a84770a	0.0010106277
44	0x3c442cb5	0.01197355
45	0x3e546887	0.20742999
46	0x3df616de	0.1201608
47	0x3e1a7ecd	0.15087433
48	0x3e1ed029	0.15509094
49	0x3d88a48d	0.066720106
50	0xbce804c8	-0.028322592
51	0x3dd9e4b4	0.10639325
52	0xbdced9f7	-0.10100167
53	0x3d2bc198	0.041932672
54	0x3ebdb56f	0.37052485
55	0xbd937ff4	-0.072021395
56	0x3ddb1b7e	0.10698603
57	0x3da754c3	0.08170464
58	0x3dbaff95	0.0913078
59	0x3e6645c8	0.22487557
60	0xbd23c3c8	-0.039981633
61	0x3c83dce0	0.016096532
62	0xbdfd13aa	-0.12357266
63	0x3e42eff0	0.19036841
64	0x3e25c7b0	0.16189456
65	0x3d46940d	0.048481036
66	0x3e19946d	0.14998026
67	0xbe00b538	-0.1256913
68	0xbd155baf	-0.03646439
69	0x3e156fcb	0.14593427
70	0x3e0f851f	0.14015625
71	0x3d120f83	0.035659324
72	0x3e8c8797	0.27447197
73	0x3e11a62d	0.14223547
74	0x3e9b1ab7	0.3029382
75	0x3abb2476	0.0014277834
76	0x3e087e62	0.13329461
77	0xbdb07a44	-0.0861707
78	0xbe118fd2	-0.1421502
79	0x38993000	7.304549e-05
80	0x3eb110a7	0.34583017
81	0x3e37c3ea	0.17945829
82	0x3c871d28	0.016493395
83	0x3d2a2e87	0.04154828
84	0xbd9cbc00	-0.07653046
85	0x3e13bddc	0.14427894
86	0xbce78685	-0.028262386
87	0xbc985ba2	-0.018598381
88	0x3cdf01a0	0.027222455
89	0x3e0d292a	0.13785234
90	0xbdc59ac7	-0.09648662
91	0x3e876580	0.26444626
92	0x3d823c90	0.06359208
93	0xbdfda620	-0.123852015
94	0xbd1bf8c0	-0.038079023
95	0x3e8a45ba	0.27006322
96	0xbe060705	-0.13088615
97	0xbd540ddd	-0.051771034
98	0x3d8a63bc	0.06757304
99	0xbe1e969d	-0.15487142
100	0x3dd7ff33	0.10546722
101	0x3dc89e22	0.097957864
102	0x3de089d2	0.10963787
103	0xbdd508a3	-0.10402038
104	0x3e3ccb3c	0.18436903
105	0xbdd69a43	-0.10478642
106	0x3e3b733c	0.18305677
107	0xbe27b1c3	-0.16376404
108	0xbe1c4e2f	-0.152642
109	0x3dde5ce2	0.1085756
110	0x3c9759d0	0.018475443
111	0x3c271610	0.010198131
112	0xbdb98daa	-0.090602234
113	0xbd88146d	-0.06644521
114	0xbd53b60c	-0.051687285
115	0xbe2bc3d3	-0.1677392
116	0x3c168470	0.009186849
117	0x3d000f3c	0.03126453
118	0x3b823a49	0.0039742333
119	0x3d88519f	0.06656193
120	0x3e2bc2a7	0.16773473
121	0x3d462f31	0.04838485
122	0xbd62345b	-0.05522571
123	0xbd86111e	-0.065462336
124	0xbde7a265	-0.11310271
125	0xbdfaf8d6	-0.12254493
126	0xbce939a0	-0.02846986
127	0xbcb926f4	-0.022601582
128	0x3e987273	0.29774818
129	0x3e272a48	0.16324723
130	0x3e525533	0.20540313
131	0xbdfe090d	-0.1240407
132	0x3d9e50d5	0.07730261
133	0x3e941548	0.28922486
134	0x3e3400c1	0.17578413
135	0xbd5b61b1	-0.053559963
136	0x3e82154b	0.2540687
137	0x3cdf65d0	0.027270228
138	0x3df2809d	0.11840937
139	0x3c769e68	0.015052415
140	0x3e643720	0.22286654
141	0xbe26e9b9	-0.16300096
142	0x3ceef070	0.029167384
143	0x3d9ca9be	0.07649563
144	0x3e4e382c	0.20138615
145	0x3e12b4f2	0.14326838
146	0xbc3e9b80	-0.011633754
147	0x3d248947	0.04016998
148	0x3e3343bd	0.17506309
149	0xbce87a07	-0.0283785
150	0x3dd277f1	0.10276783
151	0x3ce14e24	0.02750308
152	0xbcd38948	-0.025822297
153	0xbc9f3985	-0.019436607
154	0x3d0c1d9c	0.034207925
155	0x3c29e33d	0.010369119
156	0x3d29b6d8	0.04143414
157	0x3bda44a0	0.006661013
158	0x3de57e1e	0.112056956
159	0x3d6ae3d2	0.057346173
160	0x3c9138a0	0.017727196
161	0xbd86acc5	-0.06575922
162	0xbe218a0a	-0.15775314
163	0x3d928154	0.07153574
164	0x3c6e912d	0.01456098
165	0xbd9d49a5	-0.07680062
166	0xbd74d06c	-0.05976908
167	0x3d141621	0.036153916
168	0xbd02ece8	-0.031964213
169	0x3ddb20e8	0.10699636
170	0x3c240e50	0.010013178
171	0x3d7269da	0.05918298
172	0x3d917581	0.0710249
173	0xbd34ac1c	-0.04410945
174	0x3d9ca432	0.07648505
175	0x3e059487	0.1304494
176	0x3c054890	0.008134976
177	0x3cd09c6d	0.025465215
178	0x3bd27a60	0.0064232796
179	0x3de692c5	0.11258463
180	0xbd98d9dd	-0.07463429
181	0xbdcc94b9	-0.09989304
182	0x3d9dc27a	0.07703109
183	0xbe258361	-0.16163398
184	0x3b39bd80	0.002834171
185	0xbdb5ab69	-0.088705845
186	0x3ddaef79	0.10690207
187	0xbe29d0c0	-0.16583538
188	0x3ddb840e	0.10718547
189	0x3e3317bb	0.17489521
190	0x3d128288	0.035769016
191	0xbca6dab7	-0.020367963
192	0x3e8b12b2	0.271627
193	0xbb979deb	-0.0046269796
194	0x3dbc8572	0.0920514
195	0xbd9e89dd	-0.07741139
196	0x3c0c7f31	0.008575247
197	0x3e372640	0.17885685
198	0x3cc16ae0	0.023610532
199	0x3cfcd4fa	0.030863274
200	0xbd915d54	-0.07097879
201	0xbd02e740	-0.03195882
202	0x3db34942	0.08754207
203	0x3dc4ce19	0.096096225
204	0x3e74a523	0.2389112
205	0x3d87141d	0.06595633
206	0xbdd6ca8b	-0.10487851
207	0xbc349900	-0.011022806
208	0x3d1beab5	0.03806563
209	0xbdcd27ac	-0.100173324
210	0xbe03b86a	-0.12863317
211	0x3eb31347	0.34975645
212	0x3dd31736	0.103071615
213	0x3dff4b58	0.124655426
214	0x3e2b24f8	0.16713321
215	0xbd8e34fd	-0.069437005
216	0x3c981588	0.018564954
217	0x3e055119	0.13019218
218	0x3cd843d0	0.026399523
219	0x3e745335	0.23859866
220	0x3d3e50bc	0.046463713
221	0x3dfeb5c2	0.12437011
222	0xbd9b17c8	-0.07572895
223	0x3e22fb04	0.15916067
224	0xbe30e624	-0.17275292
225	0xbc36b588	-0.011151679
226	0x3d1d30de	0.03837668
227	0x3d592594	0.053014353
228	0x3e026676	0.12734398
229	0x3e1d80dc	0.15381187
230	0x3e24af01	0.16082384
231	0x3dc745a6	0.09730081
232	0x3dd35273	0.1031846
233	0xbd0396ab	-0.03212611
234	0xbe209ded	-0.15685244
235	0xbdaf9e1e	-0.0857508
236	0xbd1f45f6	-0.03888508
237	0xbdc4628b	-0.09589108
238	0x3db9104a	0.0903631
239	0x3d7e2bc0	0.062053442
240	0x3c14898c	0.009065997
241	0x3cbf33f3	0.023340201
242	0x3e1f0451	0.1552899
243	0x3d49ad66	0.04923763
244	0xbe1ebe34	-0.15502244
245	0xbe048c4f	-0.12944148
246	0x3d935286	0.071934745
247	0x3b4ecfb1	0.00315569
248	0x3db0902e	0.0862125
249	0xbe42feba	-0.19042483
250	0xbe3c3e98	-0.18383253
251	0x3db31aa1	0.087453134
252	0x3de79392	0.11307444
253	0xbe23c52b	-0.15993182
254	0x3d896cae	0.06710182
255	0xbe233082	-0.15936473

gain_net.enc.2.bias f4 [32]
0	0x3df6ee28	0.120571434
1	0x3e8d4d25	0.2759792
2	0xbdc70089	-0.09716899
3	0xbc2f945a	-0.010716522
4	0x3da70c93	0.08156695
5	0xbe272f25	-0.16326578
6	0x3deabd9a	0.11461945
7	0xbdb387d0	-0.087661386
8	0xbc8a7248	-0.016900197
9	0xbe1fedee	-0.15618107
10	0x3dcadb2c	0.09905085
11	0xbe058ac1	-0.13041212
12	0xbc664794	-0.0140551515
13	0x3da0d436	0.07852976
14	0x3e085ec7	0.13317405
15	0x3d76f251	0.060289685
16	0xbdcaa5b2	-0.09894885
17	0x3d0ca7e1	0.03433979
18	0x3dc17c34	0.09447518
19	0x3d7b20a6	0.061310433
20	0x3e369f11	0.17834117
21	0x3dbc47a8	0.09193355
22	0x3e4abf11	0.19799449
23	0xbd79593b	-0.060876112
24	0x3e3c11c2	0.18366149
25	0xbd82853f	-0.06373071
26	0xbd41d308	-0.047320396
27	0x3cb16dd3	0.021658814
28	0xbc678628	-0.014131106
29	0x3dc00abd	0.09377048
30	0x3e25957e	0.16170308
31	0xbd859a79	-0.06523604

gain_net.gru.weight_ih f4 [96, 32]
0	0x3de26e67	0.11056214
1	0xbd86891e	-0.06569122
2	0x3d989d9e	0.07451938
3	0x3e15173f	0.14559649
4	0x3e303614	0.17208129
5	0x3e1b015a	0.15137234
6	0x3e1c6f68	0.15276873
7	0xbc6e047c	-0.014527436
8	0x3db7b06c	0.08969197
9	0xbd96c3e0	-0.07361579
10	0x3e4a10cf	0.19732974
11	0x3db4f66a	0.08836062
12	0xbdeb7212	-0.114963666
13	0x3e1c8501	0.15285112
14	0xbb2bea40	-0.0026232153
15	0x3d4328f1	0.047646467
16	0xbd451aad	-0.048121143
17	0x3d317b3a	0.04333041
18	0x3d7dd1a2	0.0619675
19	0xbd1b8c78	-0.03797576
20	0xbe5e378f	-0.21700881
21	0xbce92b0b	-0.028462907
22	0x3bef72e5	0.0073073977
23	0x3e36dadf	0.1785693
24	0x3e31c8fb	0.17361824
25	0xbd535c52	-0.051601715
26	0xbbde6bc0	-0.006787747
27	0xbca3641e	-0.0199452
28	0xbd3321da	-0.043733455
29	0x3d4df99b	0.05028687
30	0xbc08af28	-0.008342542
31	0x3e23892b	0.15970294
32	0xbd715e04	-0.05892755
33	0x3d09ac1f	0.033611413
34	0xbd5e6df4	-0.05430408
35	0xbd610e3e	-0.054945223
36	0x3e3fbcd9	0.18724383
37	0xbdb1a1a3	-0.08673408
38	0x3c8922cf	0.01674023
39	0x3e2c95aa	0.16853967
40	0x3e409fe2	0.1881099
41	0xbdb7b8c6	-0.089707896
42	0xbcb4b41b	-0.022058537
43	0xbd7e9fb3	-0.06216402
44	0x3d2702c2	0.040774114
45	0x3d9da07a	0.07696624
46	0xbd20fafc	-0.039301857
47	0x3e2dd20d	0.1697466
48	0xbdc5e51f	-0.09662842
49	0xbdb5ca1e	-0.088764414
50	0x3e0f9afb	0.14023964
51	0x3e4a9b54	0.19785815
52	0x3e318259	0.1733488
53	0x3d80fd71	0.0629834
54	0xbd205ad5	-0.039149124
55	0x3d4ec408	0.05047992
56	0x3e507219	0.20356025
57	0xbd8ae075	-0.06781093
58	0xbd3e5218	-0.04646501
59	0xbe2810c3	-0.16412644
60	0xbe0ca9e5	-0.13736685
61	0x3d885411	0.066566594
62	0x3dae115a	0.08499403
63	0x3e428367	0.18995439
64	0x3e796c40	0.243577
65	0x3e5affc8	0.21386635
66	0x3e398929	0.18118729
67	0xbd3c2690	-0.045935214
68	0x3e4b1035	0.19830401
69	0x3dae11e7	0.08499508
70	0x3e176af5	0.14786895
71	0xbb9020a9	-0.0043984246
72	0x3e159263	0.14606623
73	0x3a43f6b7	0.0007475423
74	0xbca30c06	-0.019903194
75	0x3d21460a	0.039373435
76	0x3b9b4442	0.0047383616
77	0x3dafa962	0.08577229
78	0xbdd7b4c3	-0.105325244
79	0x3cf7e469	0.030260282
80	0xbda6a3a1	-0.081366785
81	0x3e588b4b	0.21146886
82	0xbc841aba	-0.016126025
83	0x3e42cf35	0.19024356
84	0x3e30a46e	0.17250225
85	0x3e63bbf1	0.22239663
86	0x3dffcbfe	0.1249008
87	0x3e53939a	0.20661774
88	0x3e83138a	0.25600845
89	0x3e04308d	0.12909146
90	0x3d7632f8	0.0601072
91	0xbd59f785	-0.05321457
92	0x3d49a45f	0.049229022
93	0x3dbebc9c	0.09313318
94	0x3e04950f	0.12947486
95	0x3d0ebaa2	0.034845956
96	0xbdd272d5	-0.10275809
97	0x3c1bc7bb	0.009508069
98	0x3e1ce3fc	0.15321344
99	0x3e1c2a3d	0.15250488
100	0xbd7dc826	-0.061958455
101	0x3daced0c	0.084436506
102	0xbde75344	-0.112951785
103	0xbe2cf73e	-0.1689119
104	0xbce4a3da	-0.027910162
105	0xbcbe1445	-0.023203025
106	0x3de20bf7	0.11037438
107	0xbe09b27b	-0.13446991
108	0x3e3d7eb7	0.18505369
109	0x3e23b24f	0.15985988
110	0x3c323300	0.010876417
111	0x3e612552	0.21986893
112	0xbda210cb	-0.07913359
113	0xbc8d28e5	-0.017231414
114	0x3d23bf16	0.039977156
115	0x3d76d664	0.060263053
116	0xbe42850d	-0.18996067
117	0xbd8377c4	-0.06419328
118	0x3da6e2b9	0.08148713
119	0x3e031294	0.12800056
120	0x3e6c68b9	0.23086824
121	0xbb865119	-0.004099023
122	0x3d7fb370	0.062426984
123	0xbd47e29b	-0.048800092
124	0x3e11ce93	0.14238958
125	0x3cc4d143	0.024025565
126	0x3e49f222	0.19721273
127	0x3e37012b	0.1787154
128	0x3e8d16fa	0.27556592
129	0x3e80f38d	0.25185814
130	0x3e06c1c9	0.1315986
131	0x3e1be9c2	0.1522589
132	0x3ca1ab83	0.019735103
133	0x3e2aa05a	0.16662732
134	0x3e985943	0.297556
135	0x3e2ae779	0.16689862
136	0x3b8aae00	0.004232168
137	0xbdbf47c0	-0.09339857
138	0x3dce9b67	0.100882344
139	0x3d600b9a	0.054698564
140	0x3e38a9c0	0.18033504
141	0x3d933dfe	0.071895584
142	0x3e1a22d5	0.1505235
143	0x3d88018e	0.066409215
144	0xbd7cf8db	-0.061760765
145	0x3e5fa330	0.21839595
146	0x3e0213b2	0.12702826
147	0xbcd9162a	-0.026499826
148	0x3df996b5	0.12186948
149	0xbcb45a7c	-0.022015803
150	0x3d78631f	0.060641404
151	0x3cbdcdb9	0.023169385
152	0x3e6ba0fc	0.2301063
153	0xbd2b5df3	-0.041837644
154	0xbdd5c1b6	-0.10437338
155	0xbdb1ce41	-0.08681918
156	0x3e1b20da	0.1514925
157	0x3cf89da5	0.030348608
158	0x3e0cd01c	0.13751262
159	0xbcd66639	-0.02617179
160	0xbe2ab156	-0.16669211
161	0xbdffc8fb	-0.12489506
162	0xbd9d58d4	-0.07682958
163	0x3e26589d	0.16244741
164	0x3db4d017	0.088287525
165	0xbc5a8abb	-0.01333874
166	0xbe58840e	-0.21144125
167	0xbd7441d4	-0.05963309
168	0xbe15243f	-0.14564608
169	0xbd18723c	-0.037218317
170	0xbc6a002c	-0.014282268
171	0x3db5b032	0.08871497
172	0xbd8ba057	-0.06817692
173	0x3d4ed88c	0.050499484
174	0xbd929039	-0.071564145
175	0xbcb30681	-0.021853687
176	0x3ca55826	0.020183634
177	0xbe11c56a	-0.14235464
178	0xbd93a628	-0.07209426
179	0xbdad5cd0	-0.08464968
180	0xbdf1628f	-0.11786377
181	0x3dc1c4f4	0.09461394
182	0xbd2762dc	-0.040865764
183	0xbe5b5862	-0.21420434
184	0x3da47810	0.080307126
185	0xbe031838	-0.12802207
186	0x3d802d78	0.062586725
187	0x3e44659d	0.19179387
188	0xbd855345	-0.06510023
189	0x3d818111	0.063234456
190	0x3c8ff987	0.017575039
191	0x3d9daf33	0.07699432
192	0x3c0bf984	0.008543376
193	0xbc8e2a47	-0.017354144
194	0x3d18d52d	0.037312675
195	0x3e0eb9be	0.13938043
196	0x3d87c272	0.066288844
197	0x3dfbd340	0.12296152
198	0x3d6e51de	0.058183543
199	0x3d5d82ad	0.0540797
200	0x3d56c31f	0.052432176
201	0x3bb2a059	0.005451244
202	0xbdf0a07d	-0.11749361
203	0xbe1ec33e	-0.15504166
204	0x3d1689c5	0.03675248
205	0x3db32f66	0.08749275
206	0x3df3334e	0.1187502
207	0x3d66e494	0.056370333
208	0x3d9b2f39	0.075773664
209	0x3e24d0b1	0.16095234
210	0xbdc51638	-0.096233785
211	0xbdd0122f	-0.10159718
212	0xbe1d6b86	-0.15373048
213	0x3d8ea3f7	0.069648676
214	0xbd80b8e0	-0.06285262
215	0xbc652a4f	-0.013987138
216	0x3c9c5182	0.019081835
217	0x3e085a95	0.13315804
218	0x3d27e244	0.040987268
219	0x3e57efe0	0.21087599
220	0x3e54af5d	0.20770021
221	0xbd66d7f0	-0.056358278
222	0x3d6337d0	0.05547315
223	0x3db8bc93	0.09020343
224	0x3e55939b	0.20857088
225	0xbb1be1d2	-0.0023785722
226	0xbc6638f1	-0.014051662
227	0xbde4c7fb	-0.11170956
228	0x3e3157cf	0.17318653
229	0xbd4cded6	-0.0500172
230	0xbc37a3bf	-0.011208474
231	0x3df5a2b4	0.11993924
232	0x3e801c6c	0.25021684
233	0xbbec7fa1	-0.007217363
234	0xbd71404d	-0.058899213
235	0x3e134608	0.14382184
236	0x3b25072f	0.0025181284
237	0xbda6d61f	-0.08146309
238	0xbdfe8597	-0.12427824
239	0xbd93ac68	-0.07210618
240	0xbe0c48b2	-0.13699606
241	0xbd78a1c5	-0.06070115
242	0xbdd48f08	-0.103788435
243	0x3c976b1e	0.018483695
244	0x3df1f67a	0.1181459
245	0xbd8d5b80	-0.06902218
246	0x3ce62e36	0.028098207
247	0x3caf8a08	0.021428123
248	0x3e1385a5	0.1440645
249	0x3e5c38f6	0.21506104
250	0xbcbff8c0	-0.023434043
251	0xbd168677	-0.03674933
252	0xbdd7cf63	-0.10537603
253	0xbd8eeeca	-0.06979139
254	0x3de3445a	0.110970214
255	0x3dd83976	0.10557835

gain_net.gru.weight_hh f4 [96, 32]
0	0x3df27a6b	0.118397556
1	0x3ddc4f21	0.1075728
2	0x3dec279b	0.11530992
3	0xbc80d1d0	-0.015725046
4	0xbdffa32a	-0.12482293
5	0xbca5efeb	-0.020256003
6	0x3d82168a	0.06351955
7	0xbcf09d0e	-0.029371765
8	0x3dd5c180	0.10437298
9	0xbd5a0c90	-0.053234637
10	0xbd81e758	-0.063429534
11	0xbb9f82ae	-0.004867873
12	0x3e5454a4	0.20735413
13	0xbe05ea11	-0.1307757
14	0x3e60c894	0.21951514
15	0x3caefd11	0.021360906
16	0xbd91755c	-0.07102463
17	0x3e173d99	0.14769591
18	0x3e0fc4a6	0.14039859
19	0xbcfc09d1	-0.0307664
20	0x3c483113	0.012218731
21	0x3e007915	0.12546189
22	0x3e202371	0.1563852
23	0xbdbee8ab	-0.09321722
24	0x3bfcc241	0.0077135866
25	0x3d875027	0.06607085
26	0x3e146a6d	0.14493723
27	0x3d891e34	0.06695214
28	0xbd8d486b	-0.06898578
29	0xbe47aee1	-0.19500305
30	0x3c90105c	0.017585926
31	0x3c4f8b88	0.012667544
32	0xbce66f51	-0.028129252
33	0xbdf9f271	-0.12204445
34	0xbdb4b4ca	-0.08823545
35	0x3e469000	0.19390869
36	0xbe3141a4	-0.17310196
37	0xbe00bf1d	-0.12572904
38	0x3e056e96	0.13030466
39	0x3e3a4cd4	0.1819337
40	0xbdc20160	-0.094729185
41	0xbe16eec7	-0.14739524
42	0xbd1cf2b2	-0.03831739
43	0x3e424a78	0.1897372
44	0xbdba93fd	-0.09110258
45	0x3d26a220	0.04068196
46	0x3e26b349	0.1627933
47	0xbd12e4e1	-0.035862807
48	0xbd3272db	-0.043566566
49	0xbdcb2c6a	-0.09920581
50	0x3cda49d7	0.026646538
51	0x3e4066a0	0.18789148
52	0x3db3a232	0.08771171
53	0x3e0b83f2	0.13624552
54	0x3bcff22d	0.0063460083
55	0xbe16d304	-0.14728934
56	0xbcb3a6d0	-0.021930128
57	0x3e1fbeef	0.15600179
58	0xbc71f18f	-0.014767065
59	0xbe0badd2	-0.13640526
60	0xbe3e6df5	-0.18596633
61	0x3d812343	0.06305554
62	0x3e3e82da	0.18604603
63	0xbce2fd2a	-0.027708609
64	0xbe667f76	-0.2250956
65	0xbd924dea	-0.07143767
66	0xbde1abf3	-0.11019125
67	0x3e0f2fc4	0.13983065
68	0x3e512bf2	0.2042692
69	0x3dfb17ba	0.12260385
70	0x3dffc47b	0.124886476
71	0x3e37d28d	0.17951412
72	0x3d9338df	0.07188582
73	0x3e31368e	0.17305967
74	0x3e2b33cb	0.16718976
75	0x3de563d3	0.112006806
76	0x3e21975b	0.15780394
77	0xbe20ee75	-0.15715964
78	0xbd57b651	-0.052664105
79	0xbcfd5557	-0.030924482
80	0xbd1ef965	-0.03881206
81	0xbdb76263	-0.08954313
82	0xbd84e51f	-0.06489014
83	0xbd98a8fe	-0.07454108
84	0x3e59120c	0.2119829
85	0x3d5b5fad	0.05355804
86	0xbcbafd9b	-0.022826007
87	0x3d3b0d8c	0.045667216
88	0x3cc6d22b	0.024270138
89	0x3dcf6545	0.101267375
90	0xbdc63eeb	-0.096799694
91	0xbd7a5665	-0.06111755
92	0xbd9abd80	-0.075556755
93	0x3d6399fc	0.055566773
94	0xbcb5ef58	-0.022208855
95	0x3d23ef02	0.040022857
96	0x3c31906c	0.0108376555
97	0xbc527f52	-0.012847738
98	0xbc017616	-0.007901689
99	0xbca9193d	-0.020641917
100	0x3d8b9198	0.06814879
101	0xbd0c4211	-0.034242693
102	0x3deb0bba	0.11476846
103	0x3d70ced6	0.058791004
104	0xbe4190f3	-0.1890295
105	0xbd751558	-0.059834808
106	0xbd91356a	-0.07090266
107	0x3e12c7ee	0.1433408
108	0x3da6a237	0.08136409
109	0xbd8ccb8f	-0.06874763
110	0xbd5106e1	-0.05103195
111	0xbe814e0b	-0.25254855
112	0xbdb4a02d	-0.088196136
113	0xbda765e1	-0.08173729
114	0xbdf6d931	-0.12053145
115	0xbde2b400	-0.110694885
116	0xbd9744a5	-0.0738614
117	0xbe4ba201	-0.19886018
118	0x3dda6666	0.10664062
119	0x3d31e8b3	0.04343481
120	0x3df027bf	0.11726331
121	0xbe2487b0	-0.16067386
122	0x3e230b5b	0.159223
123	0x3da968fe	0.08271979
124	0x3dc8ebc7	0.09810596
125	0xbdea08d3	-0.11427464
126	0x3e088ed3	0.13335733
127	0xbe4be1b0	-0.19910312
128	0xbdae3472	-0.08506097
129	0x3e912667	0.2834961
130	0x3deb4252	0.11487259
131	0xbd043ade	-0.032282703
132	0x3d39ecc5	0.045391817
133	0x3dcf48a9	0.10121281
134	0x3e728deb	0.2368695
135	0x3d8c30b2	0.068452254
136	0xbd039d2a	-0.032132305
137	0x3da9bc6a	0.0828789
138	0x3dd9fd67	0.10644036
139	0x3e1345e8	0.14382136
140	0x3d1c2600	0.038122177
141	0xbe451709	-0.19247068
142	0x3e954880	0.29156876
143	0x3d42c968	0.047555357
144	0xbe1a491f	-0.15066956
145	0x3e947c0a	0.29000884
146	0x3e8ec3f6	0.2788388
147	0x3ce17b8d	0.027524734
148	0x3d593e66	0.053038023
149	0xbe8e3c03	-0.2778016
150	0x3e3d58cd	0.18490906
151	0x3d66888b	0.05628256
152	0x3dfe5c8e	0.12419997
153	0x3da8e689	0.08247096
154	0x3d93d3b1	0.07218111
155	0x3d0eceea	0.034865297
156	0xbd95fbf3	-0.07323446
157	0xbe681e33	-0.2266777
158	0x3e9e3a0e	0.30903667
159	0xbe7bfe58	-0.24608743
160	0xbdb4ba05	-0.08824543
161	0x3dfe7689	0.124249525
162	0xbd6fa47f	-0.058506485
163	0xbd86d229	-0.065830536
164	0x3dba750c	0.09104356
165	0xbd4faa1d	-0.050699342
166	0xbd56bb8a	-0.052424945
167	0x3c4494f6	0.011998406
168	0xbe0c9aa2	-0.13730863
169	0x3d8a32c7	0.06747966
170	0x3dcad599	0.09904022
171	0xbdc8ee42	-0.09811069
172	0x3e4cbed9	0.19994678
173	0xbea13bec	-0.3149103
174	0x3dd120c9	0.102113314
175	0xbd5a5081	-0.05329943
176	0xbdd78627	-0.105236344
177	0x3e4f5e31	0.20250775
178	0xbe04ed6e	-0.12981197
179	0x3d4e7cc4	0.050411955
180	0x3e06b67c	0.1315555
181	0x3dfcab56	0.12337367
182	0xbdee7ee5	-0.11645297
183	0x3e0a7a08	0.13523114
184	0x3e5aa861	0.21353294
185	0xbc838a0f	-0.016057042
186	0x3d9f6e43	0.07784703
187	0xbda003c1	-0.07813216
188	0x3e017d32	0.12645414
189	0xbe5f5856	-0.21811041
190	0x3df9baa2	0.121938005
191	0xbd9f2d0b	-0.07772263
192	0x3d36eecd	0.044661332
193	0x3d7ebd11	0.062192027
194	0xba30b21f	-0.00067404093
195	0x3cbff208	0.02343084
196	0xbdfe115c	-0.12405655
197	0xbc10efd8	-0.008846246
198	0x3d905e4c	0.07049236
199	0xbda75caf	-0.08171975
200	0x3dceba49	0.10094125
201	0xbd4ce0e2	-0.050019152
202	0xbba900dd	-0.0051575736
203	0x3d27a556	0.04092916
204	0xbdaacf4c	-0.0834032
205	0xbd12f9c1	-0.035882715
206	0xbcae0df2	-0.021246884
207	0xbe539b96	-0.2066482
208	0xbd2dc8fe	-0.04242801
209	0x3e61395a	0.21994534
210	0x3dde0e85	0.10842613
211	0x3e594188	0.21216404
212	0x3d842918	0.064531505
213	0xbde05478	-0.10953611
214	0x3e527acc	0.20554656
215	0xbe0a347c	-0.13496584
216	0xbdd07fde	-0.10180639
217	0x39ba3f43	0.00035523818
218	0x3e115ea8	0.14196265
219	0xbd38fa8e	-0.045160823
220	0x3df0a291	0.11749757
221	0xbde65fa0	-0.11248708
222	0x3d20ad8d	0.03922801
223	0xbdaec836	-0.08534281
224	0xbdb222aa	-0.08698018
225	0xbda4f240	-0.08054018
226	0xbc1eb95c	-0.009687748
227	0x3c2e43bc	0.010636266
228	0x3e0f2fa2	0.13983014
229	0x3d9c5b64	0.07634619
230	0xbdb0a99c	-0.086261004
231	0xbdb88142	-0.09009029
232	0xbd3cbd12	-0.04607875
233	0x3e0e1f7e	0.13879201
234	0xbd68a122	-0.056794293
235	0xbcdef7c5	-0.027217755
236	0x3da46b03	0.08028223
237	0xbdc082dc	-0.093999594
238	0xbcf1f65b	-0.029536417
239	0x3e1727cb	0.14761274
240	0xbe004564	-0.1252647
241	0x388e210e	6.7772446e-05
242	0x3e3e227d	0.18567844
243	0x3dd13338	0.10214847
244	0x3e43a4cc	0.19105834
245	0xbe3e57e2	-0.18588212
246	0x3e16c6b5	0.14724238
247	0xbe1641c7	-0.1467353
248	0xbd81c120	-0.06335664
249	0xbd8eded2	-0.06976093
250	0xbe005cdb	-0.12535422
251	0x3e34cbcd	0.17655869
252	0xbdfb0adc	-0.12257931
253	0xbe506364	-0.20350415
254	0x3e50c79a	0.20388642
255	0x3da2d61d	0.07950995

gain_net.gru.bias_ih f4 [96]
0	0xbd3579fb	-0.044305783
1	0x3e1ecf8a	0.15508857
2	0xbd85f86c	-0.06541523
3	0x3e3a2cbd	0.18181129
4	0x3e5bec07	0.21476756
5	0x3e3cc157	0.18433128
6	0x3d53d60a	0.051717795
7	0x3d8813ac	0.06644377
8	0xbc104a28	-0.008806743
9	0x3e694834	0.2278145
10	0x3ca9b1b8	0.020714626
11	0x3d23f79f	0.04003107
12	0x3d990b76	0.07472889
13	0x3c9f6735	0.019458393
14	0xbc9d7c00	-0.019224167
15	0xbe7614fc	-0.24031442
16	0xbc092769	-0.0083712125
17	0x3dbe84f5	0.09302703
18	0x3da54640	0.0807004
19	0x3ce4aba6	0.02791388
20	0x3df717d4	0.12065092
21	0x3d908b3d	0.070578076
22	0x3e2bfb36	0.16795048
23	0xbc43e9fc	-0.011957642
24	0x3e600b9b	0.21879427
25	0x3e02a0b7	0.1275662
26	0x3e1193a4	0.14216477
27	0x3e1ab770	0.15109038
28	0xbd0fa884	-0.03507282
29	0x3db277b5	0.087142386
30	0x3b8dcc73	0.0043273508
31	0xbd4e9e9f	-0.05044424
32	0x3c2fbabf	0.010725676
33	0x3ccda69e	0.025103863
34	0xbe126d3f	-0.14299487
35	0xbe49d214	-0.19709045
36	0x3d4068a9	0.04697481
37	0xbe8838fb	-0.26605973
38	0xbd69476f	-0.05695289
39	0xbcfc8ed7	-0.03082983
40	0xbe33e024	-0.17565972
41	0x3bb4024c	0.005493438
42	0xbe735f68	-0.23766863
43	0xbdaf7775	-0.085677065
44	0xbe01187b	-0.12606995
45	0xbc4a9d91	-0.012366668
46	0xbdbf7070	-0.093476176
47	0xbe51f1b2	-0.20502356
48	0xbdbfee95	-0.09371678
49	0x3d6f1bb7	0.05837604
50	0xbe2edd9a	-0.17076722
51	0x3d9fce71	0.078030474
52	0xbc721fea	-0.014778117
53	0xbda4206c	-0.080139965
54	0xbd986fc8	-0.074431956
55	0xbb6fd213	-0.003659372
56	0xbd992db1	-0.07479418
57	0xbd97da3e	-0.07414673
58	0xbca25507	-0.019815935
59	0xbd8700bd	-0.06591938
60	0xbe76d36c	-0.24104089
61	0xbe049381	-0.12946893
62	0x3d7309f2	0.059335656
63	0x3cc21965	0.02369375
64	0xbd8c2c27	-0.06844359
65	0x3e5f5855	0.2181104
66	0xbdc2df1d	-0.09515212
67	0x3e0366a2	0.1283212
68	0xbd8c2b7a	-0.0684423
69	0x3e0e8382	0.13917354
70	0x3e2c85e8	0.16847956
71	0x3e0d880c	0.13821429
72	0xbb0ead3d	-0.0021770739
73	0x3e2e13a7	0.16999684
74	0x3e440b6d	0.19144984
75	0x3e3038c4	0.17209154
76	0x3c04b14b	0.008098911
77	0xbc89204e	-0.016739037
78	0x3d2a4e21	0.041578416
79	0xbd693947	-0.05693939
80	0xbaa8e71e	-0.0012886261
81	0x3e69ab98	0.22819364
82	0x3e2ab3e8	0.16670191
83	0x3cedab2d	0.029012287
84	0x3dfe4a91	0.12416566
85	0xbde94e71	-0.11391915
86	0x3e6096f1	0.2193258
87	0xbe2f3a9d	-0.17112203
88	0x3e0d1c2b	0.13780276
89	0xbdac25b4	-0.08405629
90	0x3dc909e0	0.09816337
91	0x3e536977	0.206457
92	0x3de8dd37	0.113703184
93	0xbd9ebdfd	-0.07751081
94	0x3da551dd	0.08072255
95	0xbc4d7d6b	-0.012542109

gain_net.gru.bias_hh f4 [96]
0	0x3b939501	0.0045038466
1	0x3e4b1fce	0.19836351
2	0x3e4b9aff	0.19883345
3	0x3e1e08ef	0.15433095
4	0x3d4f4867	0.050606158
5	0x3e1d33f0	0.15351844
6	0xbc9d6d58	-0.019217178
7	0xbd8ad822	-0.06779505
8	0x3d2c3159	0.04203925
9	0x3d4a9894	0.049461916
10	0x3e0dae40	0.13836002
11	0x3e22b335	0.15888675
12	0x3e01f1fd	0.12689967
13	0xbe01133c	-0.12604994
14	0x3e54a6d9	0.20766772
15	0x3d8db3e7	0.06919079
16	0xbdf0f0a0	-0.117646456
17	0x3e4b790d	0.19870396
18	0x3dc7d620	0.09757638
19	0x3e0bd959	0.1365713
20	0x3e2abf48	0.1667453
21	0x3e4078b7	0.18796049
22	0x3d09fbf9	0.033687565
23	0x3d3e0b6e	0.04639762
24	0xbc4eb12c	-0.012615483
25	0x3c4b938a	0.012425313
26	0x3c3768d7	0.011194429
27	0xbc9e3f34	-0.019317247
28	0x3e5042e3	0.20338015
29	0xbe2a364b	-0.16622274
30	0x3e6128a1	0.21988155
31	0xbdb380b0	-0.087647796
32	0x3da50156	0.080568954
33	0x3c3fabac	0.011698645
34	0xbe620453	-0.22071962
35	0xbd79f7d2	-0.061027355
36	0xbe62b42b	-0.22139041
37	0xbe6add2d	-0.22935934
38	0xbd955b61	-0.0729282
39	0xbdad75c4	-0.08469728
40	0x3c153684	0.009107236
41	0x3d8c31fa	0.0684547
42	0xbe76d023	-0.24102835
43	0x3dc36b05	0.09541897
44	0xbe3f44ba	-0.18678561
45	0xbe163b7c	-0.14671129
46	0x3d72c921	0.059273843
47	0xbdec2a68	-0.11531526
48	0xbe2d6c01	-0.16935731
49	0xbdfa32c5	-0.12216715
50	0x39209888	0.00015315611
51	0xbda0f98b	-0.078600965
52	0x3d440d2d	0.047864128
53	0x3c85fc24	0.016355582
54	0xbe6bc8e4	-0.23025852
55	0xbe8dfd43	-0.27732286
56	0xbd8280fe	-0.063722596
57	0xbdd6d6a0	-0.10490155
58	0xbdb456b8	-0.08805603
59	0xbcacc80c	-0.021091484
60	0xbc5bc9b8	-0.013414793
61	0xbe051a4f	-0.12998317
62	0xbe0e6b58	-0.13908136
63	0xbc96198e	-0.018322732
64	0xbc8cef8d	-0.01720407
65	0x3d0cd51a	0.034382917
66	0x3daf0a64	0.08546904
67	0x3df00c0a	0.11721046
68	0xbe15774d	-0.14596291
69	0xbe15333b	-0.14570324
70	0x3da60918	0.08107203
71	0x3e04032b	0.12891833
72	0xbdde7acc	-0.108632654
73	0xbd1c9b03	-0.03823377
74	0xbd941b74	-0.07231799
75	0x3df417b4	0.119185835
76	0x3e4b5efc	0.19860452
77	0x3e389417	0.18025242
78	0xbd4d526c	-0.05012743
79	0x3dbe9c52	0.093071595
80	0xbde4c6dd	-0.11170743
81	0xbd9c8774	-0.07643023
82	0x3e392fa3	0.18084578
83	0x3e6ebe02	0.2331467
84	0x3c8fed9d	0.017569358
85	0xbe196a62	-0.14981988
86	0x3db8f8f6	0.090318605
87	0x3d1ffc60	0.039059043
88	0x3e3349bd	0.17508598
89	0xbb317201	-0.0027076008
90	0x3dd4d3aa	0.10391934
91	0x3e0d9685	0.1382695
92	0x3c2ea343	0.010659042
93	0xbb492ef7	-0.003069816
94	0x3ddd6c47	0.10811668
95	0xbc1ad5bd	-0.009450373

gain_net.trunk.0.weight f4 [32, 32]
0	0x3db24a82	0.087056175
1	0xbdcdeb50	-0.10054648
2	0x3e0a9e2c	0.135369
3	0xbd67a2fd	-0.056551922
4	0xbe078b2e	-0.13236687
5	0x3de297f3	0.11064138
6	0xbdd4d7be	-0.10392712
7	0xbe3e497a	-0.18582717
8	0xbbbfb9df	-0.005851015
9	0x3e223824	0.15841728
10	0xbe14f038	-0.14544761
11	0x3d0175bd	0.031606425
12	0xbe1492f4	-0.14509183
13	0x3dabd90c	0.08391008
14	0x3e01d764	0.12679821
15	0xbc8a28ff	-0.016865252
16	0xbe18bd54	-0.14915973
17	0xbe11f85f	-0.14254902
18	0xbde40213	-0.11133208
19	0xbd9da6fd	-0.07697866
20	0xbdc3e1cf	-0.09564554
21	0x3d882f71	0.06649674
22	0x3ce1b1e5	0.027550647
23	0xbe04a702	-0.12954333
24	0x3cb9a1bf	0.022660134
25	0xbe1b5f7c	-0.15173143
26	0x3deb1d87	0.11480241
27	0xbcc2c27a	-0.023774374
28	0x3e1e4057	0.15454231
29	0x3e057f7c	0.13036913
30	0xbde520cb	-0.111878954
31	0x3dffd4c9	0.124917574
32	0xbe101393	-0.14069967
33	0xbe1f1f87	-0.1553937
34	0x3e267796	0.16256556
35	0xbda7c667	-0.08192139
36	0xbe346696	-0.17617258
37	0xbde00125	-0.10937718
38	0xbdcd1d4a	-0.10015352
39	0xbe1738d2	-0.14767769
40	0x3c8344f0	0.016024083
41	0xbe13bfdc	-0.14428657
42	0xbd23f580	-0.04002905
43	0x3deceef5	0.11569015
44	0xbe05ecae	-0.13078567
45	0x3dabafb0	0.08383119
46	0x3e2a8e80	0.16655922
47	0xbd224b0c	-0.03962235
48	0x3c02f414	0.007992763
49	0xbe240a86	-0.1601964
50	0x3e2a37cf	0.16622852
51	0x3e197e2c	0.14989537
52	0xbc31534c	-0.010823082
53	0x3e187c5b	0.14891188
54	0xbe144acd	-0.14481659
55	0xbe00e065	-0.125856
56	0x3e2ddb05	0.1697808
57	0xbe3bdf81	-0.18346979
58	0xbc00a311	-0.007851378
59	0xbdad982c	-0.0847629
60	0xbe217ab1	-0.1576946
61	0x3d14180a	0.036155738
62	0xbd8cf3f7	-0.0688247
63	0x3da439e5	0.08018855
64	0xbe5fc813	-0.21853666
65	0x3e49aa01	0.19693758
66	0x3dfb2c4d	0.12264309
67	0xbd0ed999	-0.034875486
68	0x3e3fa4d9	0.18715228
69	0x3e801b3c	0.25020778
70	0x3ca16cb8	0.019705161
71	0x3e42feb0	0.19042468
72	0xbe4be037	-0.1990975
73	0x3e8a37f1	0.26995805
74	0x3d7aaea5	0.06120171
75	0x3e868bbf	0.26278493
76	0x3cf40e7f	0.029792069
77	0xbe6832c3	-0.22675614
78	0x3e677392	0.2260268
79	0xbda6abf7	-0.081382684
80	0xbe552982	-0.20816615
81	0x3e8e4d66	0.27793425
82	0x3e3fc7e2	0.18728593
83	0x3e6d20ee	0.23157093
84	0x3d2ad53b	0.04170726
85	0xbdc025d4	-0.09382215
86	0x3e3db80e	0.18527243
87	0x3e5bc9dc	0.21463722
88	0x3ea19ec1	0.31566432
89	0x3ce191fe	0.027535435
90	0x3ea18bf3	0.31552085
91	0x3d8e2105	0.06939892
92	0xbcb3fe8e	-0.021971967
93	0xbd8b77d5	-0.068099655
94	0x3e1538d7	0.14572464
95	0xbe1db517	-0.15401112
96	0xbe68ba67	-0.22727357
97	0x3dc1e24f	0.09466993
98	0x3e5400a8	0.20703375
99	0x3e5500c9	0.20801081
100	0x3df0ea12	0.11763395
101	0x3e05551f	0.13020752
102	0x3e678a60	0.2261138
103	0x3db9471a	0.09046765
104	0xbdaaa5be	-0.08332394
105	0xbd69380a	-0.05693821
106	0x3dcc39ce	0.09971963
107	0x3cbaf21b	0.022820523
108	0x3e5c62ae	0.21522018
109	0xbe7ed493	-0.24885778
110	0xbd005ec9	-0.031340394
111	0xbe5aa663	-0.21352534
112	0xbda47622	-0.080303445
113	0x3e65204c	0.22375602
114	0x3e45a328	0.1930052
115	0xbd6ee11d	-0.058320154
116	0x3cc00690	0.02344063
117	0xbe2258e1	-0.15854217
118	0x3dc6c8e5	0.09706286
119	0x3e95256d	0.29130116
120	0x3d9d6a7d	0.07686327
121	0x3da29f03	0.07940485
122	0x3e0b923c	0.13630003
123	0x3e547e64	0.20751339
124	0x3e420ad0	0.18949437
125	0x3b9a7779	0.0047139493
126	0x3e32d6cf	0.17464755
127	0xbd45cd6d	-0.048291612
128	0xbdd33570	-0.10312927
129	0x3e473c43	0.19456582
130	0x3e528e43	0.20562081
131	0x3b11319f	0.002215482
132	0xbcf7549b	-0.03019171
133	0xbc21a1ac	-0.009865206
134	0x3e1c2569	0.15248646
135	0x3e8297ab	0.25506338
136	0xbea90e49	-0.3301871
137	0x3e379b7e	0.1793041
138	0xbc869c03	-0.016431814
139	0x3e41ae92	0.1891425
140	0xbd4dd735	-0.050254066
141	0xbe86df7c	-0.2634238
142	0x3dcba957	0.099444084
143	0xbe7e7d0f	-0.24852394
144	0x3b3fddd1	0.00292765
145	0x3d497aa8	0.04918924
146	0x3e2b99c9	0.16757883
147	0x3e47890a	0.1948587
148	0x3e2174ca	0.15767208
149	0xbe823189	-0.25428417
150	0x3cc6d53b	0.024271598
151	0x3e127b2a	0.14304796
152	0x3de27b7a	0.110587075
153	0xbc2543e0	-0.010086983
154	0x3e831f42	0.25609785
155	0x3e249171	0.16071106
156	0x3dec0bc0	0.11525679
157	0xbe909a2a	-0.28242618
158	0x3e8e6747	0.2781317
159	0xbd8461d0	-0.06463969
160	0xbe20defe	-0.15710065
161	0xbd471a78	-0.048609227
162	0x3d8ad60c	0.067791075
163	0xbbb61d20	-0.005557671
164	0x3dee9d2e	0.116510734
165	0xbcf7f1e0	-0.030266702
166	0x3cb5d560	0.022196472
167	0x3e29a86b	0.16568153
168	0xbe20c1ad	-0.15698881
169	0x3c9006c0	0.017581344
170	0xbe1359a5	-0.14389665
171	0xbdf3f3a8	-0.11911708
172	0xbe2980ed	-0.16553088
173	0x3db1c1d6	0.086795494
174	0xbd0e175c	-0.034690246
175	0x3d8371e2	0.06418206
176	0x3ca3edc8	0.020010844
177	0x3d6c3618	0.057668775
178	0xbe18131b	-0.14851038
179	0xbd8063ea	-0.06269057
180	0xbd464bb4	-0.04841204
181	0xbe037a26	-0.12839565
182	0x3d9a15f2	0.07523717
183	0x3dcd8016	0.10034196
184	0xbd82f1bc	-0.063937634
185	0xbdf770b1	-0.12082041
186	0xbdbc762c	-0.09202227
187	0xbe28c368	-0.16480792
188	0xbdeba6c8	-0.115064204
189	0xbd477428	-0.04869476
190	0x3ceedc28	0.029157713
191	0xbdadc1ae	-0.08484207
192	0xbe954fed	-0.2916254
193	0x3e5e5692	0.21712711
194	0x3e8aa55e	0.2707929
195	0x3e15bb7f	0.14622305
196	0x3d97c766	0.07411079
197	0x3d8154bf	0.06314992
198	0x3e557eeb	0.20849197
199	0x3e145f05	0.14489372
200	0xbe1f4637	-0.15554129
201	0x3e88588f	0.26630065
202	0x3e7d339a	0.24726716
203	0x3e8f41ce	0.27979892
204	0x3e8485ce	0.25883335
205	0xbe7f8188	-0.24951756
206	0x3e9fcf10	0.31212664
207	0xbc775520	-0.015095979
208	0xbe93ecfb	-0.2889174
209	0x3e83c5d2	0.25736862
210	0x3d0c8fc7	0.034316804
211	0x3d78bab0	0.060724914
212	0x3e368a12	0.17826107
213	0xbc034317	-0.008011601
214	0x3e2bfb5f	0.16795109
215	0xbb6f5e6e	-0.003652479
216	0x3ce51553	0.02796427
217	0xbd767b47	-0.06017616
218	0x3dac00df	0.08398604
219	0x3e4552d8	0.19269884
220	0x3e5f1561	0.21785499
221	0xbe3dd57d	-0.1853847
222	0xbbdbc6f9	-0.006707069
223	0xbe3c6956	-0.18399557
224	0xbde941bf	-0.11389493
225	0xbc84190d	-0.016125226
226	0xbd882409	-0.06647498
227	0xbd18701a	-0.037216283
228	0x3e77bfa3	0.24194197
229	0x3e158a8d	0.14603634
230	0x3e7190cb	0.2359039
231	0xbe0988f2	-0.13431147
232	0x3eef34c7	0.46719953
233	0x3c41fbbc	0.011839803
234	0x382b6438	4.0862913e-05
235	0x3d9e1151	0.077181466
236	0x3e30a798	0.17251432
237	0x3eb4d478	0.3531835
238	0xbc27e36c	-0.010247093
239	0x3eac6a4f	0.33674857
240	0xbdb44389	-0.08801944
241	0x3dff013e	0.12451409
242	0x3dab3e66	0.08361511
243	0x3cc9a7af	0.02461609
244	0x3e1cfc77	0.15330683
245	0x3d726280	0.05917597
246	0x3e1486cd	0.14504547
247	0xbe874ea4	-0.26427186
248	0x3d9929f4	0.07478705
249	0xbd97dcbb	-0.07415148
250	0xbd9eb3b0	-0.077491164
251	0x3e4f0b3b	0.20219128
252	0xbe86e9ca	-0.26350242
253	0x3e1686a7	0.14699803
254	0x3e68e36b	0.22743003
255	0xbe08c5a3	-0.13356642

gain_net.trunk.0.bias f4 [32]
0	0xbdea3bc9	-0.11437184
1	0x3e088c50	0.13334775
2	0x3e976d45	0.29575554
3	0x3e34ced1	0.17657019
4	0x3e589d0b	0.21153657
5	0xbe00520b	-0.12531297
6	0x3e31a533	0.17348175
7	0x3d4a6181	0.049409393
8	0x3d40dc9a	0.047085382
9	0x3cb1d912	0.021709953
10	0x3e485351	0.19563033
11	0xbdfa7326	-0.12228994
12	0xbd2e49d8	-0.04255089
13	0x3e2fc895	0.1716636
14	0x3e7d88b7	0.24759184
15	0xbcc2a530	-0.023760408
16	0x3e9440c3	0.2895566
17	0xbd2b323d	-0.041795958
18	0x3df3524d	0.11880932
19	0xbe388ea1	-0.18023159
20	0xbe1f3aec	-0.1554982
21	0x3d72a756	0.059241615
22	0x3e062268	0.13099062
23	0x3e27e0e4	0.16394383
24	0x3ea2406b	0.31689772
25	0x3dab81a8	0.08374339
26	0x3e77973e	0.24178788
27	0xbd9fbb9f	-0.07799458
28	0x3e3775b9	0.17916001
29	0xbe1c77bd	-0.15280052
30	0xbe2bcfd8	-0.16778505
31	0x3e5699b3	0.20957069

gain_net.dk_head.0.weight f4 [32, 32]
0	0xbdd5f7db	-0.10447665
1	0xbd9dbad0	-0.07701647
2	0xbda55ec2	-0.08074714
3	0xbc3d57e1	-0.0115565965
4	0x3e03c46c	0.12867898
5	0x3db539d2	0.08848919
6	0xbdcd3e89	-0.10021693
7	0xbe4bce8f	-0.19903015
8	0xbe1d96cb	-0.15389554
9	0xbe1883de	-0.14894053
10	0xbb8d483e	-0.0043115905
11	0xbc78ae90	-0.015178338
12	0x3dc95fec	0.09832749
13	0x3dcd02cd	0.100103
14	0x3dd2b587	0.1028853
15	0x3d91e324	0.07123402
16	0x3ca79311	0.020455869
17	0xbc98d232	-0.018654916
18	0x3e7f1be4	0.24912983
19	0x3cebedc5	0.0287999
20	0x3df687d6	0.120376274
21	0xbd8ecfa0	-0.06973195
22	0x3d5e3296	0.05424746
23	0x3ddc5fb9	0.10760445
24	0x3e0e9e18	0.13927495
25	0xbd89e14f	-0.06732427
26	0xbe01a133	-0.12659149
27	0x3dcf1942	0.101122394
28	0xbe885690	-0.26628542
29	0x3e2b529b	0.1673073
30	0xbd71f4e6	-0.059071444
31	0xbd41a0a1	-0.04727233
32	0x3d1da79b	0.03848992
33	0xbdf6b806	-0.120468184
34	0xbdfdd68f	-0.123944394
35	0x3e0fbb26	0.14036235
36	0x3d94503e	0.072418675
37	0x3d0e9b98	0.034816355
38	0xbab97824	-0.0014150185
39	0xbcc4aae6	-0.024007272
40	0xbd816976	-0.06318943
41	0x3d5fe8ca	0.054665364
42	0x3db4360c	0.08799371
43	0x3d380c94	0.04493387
44	0xbde30c78	-0.110863626
45	0xbe25b0d4	-0.16180736
46	0xbd24e07a	-0.04025314
47	0xbe4355bc	-0.19075674
48	0xbdfb1a39	-0.12260861
49	0xbd854872	-0.065079585
50	0x3d154684	0.036444202
51	0x3d2f3f73	0.04278512
52	0xbdbad2a8	-0.09122211
53	0xbddd3175	-0.10800449
54	0xbdaf977f	-0.085738175
55	0x3de3b15c	0.11117813
56	0x3dccf545	0.10007719
57	0x3e453e7e	0.1926212
58	0x3de4f854	0.11180177
59	0x3e29ebad	0.1659381
60	0xbe235d4f	-0.15953563
61	0xbddf2092	-0.10894884
62	0x3d5ec5f4	0.054388
63	0x3e31be17	0.1735767
64	0xbd7dc41c	-0.061954603
65	0xbbb48780	-0.005509317
66	0xbe2118fc	-0.15732187
67	0x3e0bb4e9	0.1364323
68	0xbe13074c	-0.14358252
69	0xbda1805b	-0.0788581
70	0x3ad72100	0.0016413033
71	0xbdaccead	-0.08437858
72	0x3a416c00	0.0007378459
73	0xbdc515ed	-0.09623323
74	0x3e2f718b	0.17133157
75	0xbdd24333	-0.102667235
76	0x3ce984f0	0.028505772
77	0xbe2d05b3	-0.16896705
78	0x3cccfdd8	0.025023386
79	0x3df039ea	0.11729796
80	0xbde2b279	-0.11069197
81	0xbd0f6a60	-0.035013556
82	0xbbdc1940	-0.006716877
83	0xbbd28860	-0.0064249486
84	0x3d0c7c00	0.034297943
85	0x3e1223f5	0.14271529
86	0xbd54fce4	-0.051998988
87	0x3d7011c0	0.058610678
88	0xbe14bcd4	-0.14525157
89	0xbdd6c11c	-0.104860514
90	0xbe0276ae	-0.12740585
91	0x3d272d8c	0.04081492
92	0x3cf792e0	0.030221403
93	0x3e30ea57	0.17276894
94	0x3d7f4438	0.062320918
95	0xbc847a60	-0.016171634
96	0xbd74057b	-0.05957554
97	0x3d19240b	0.03738789
98	0xbd87a608	-0.06623465
99	0x3d69ae89	0.057051215
100	0xbaf821b2	-0.001893094
101	0xbde9aa78	-0.114094675
102	0x3d1cdcff	0.038296696
103	0xbe114a0d	-0.14188404
104	0xbd21b5c3	-0.039479982
105	0x3b95c90a	0.004571085
106	0xbe151228	-0.14557707
107	0xbd772998	-0.0603424
108	0xbe2a5828	-0.16635191
109	0x3e3c9f11	0.18420054
110	0x3e5099cf	0.20371173
111	0xbe6301ab	-0.22168605
112	0xbdc83954	-0.097765595
113	0xbe1d3620	-0.15352678
114	0x3e30fd6b	0.17284171
115	0x3d5c155c	0.053731307
116	0xbe273e81	-0.16332437
117	0xbd3206e3	-0.0434636
118	0x3d91ac42	0.07112934
119	0xbbe420d6	-0.006961922
120	0xbe2b42aa	-0.16724649
121	0x3db94ef8	0.09048265
122	0x3e58ebed	0.21183749
123	0x3e67f6ca	0.22652736
124	0xbe6dc929	-0.23221268
125	0xbd4706dc	-0.048590526
126	0x3c974268	0.018464282
127	0x3e1809bb	0.14847462
128	0x3db2a922	0.08723666
129	0xbe00a244	-0.125619
130	0x3e051a82	0.12998393
131	0x3e147b12	0.14500073
132	0xbe03ac14	-0.12858611
133	0xbdfeac70	-0.124352336
134	0x3e15fe50	0.14647794
135	0x3ddc9345	0.10770277
136	0xbe0b1c2d	-0.13584967
137	0x3d4a93bc	0.049457297
138	0x3e117c57	0.14207588
139	0x3d12a60c	0.035802886
140	0x3dd5f7cd	0.10447655
141	0x3d8e319b	0.06943055
142	0x3da2735d	0.0793216
143	0x3de126bf	0.10993718
144	0xbd1d8a65	-0.03846206
145	0xbae1cd8c	-0.0017227395
146	0xbc611b87	-0.013739473
147	0xbc7b2ac9	-0.015330025
148	0x3d8b979e	0.06816028
149	0xbd83d4f0	-0.06437099
150	0xbaadceec	-0.001326052
151	0x3e3e29a9	0.1857058
152	0x3dc31dad	0.095271446
153	0x3e50e6db	0.20400564
154	0x3ca7ae26	0.020468783
155	0xbdaa23fb	-0.08307644
156	0x3dffc586	0.124888465
157	0xbde38b0c	-0.111105055
158	0x3da8ef3a	0.08248754
159	0x3e4020ee	0.18762562
160	0xbdccad30	-0.099939704
161	0xbc96914e	-0.018379834
162	0x3e3d3707	0.18478023
163	0x3b92f6d6	0.0044849915
164	0xbe100134	-0.14062959
165	0xbdc8c3e7	-0.098029904
166	0xbe14dfde	-0.14538524
167	0x3dacee10	0.08443844
168	0x3e0229f1	0.12711312
169	0xbcd0371d	-0.025416905
170	0xbc3737da	-0.01118275
171	0x3c6caaf0	0.014445052
172	0xbb2d37fe	-0.002643108
173	0xbc95743f	-0.018243907
174	0xbd30128e	-0.042986445
175	0x3d8082ee	0.06274973
176	0x3b9a0e9e	0.0047014495
177	0xbc2353a3	-0.009968671
178	0xbd28fd3c	-0.041257128
179	0x3d3ca300	0.046053886
180	0xbd8a0d79	-0.06740851
181	0x39eae8b6	0.0004480534
182	0x3bf4f36f	0.0074753086
183	0x3e22d961	0.15903236
184	0x3de365e6	0.1110342
185	0x3dc77fd9	0.09741182
186	0x3c741bc7	0.014899201
187	0xbe06c524	-0.1316114
188	0x3e407c19	0.1879734
189	0xbe0e321f	-0.13886307
190	0x3b7d3380	0.0038635433
191	0x3e49245b	0.19642775
192	0xbcd03300	-0.025414944
193	0x3e2ce7b7	0.16885267
194	0xbde176a9	-0.11008961
195	0x3e0e3b31	0.13889767
196	0x3d87ee04	0.06637195
197	0xbd9db982	-0.077013984
198	0xbe32a916	-0.17447314
199	0xbda2dbab	-0.079520546
200	0x3daa702a	0.08322175
201	0x3e2ece03	0.17070775
202	0xbe11977b	-0.14217941
203	0xbda2cfae	-0.07949768
204	0x3d80caca	0.06288679
205	0xbd3446bc	-0.04401277
206	0xbe1a4a9c	-0.15067524
207	0xbd73966c	-0.059469625
208	0x3d66af9c	0.056319818
209	0xbe3018da	-0.1719698
210	0xbd8684cc	-0.06568298
211	0x3dd4acfa	0.10384555
212	0x3dac818a	0.08423145
213	0xbd9ac0a4	-0.075562745
214	0x3e28727d	0.16449924
215	0x3ce8e9f8	0.028431877
216	0x3dad3502	0.08457376
217	0xbc79ace0	-0.0152389705
218	0xbd898f6e	-0.0671681
219	0x3e1cdf23	0.15319495
220	0xbe295591	-0.16536547
221	0x3d7dcccc	0.061962888
222	0xbd9eedf9	-0.077602334
223	0xbd65042a	-0.055912174
224	0x3e155ea4	0.14586884
225	0xbe0f78e3	-0.14010958
226	0x3c2286ea	0.009919861
227	0xbca2ddce	-0.019881155
228	0x3e36c7bb	0.17849629
229	0xbe0923b8	-0.13392532
230	0x3be6a87e	0.007039129
231	0xbe483a4b	-0.19553487
232	0x3e1e4ce5	0.1545902
233	0x3e0f3800	0.13986206
234	0x3d1e7ad7	0.038691368
235	0x3d915cde	0.07097791
236	0x3e3f4d85	0.18681915
237	0xbe13e83f	-0.14444064
238	0x3d797bc8	0.060909063
239	0x3e07c388	0.13258183
240	0x3b3af18f	0.0028525328
241	0xbe0a5073	-0.13507251
242	0x3e65f182	0.22455409
243	0x3e3ca996	0.18424067
244	0x3dd5895e	0.10426591
245	0x3e1c8f2b	0.15288989
246	0xbd1a7fc2	-0.037719496
247	0xbdd90c24	-0.10598019
248	0xbe0d4606	-0.13796243
249	0x3de1da75	0.110279955
250	0xbb59c52a	-0.0033229091
251	0x3e6f3131	0.23358609
252	0xbe18628f	-0.14881347
253	0x3deacfea	0.11465438
254	0x3c3ab020	0.011394531
255	0xbc4a0a1e	-0.012331514
