results/run_20260214_013852/model_epoch_010.pt (torch, 50369 bytes, 22 tensors)

Q f4 [4, 4]
0	0x3727c5ac	1e-05
1	0x00000000	0.0
2	0x00000000	0.0
3	0x00000000	0.0
4	0x00000000	0.0
5	0x38d1b717	1e-04
6	0x00000000	0.0
7	0x00000000	0.0
8	0x00000000	0.0
9	0x00000000	0.0
10	0x358637bd	1e-06
11	0x00000000	0.0
12	0x00000000	0.0
13	0x00000000	0.0
14	0x00000000	0.0
15	0x358637bd	1e-06

R f4 [2, 2]
0	0x3b23d70a	0.0025
1	0x00000000	0.0
2	0x00000000	0.0
3	0x3b23d70a	0.0025

wm f4 [9]
0	0xbf100000	-0.5625
1	0x3e480000	0.1953125
2	0x3e480000	0.1953125
3	0x3e480000	0.1953125
4	0x3e480000	0.1953125
5	0x3e480000	0.1953125
6	0x3e480000	0.1953125
7	0x3e480000	0.1953125
8	0x3e480000	0.1953125

wc f4 [9]
0	0x3fe6147b	1.7975
1	0x3e480000	0.1953125
2	0x3e480000	0.1953125
3	0x3e480000	0.1953125
4	0x3e480000	0.1953125
5	0x3e480000	0.1953125
6	0x3e480000	0.1953125
7	0x3e480000	0.1953125
8	0x3e480000	0.1953125

gain_net.ln.weight f4 [20]
0	0x3f8cad02	1.0990298
1	0x3f9ba875	1.2160784
2	0x3f897ee9	1.0741855
3	0x3f8bdf6f	1.0927562
4	0x3f93704e	1.1518648
5	0x3f8a3d0d	1.0799881
6	0x3f8f32a3	1.1187328
7	0x3f9274f0	1.1441936
8	0x3f8731e3	1.0562099
9	0x3f88fa1e	1.070133
10	0x3f98bbaf	1.1932276
11	0x3f9b9990	1.2156239
12	0x3f8a770a	1.0817578
13	0x3f8a18de	1.0788839
14	0x3f915cc4	1.1356435
15	0x3f8591c4	1.0435109
16	0x3f821b43	1.016457
17	0x3f9f5d64	1.2450376
18	0x3f7ffc93	0.9999477
19	0x3f88c2a6	1.0684402

gain_net.ln.bias f4 [20]
0	0xbb9fb194	-0.004873464
1	0x3d84506c	0.06460652
2	0x3d973975	0.07384006
3	0xbd6730dd	-0.056443084
4	0x3d601e1a	0.054716207
5	0x3d378149	0.04480103
6	0x3d28aeb7	0.041182246
7	0x3d072db9	0.03300259
8	0xbd0f98e5	-0.03505792
9	0xbd0b7e92	-0.034056254
10	0xbd36150a	-0.04445366
11	0xbd5c6f01	-0.0538168
12	0xbc29cf83	-0.010364416
13	0xbd400920	-0.046883702
14	0x3d17abf1	0.03702921
15	0xbcf0d410	-0.029397994
16	0xbdcc4473	-0.09973993
17	0xbd192b17	-0.03739461
18	0x3d30a2cb	0.043124
19	0x3cd957d4	0.026531138

gain_net.enc.0.weight f4 [32, 20]
0	0x3e0cd411	0.13752772
1	0xbdb31a28	-0.08745223
2	0x3e75d7f4	0.24008161
3	0x3c08a249	0.008339473
4	0xbe5c46e7	-0.21511422
5	0x3e07582e	0.13217232
6	0x3debc741	0.11512614
7	0xbe607ea5	-0.21923311
8	0x3e1ce05e	0.15319964
9	0xbe37262a	-0.17885652
10	0xbe867be2	-0.2626639
11	0xbe9801b5	-0.29688802
12	0xbb48ecbc	-0.0030658683
13	0xbde7ccbb	-0.11318346
14	0x3e00d83c	0.12582487
15	0x3dd7deeb	0.10540565
16	0xbdc28858	-0.09498662
17	0x3d49dd10	0.049283087
18	0x3e2d3559	0.16914882
19	0xbaae6a70	-0.0013306867
20	0xbe341fe2	-0.17590287
21	0xbde9767f	-0.113995545
22	0x3d843542	0.064554706
23	0xbe25fdbb	-0.16210072
24	0xbda374c3	-0.07981255
25	0x3e1ec6a1	0.15505458
26	0xbbc72af3	-0.006078118
27	0x3e30302c	0.17205876
28	0xbd7869ee	-0.060647897
29	0x3d7a70c1	0.061142687
30	0xbdbf3f16	-0.093382046
31	0xbd1e2481	-0.03860903
32	0xbe4bd24d	-0.19904442
33	0x3e208816	0.15676913
34	0xbd7c57df	-0.061607238
35	0x3d0ff202	0.035142906
36	0xbe56c071	-0.20971848
37	0xbe04d25e	-0.12970874
38	0xbe1d637c	-0.15369982
39	0x3c9e1ff6	0.01930235
40	0xbe1f66bd	-0.15566535
41	0x3e348bae	0.17631409
42	0xbd82bafb	-0.0638332
43	0x3d85dc76	0.0653619
44	0xbe17cd44	-0.14824396
45	0x3c9359b7	0.017987115
46	0xbe497c91	-0.19676425
47	0x3da6ac72	0.0813836
48	0x3cf1562b	0.029460033
49	0x3dd5a139	0.104311414
50	0xbc247ef3	-0.010040033
51	0x3ddfd1b2	0.10928668
52	0x3da4c014	0.080444485
53	0x3d64c46b	0.05585138
54	0x3de28854	0.11061159
55	0x3e0fbe39	0.14037408
56	0x3e409250	0.18805814
57	0x3c12a22a	0.008949796
58	0x3e12d0a0	0.14337397
59	0xbe279912	-0.16366985
60	0x3e462168	0.19348681
61	0x3e15478a	0.14578071
62	0xbe18c5f9	-0.1491927
63	0xbd0bdc41	-0.034145597
64	0xbd91262f	-0.07087361
65	0xbdca16af	-0.09867608
66	0xbe640937	-0.2226914
67	0xbe3f86fc	-0.18703836
68	0x3ca55cbe	0.020185824
69	0x3d9db304	0.0770016
70	0x3e1226fe	0.14272687
71	0xbe2641d0	-0.16236043
72	0x3e1863b6	0.14881787
73	0xbd07e39d	-0.033176053
74	0xbe069244	-0.13141733
75	0x3c413417	0.011792204
76	0x3ca086da	0.019595552
77	0x3e1408f7	0.14456545
78	0x3db95e9a	0.09051247
79	0x3e5ad04a	0.21368518
80	0x3e0c9ac8	0.1373092
81	0xbe447953	-0.19186907
82	0xbe2f5974	-0.17123967
83	0xbd9a9058	-0.07547063
84	0xbe1bb376	-0.15205178
85	0x3b872d20	0.0041252524
86	0xbe5e2f6f	-0.21697782
87	0xbdc14b9c	-0.094382495
88	0x3d621450	0.055195153
89	0xbe52013e	-0.20508286
90	0xbc1cf1b0	-0.009579107
91	0xbe59e54b	-0.21278875
92	0xbde5cac1	-0.11220313
93	0xbd4ec6dc	-0.050482616
94	0xbd5f6354	-0.054538086
95	0x3db89c28	0.090141594
96	0xbe119d64	-0.14220196
97	0xbde44b30	-0.111471534
98	0x3c9c17d0	0.019054323
99	0xbe273760	-0.16329718
100	0xbe1aba68	-0.15110171
101	0x3ed893d5	0.42300287
102	0x3e22e0cf	0.1590607
103	0xbd948b60	-0.07253146
104	0x3c8cf21e	0.017205294
105	0xbd46b515	-0.048512537
106	0xbe53e566	-0.20692977
107	0x3e3d1dc7	0.1846839
108	0xbe85403d	-0.26025572
109	0xbd8646a4	-0.065564424
110	0x3d849a04	0.06474689
111	0xbe7ae894	-0.24502784
112	0xbd914787	-0.07093721
113	0xbdb3ceea	-0.087797
114	0x3cf5c4e7	0.030001117
115	0xbe263dcd	-0.16234513
116	0xbe30ebd2	-0.17277458
117	0xbd7fba7f	-0.062433716
118	0x3cc10572	0.023562167
119	0xbddef636	-0.10886805
120	0xbcc462ef	-0.023972956
121	0x3dfd3887	0.12364297
122	0xbd2bb174	-0.04191728
123	0xbe8e392d	-0.27777997
124	0x3e785d09	0.2425424
125	0x3eaad2ab	0.33363852
126	0x3e339ca6	0.17540225
127	0xbd1e8c42	-0.03870798
128	0xbd6b5332	-0.057452388
129	0xbdb9451e	-0.09046386
130	0xbdf2b246	-0.11850409
131	0x3db9a1dc	0.09064075
132	0x3e8502bd	0.25978652
133	0x3e6f950c	0.233967
134	0x3e1d995f	0.15390538
135	0xbdc4e16c	-0.09613308
136	0xbdd1a690	-0.102368474
137	0x3ea6227f	0.32448193
138	0x3e2bc9f4	0.16776258
139	0xbd84bb8b	-0.064810835
140	0xbe6457ac	-0.22299069
141	0x3df9e34c	0.122015566
142	0xbd84b856	-0.06480472
143	0x3d2710d8	0.040787548
144	0xbe2e7a48	-0.17038834
145	0xbda4aea2	-0.08041121
146	0xbe42b548	-0.19014466
147	0x3db15300	0.08658409
148	0x3daf7040	0.08566332
149	0x3a695200	0.00089004636
150	0xbd462ca4	-0.048382416
151	0x3e302232	0.17200544
152	0x3e29a77c	0.16567796
153	0xbe5beb68	-0.21476519
154	0xbde7662d	-0.11298785
155	0x3dd94e90	0.10610688
156	0x3e5e3afe	0.21702191
157	0xbc148920	-0.009065896
158	0x39520c00	0.00020031631
159	0xbdfdaefd	-0.12386892
160	0x3e7f344d	0.24922295
161	0x3c37feb1	0.011230157
162	0xbd9e80a2	-0.077393785
163	0xbdfdeb64	-0.12398413
164	0xbd6d0a17	-0.05787095
165	0x3e4560a3	0.19275145
166	0x3da83258	0.08212727
167	0x3e3a60b2	0.18200949
168	0xbe84b89a	-0.2592209
169	0xbdf02d5f	-0.11727404
170	0xbdb4f309	-0.08835418
171	0xbe545279	-0.20734586
172	0xbdd96cb5	-0.10616437
173	0x3da962a4	0.08270767
174	0x3cb3cf40	0.02194941
175	0xbde16a39	-0.110065885
176	0x3dbadacc	0.091237634
177	0x3e91a513	0.28446254
178	0x3d43dc62	0.047817595
179	0xbe1a1e1e	-0.15050551
180	0xbb96f248	-0.004606519
181	0x3e8dbcb2	0.27683026
182	0xbc0d0c03	-0.008608821
183	0xbdb4a122	-0.08819796
184	0x3e87f4c7	0.26553938
185	0xbd02163f	-0.031759497
186	0x3e458739	0.19289865
187	0x3c458cf4	0.012057532
188	0xbe0e133f	-0.1387453
189	0xbe11325f	-0.14179371
190	0xbb49ae30	-0.003077399
191	0xbdbe8b6a	-0.09303935
192	0x3e5d387d	0.2160358
193	0x3dd00a11	0.1015817
194	0x3e919e9b	0.2844132
195	0x3de287d1	0.11061061
196	0x3e2f5c98	0.17125165
197	0x3dc15fd2	0.094421044
198	0x3d9991fd	0.07498548
199	0xbe61b3c3	-0.2204123
200	0x3de25d6d	0.11052976
201	0x3ea432a4	0.32069886
202	0x3dca24c2	0.09870292
203	0x3e046bc7	0.12931739
204	0xbd2984fd	-0.041386593
205	0x3d181655	0.037130672
206	0x3e620fd0	0.22076344
207	0xbe528665	-0.2055908
208	0xbc33ba40	-0.010969698
209	0xbc0a5cf9	-0.008445018
210	0xbe6a62f4	-0.2288931
211	0xbca33355	-0.019921938
212	0x3e172fb8	0.14764297
213	0x3ce37602	0.027766231
214	0x3d99ea5b	0.07515403
215	0x3e36879f	0.17825173
216	0xbc91248d	-0.017717624
217	0x3e75209e	0.23938224
218	0x3dbabd8c	0.091181844
219	0x3d2c078a	0.041999377
220	0xbe38cc83	-0.18046765
221	0x3db53d34	0.08849564
222	0xbe024d8d	-0.12724896
223	0x3dac18dc	0.08403179
224	0xbe517287	-0.20453845
225	0xbd3d1d1c	-0.04617034
226	0x3e2749b2	0.16336706
227	0xbe49e948	-0.19717896
228	0xbe1d1288	-0.153391
229	0x3cf84b00	0.0303092
230	0xbe19bb4e	-0.15012857
231	0x3da7db44	0.081961185
232	0xbe0c193c	-0.13681501
233	0xbe31062e	-0.17287514
234	0xbdc5a7aa	-0.0965112
235	0x3dd91958	0.10600537
236	0xbd7592a8	-0.059954315
237	0x3e4fdf36	0.20299992
238	0x3db61d68	0.088923275
239	0x3e276b40	0.16349506
240	0x3e6555cd	0.22396012
241	0xbd110fdc	-0.035415515
242	0xbd9060c2	-0.07049705
243	0xbe8db783	-0.2767907
244	0x3e5c3cdf	0.21507595
245	0x3e7f6fb6	0.24944958
246	0x3daa7043	0.083221935
247	0x3ebafe91	0.36522344
248	0xbce29671	-0.027659627
249	0xbe98838b	-0.2978786
250	0x3da245c7	0.07923465
251	0xbcc0b35b	-0.023523023
252	0xbc51ee80	-0.0128132105
253	0x3e32ebcf	0.17472766
254	0x3e48d17b	0.1961116
255	0x3d7986af	0.06091946

gain_net.enc.0.bias f4 [32]
0	0x3c5b9c51	0.013403968
1	0xbd2c7014	-0.042099074
2	0x3e3b4852	0.18289307
3	0xbddb0073	-0.10693445
4	0xbe12b1fa	-0.14325705
5	0x3da252a7	0.07925921
6	0xbca30c8e	-0.019903447
7	0xbe614b84	-0.22001463
8	0x3e584885	0.21121414
9	0x3dd31ce8	0.10308248
10	0x3e455eac	0.19274396
11	0xbdeb05de	-0.114757285
12	0x3e490901	0.19632341
13	0xbd1de9a6	-0.038552903
14	0x3dd5497b	0.10414406
15	0x3e64afd0	0.22332692
16	0xbd75d661	-0.0600189
17	0x3e3d57a4	0.18490463
18	0x3e2625de	0.16225383
19	0x3e730ba7	0.23734914
20	0x3e83122f	0.2559981
21	0xbb9a0e0e	-0.0047013825
22	0x3e6c16d0	0.23055577
23	0x3ddc37d4	0.10752836
24	0x3dc85814	0.097824246
25	0xbda2ebb9	-0.07955117
26	0xbe26c5c5	-0.1628638
27	0xbd97a3de	-0.07404302
28	0xbde2ecd0	-0.11080325
29	0x3e4e5a9a	0.20151749
30	0x3e621634	0.22078782
31	0x3dbde4eb	0.09272178

gain_net.enc.2.weight f4 [32, 32]
0	0xbda5ba9d	-0.08092234
1	0x3e0d2378	0.13783062
2	0x3e0b1856	0.13583502
3	0x3ddc79de	0.10765432
4	0x3e24edc7	0.1610633
5	0xbbd51a4f	-0.0065033804
6	0x3e5cc27c	0.21558565
7	0xbe31857f	-0.17336081
8	0x3c07e81e	0.008295087
9	0xbc9770b9	-0.018486368
10	0xbdbd0cc0	-0.092309475
11	0xbdcf59e9	-0.10124571
12	0xbc829235	-0.015938858
13	0x3e32e67b	0.17470734
14	0xbdb29bc0	-0.08721113
15	0xbe877c63	-0.26462087
16	0x3de657a4	0.11247185
17	0x3e3444e8	0.1760441
18	0xbe3fc7b6	-0.18728527
19	0x3ca9f2d2	0.020745669
20	0x3e0070a9	0.12542976
21	0x3e301868	0.1719681
22	0xbe01af61	-0.12664558
23	0xbda25abe	-0.07927464
24	0xbdd27738	-0.102766454
25	0x3c806230	0.01567182
26	0xbc4ed880	-0.01262486
27	0x3cab1721	0.020885052
28	0xbe1473f5	-0.14497359
29	0x3dfce507	0.12348371
30	0x3e4d2963	0.20035319
31	0x3e092cf5	0.13396056
32	0x3dbd9007	0.09255987
33	0x3db0db3e	0.08635567
34	0xbe24f63e	-0.16109559
35	0xbdb21431	-0.086952575
36	0x3de944b2	0.11390056
37	0x3e392e0c	0.18083972
38	0xbdd36cb8	-0.10323471
39	0x3dc824fe	0.09772681
40	0xbe0ef144	-0.13959223
41	0x3d9739f0	0.073840976
42	0xbcea56da	-0.028605867
43	0x3dc88bde	0.097923025
44	0xbdd1f679	-0.10252089
45	0xbc6db651	-0.0145088
46	0x3e544135	0.20728
47	0x3e4c4211	0.19947077
48	0xbe0a5d37	-0.13512121
49	0xbdb740fc	-0.08947942
50	0xbde2cf68	-0.11074716
51	0xbb88316c	-0.004156282
52	0x3dc795c8	0.097453654
53	0x3d6b8211	0.057497088
54	0x3de3a2c1	0.11115027
55	0xbdac83d2	-0.0842358
56	0xbd5a03b2	-0.05322618
57	0x3da25823	0.07926967
58	0xbddfe1ee	-0.109317645
59	0x3c931e53	0.017958796
60	0xbdd91597	-0.10599821
61	0xbdd4a620	-0.10383248
62	0x3df346dc	0.1187875
63	0x3bfdca2d	0.0077450485
64	0x3bf50ef8	0.007478591
65	0x3dadcd8d	0.08486471
66	0xbd8e22a9	-0.06940205
67	0xbe336e94	-0.17522651
68	0x3e204ae3	0.15653567
69	0x3cd83a45	0.026394973
70	0xbdcf37e1	-0.1011808
71	0x3d5b9f04	0.053618446
72	0x3dd515ae	0.10404526
73	0x3dd9ad1d	0.10628722
74	0xbd15f3f7	-0.036609616
75	0xbdac8c00	-0.084251404
76	0x3e09351e	0.13399169
77	0x3de433ab	0.111426674
78	0x3c425dfc	0.011863228
79	0x3e23b7db	0.15988104
80	0x3d0adb42	0.033900507
81	0xbe252147	-0.16125976
82	0xbccc04d1	-0.02490464
83	0xbdaa3567	-0.08310967
84	0x3df7e484	0.12104133
85	0x3d1f5770	0.038901746
86	0xbd3421f1	-0.04397768
87	0xbd03aa9b	-0.032145124
88	0xbde1d3ed	-0.1102675
89	0x3df637d9	0.12022371
90	0x3d27c858	0.040962547
91	0x3c4fcade	0.012682645
92	0x3d116178	0.035493344
93	0x3dcb93f7	0.099403314
94	0x3e0ce980	0.13760948
95	0x3c97e856	0.018543404
96	0xbe0aa47a	-0.13539305
97	0xbd03e00a	-0.032196082
98	0xbd859f54	-0.0652453
99	0x3b5509b3	0.0032507002
100	0xbdad8f4f	-0.084745996
101	0x3e0aba96	0.1354774
102	0xbd2afe33	-0.04174633
103	0xbdb9bfb4	-0.090697676
104	0x3e26bbf9	0.16282643
105	0x3d805b1b	0.06267377
106	0xbcc3699d	-0.023854071
107	0x3d93ba64	0.072132856
108	0x3e2c525a	0.1682829
109	0x3d27dce5	0.040982146
110	0x3e165fa1	0.14684917
111	0x3df94d12	0.12172903
112	0x3e2ae739	0.16689767
113	0x3df53fde	0.11975072
114	0x3d79576a	0.06087438
115	0xbe0d7bc8	-0.1381675
116	0x3e8a73d6	0.270415
117	0x3e09afc2	0.13445953
118	0x3e4ca51e	0.19984862
119	0xbd37b2a2	-0.044848092
120	0x3e106c0f	0.14103721
121	0x3d29713d	0.041367758
122	0xbe2aabdd	-0.16667123
123	0xbd05dc31	-0.032680694
124	0xbcb82084	-0.022476442
125	0x3e449a33	0.19199447
126	0xbd2206c7	-0.039557245
127	0xbd9d3c47	-0.076775126
128	0x3e513ab2	0.20432547
129	0x3dc54c89	0.096337385
130	0x3e151b27	0.14561139
131	0x3dcadb6d	0.099051334
132	0xbdc4ad76	-0.096033975
133	0x3d6eb444	0.058277383
134	0xbd3ddff1	-0.046356145
135	0x3d96595a	0.07341261
136	0x3e42ec2c	0.19035405
137	0x3e0af877	0.13571344
138	0x3e947411	0.28994802
139	0x3d80bc84	0.062859565
140	0xbd4a34b0	-0.049366653
141	0x3d8aa66c	0.06770024
142	0x3d7ebf10	0.06219393
143	0x3d588966	0.05286541
144	0xbd6cb6f3	-0.05779166
145	0x3dba0741	0.09083415
146	0x3da906c5	0.08253244
147	0x3e5deac1	0.21671583
148	0xbd61145d	-0.05495106
149	0xbc65ac6a	-0.0140181575
150	0x3dead04a	0.11465509
151	0x3a9b3fb2	0.0011844544
152	0x3e7067b1	0.23477055
153	0x3e2949c2	0.16532043
154	0x3dc34692	0.095349446
155	0x3e7cad0e	0.2467539
156	0x3df92db0	0.12166917
157	0x3e3d9cd1	0.18516852
158	0x3e7ecaed	0.24882098
159	0xbdada637	-0.084789686
160	0x3cc03b02	0.023465637
161	0x3deb62b7	0.11493438
162	0xbc490c7f	-0.012271046
163	0xbb55e047	-0.00326349
164	0xbc932bb8	-0.017965183
165	0x3e396259	0.18103923
166	0x3d95ac01	0.07308198
167	0x3c2ab910	0.010420099
168	0xbd5d6692	-0.054052897
169	0x3e25627b	0.16150849
170	0xbd0a53a4	-0.033771172
171	0xbe0de41d	-0.1385655
172	0xbe5b1b26	-0.21397075
173	0xbce813ec	-0.028329812
174	0x3d697225	0.056993622
175	0x3c1056e3	0.008809778
176	0xbd224fac	-0.039626762
177	0x3ddc9eeb	0.10772499
178	0x3a9cf180	0.0011973828
179	0xbdf01450	-0.11722624
180	0xbe16b131	-0.1471603
181	0xbdc62c01	-0.09676362
182	0xbdeece23	-0.11660411
183	0x3e3c4fa6	0.18389758
184	0xbe0956d9	-0.13412036
185	0x3e71b983	0.23605923
186	0x3ca0a4f0	0.019609898
187	0x3e580678	0.21096218
188	0xbdfafbe8	-0.122550786
189	0x3df86631	0.121288665
190	0xbd7039dd	-0.058648933
191	0x3d530d04	0.051526085
192	0x3c0bb2e0	0.008526534
193	0x3de78f82	0.11306669
194	0x3da03232	0.07822074
195	0xbe2d6178	-0.16931713
196	0x3d043404	0.03227617
197	0x3d694890	0.056953967
198	0x3cfa5388	0.030557409
199	0x3db32d72	0.087489024
200	0x3e1f912b	0.15582721
201	0xbd84a08f	-0.064759366
202	0xbe21909f	-0.15777825
203	0xbe25c32b	-0.16187732
204	0xbdef7b1e	-0.116934046
205	0x3daeb386	0.08530335
206	0xbc611610	-0.01373817
207	0x3de6dc8a	0.11272533
208	0x3e2fe1d1	0.17175986
209	0xbc1829d0	-0.009287313
210	0xbe13e1af	-0.1444156
211	0x3e168097	0.1469749
212	0xbdfbf89a	-0.12303276
213	0x3e302221	0.17200519
214	0xbda9f3c5	-0.082984485
215	0xbe314c21	-0.17314197
216	0xbe135ad4	-0.14390117
217	0xbde71bf7	-0.11284631
218	0x3dc8655a	0.09784956
219	0xbddd46b9	-0.10804505
220	0xbe109cca	-0.1412231
221	0x3c5de610	0.013543621
222	0xbe2b1ca0	-0.16710138
223	0x3ddf5ebe	0.109067425
224	0xbc56e1d9	-0.01311537
225	0xbe1fd7d0	-0.1560967
226	0xbddb77a2	-0.107161775
227	0xbd9210e6	-0.07132129
228	0x3cd4beb0	0.025969833
229	0x3e016a07	0.12638102
230	0xbdf31cb0	-0.11870706
231	0xbadbe500	-0.0016776621
232	0xbe0f9aeb	-0.1402394
233	0xbd65c2f4	-0.056094125
234	0xbe014908	-0.12625515
235	0xbde8a7e1	-0.11360145
236	0xbd934a1d	-0.0719187
237	0x3def262f	0.11677205
238	0xbe1bfdb9	-0.15233506
239	0x3ddbfc52	0.10741486
240	0x3a706200	0.00091698766
241	0x3d20a268	0.039217383
242	0xbe267044	-0.16253763
243	0xbbf5e04b	-0.0075035444
244	0xbb5ccc7d	-0.003369122
245	0xbe041392	-0.1289809
246	0x3d863c4a	0.06554468
247	0xbc888c09	-0.016668336
248	0xbe0b004f	-0.13574336
249	0xbd9a333e	-0.07529305
250	0xbc40ec10	-0.011775032
251	0x3da9c495	0.08289448
252	0x3db15dc3	0.08660462
253	0x3ca6b7a3	0.020351237
254	0xbe146d19	-0.14494742
255	0xbb4fbbc0	-0.00316976

gain_net.enc.2.bias f4 [32]
0	0xbe29263f	-0.16518496
1	0xbdcb9c2d	-0.099418975
2	0x3c696272	0.014244663
3	0xbdb6c938	-0.08925098
4	0x3e54ad0f	0.20769142
5	0x3e023fc0	0.12719631
6	0xbda46af6	-0.08028214
7	0x3e056ad2	0.1302903
8	0x3e700680	0.2343998
9	0x3d4b3dca	0.049619474
10	0x3d7af29e	0.061266534
11	0x3be3e7ba	0.006955114
12	0xbdea54ba	-0.114419416
13	0xbcb57992	-0.022152696
14	0xbe1fa394	-0.15589744
15	0x3c906499	0.017626094
16	0x3d0d617c	0.034516796
17	0xbcee0552	-0.029055271
18	0xbd919025	-0.071075715
19	0x3d1753e6	0.036945246
20	0x3ddebf6b	0.10876354
21	0x3d50ccd2	0.050976582
22	0xbdcaeea7	-0.099088006
23	0xbe1b13ee	-0.15144321
24	0x3e064160	0.13110876
25	0x3e45903a	0.192933
26	0x3e24eff0	0.16107154
27	0x3d82a227	0.06378584
28	0xbd2deca1	-0.042461995
29	0x3e42a017	0.19006382
30	0xbe0449da	-0.12918797
31	0x3cbcb373	0.023034787

gain_net.gru.weight_ih f4 [96, 32]
0	0xbdb6183e	-0.088913426
1	0x3d30d6ce	0.043173604
2	0x3cacd350	0.021096855
3	0x3e0d57ad	0.13802977
4	0x3e6b491d	0.22977109
5	0xbe027cb1	-0.12742878
6	0xbe042d22	-0.12907842
7	0xbe1d0ac0	-0.15336132
8	0x3d657e92	0.05602891
9	0x3e0dedbf	0.13860224
10	0x3d4c9df4	0.049955323
11	0xbd9bce52	-0.07607712
12	0x3d210688	0.03931287
13	0x3e2c7fd2	0.16845635
14	0xbe1f16bb	-0.15536015
15	0x3dfd9366	0.1238163
16	0x3d46ff1c	0.048583135
17	0x3da2cb94	0.07948986
18	0x3ca0093b	0.019535651
19	0x3e248020	0.16064501
20	0x3e4d456c	0.20046014
21	0x3d9463eb	0.0724562
22	0x3d40a88c	0.04703574
23	0x3dab2c2e	0.08358036
24	0x3e1ce113	0.15320234
25	0x3d497b2c	0.04918973
26	0x3e499fb0	0.19689822
27	0x3c110774	0.008851875
28	0xbcada1db	-0.021195343
29	0x3e393e7a	0.18090239
30	0xbdd8fe63	-0.105953954
31	0xbdad832e	-0.08472286
32	0xbe8c5d9a	-0.27415162
33	0xbe5dbf8a	-0.21655098
34	0x3c6d6ced	0.014491302
35	0xbe6e536c	-0.2327401
36	0xbe9aeaa4	-0.30257142
37	0xbe8c8346	-0.27443904
38	0xbcfadcd8	-0.030622885
39	0x3dcc7914	0.09984031
40	0x3d6d0d50	0.057874024
41	0xbebbfba8	-0.36715436
42	0xbd6edc93	-0.058315825
43	0xbcbdf79b	-0.023189357
44	0xbe1765b8	-0.14784896
45	0xbe00425c	-0.12525314
46	0x3e0cf5f3	0.13765697
47	0x3e2f41a3	0.17114882
48	0x3e0b8119	0.13623466
49	0xbe3dc8b0	-0.18533587
50	0x3dad29a6	0.084552094
51	0x3d2867f3	0.04111476
52	0xbea560ab	-0.32300314
53	0x3e1a14a6	0.15046939
54	0x3d72eba7	0.059306767
55	0x3d05919c	0.032609567
56	0xbe0174ec	-0.12642258
57	0xbc7ed7db	-0.015554394
58	0x3d2db65f	0.04241025
59	0xbd6402fa	-0.0556669
60	0xbd095e7b	-0.03353737
61	0xbbc655fd	-0.006052731
62	0xbdb8041c	-0.08985159
63	0xbe35acf1	-0.17741753
64	0x3e299bc6	0.16563329
65	0xbdf9b274	-0.1219224
66	0xbc77e520	-0.015130311
67	0xbdde29c3	-0.10847809
68	0x3e53bf3a	0.20678416
69	0x3d4d466e	0.050115995
70	0xbe1eba87	-0.15500842
71	0xbe0b532c	-0.13605946
72	0xbc7c82f5	-0.015412082
73	0xbd219875	-0.039452035
74	0x3d5cc606	0.053899787
75	0xbe32af04	-0.17449576
76	0x3e348b28	0.17631209
77	0x3e00794d	0.12546273
78	0x3d33af50	0.043868363
79	0x3e10d88e	0.14145109
80	0x3ce1d190	0.027565747
81	0x3d052d2a	0.032513775
82	0xbde44405	-0.11145786
83	0x3d9e6fbe	0.07736157
84	0x3da3dd6d	0.08001218
85	0x3e010707	0.12600337
86	0xbda0c95b	-0.078509055
87	0xbe27cb16	-0.16386065
88	0xbc127394	-0.008938689
89	0xbd71e72d	-0.059058357
90	0xbd091241	-0.033464674
91	0x3e0b8db2	0.13628271
92	0xbd3758b3	-0.044762325
93	0x3e068c12	0.1313937
94	0x3debb703	0.11509516
95	0xbc75ed12	-0.015010135
96	0x3c960260	0.01831168
97	0x3db67588	0.08909136
98	0x3dc1af02	0.09457208
99	0x3dd6a49d	0.10480616
100	0xbdf3c6ee	-0.11903177
101	0xbd51e2d8	-0.051241726
102	0xbdc0b2f6	-0.09409134
103	0xbe00e773	-0.12588291
104	0x3be231e6	0.006902921
105	0x3e620de8	0.22075617
106	0x3c9f3a16	0.019436877
107	0x3e323daf	0.17406343
108	0x3d50451c	0.050847158
109	0xbccd47f7	-0.02505873
110	0x3dc2f74e	0.09519826
111	0x3d866253	0.065617226
112	0x3df31ede	0.11871122
113	0xbdece1ad	-0.11566482
114	0x3d824e0e	0.06362544
115	0x3e52d227	0.2058798
116	0x3e4048a3	0.18777709
117	0x3d7761a9	0.06039587
118	0xbcc23fb4	-0.023712017
119	0x3e1109dd	0.14163919
120	0xbdf534c9	-0.119729586
121	0xbdb0c15d	-0.08630631
122	0x3e1a8fb7	0.15093885
123	0x3e28479f	0.16433571
124	0xbcb4f585	-0.02208973
125	0x3d976607	0.07392507
126	0x3e19164a	0.14949909
127	0x3dc495c3	0.09598877
128	0x3e11c249	0.1423427
129	0x3bdce759	0.006741446
130	0x3cf11e4e	0.029433396
131	0x3e2f377e	0.17111012
132	0x3dda35a0	0.106547594
133	0xbe0789b5	-0.13236125
134	0x3e0956ed	0.13412066
135	0xbddf025a	-0.108891204
136	0x3e218eed	0.15777178
137	0xbc49e8e4	-0.012323592
138	0x3ddd3dd2	0.10802807
139	0x3b991dd2	0.0046727443
140	0xbdbfb5b1	-0.09360827
141	0x3e39e6be	0.18154427
142	0x3d826330	0.06366575
143	0xbd1a8302	-0.037722595
144	0x3e0d5bf5	0.1380461
145	0xbb2a34c8	-0.0025971401
146	0x3d8053f8	0.06266016
147	0xbdaa2dc7	-0.083095126
148	0xbd9c5a55	-0.07634417
149	0x3d90e14e	0.070742235
150	0xbdc5b1d4	-0.09653059
151	0x3d66c124	0.056336537
152	0x3e600438	0.2187661
153	0x3e5c9b54	0.21543628
154	0xbd662fe1	-0.056198005
155	0xbdf1eab7	-0.118123464
156	0xbd3e67dc	-0.046485767
157	0xbe6f7550	-0.23384595
158	0x3d8c9421	0.06864191
159	0xbe065ab5	-0.1312054
160	0x3db7bdea	0.0897177
161	0x3e1899d7	0.14902435
162	0x3e66b0d5	0.22528394
163	0xbd655da1	-0.055997495
164	0xbcbed0e5	-0.023292968
165	0xbace0b99	-0.0015720009
166	0xbe339972	-0.17539003
167	0x3dd664b3	0.104684256
168	0x3e449812	0.19198635
169	0x3e613686	0.21993455
170	0xbe088a77	-0.1333407
171	0x3d911edc	0.07085964
172	0x3d961ff8	0.07330316
173	0xbda22b19	-0.079183765
174	0x3e33c649	0.17556109
175	0x3dbd6a77	0.09248822
176	0xbd0ea474	-0.034824803
177	0x3e2e011e	0.16992614
178	0x3e39aac7	0.18131553
179	0x3dac4ed6	0.08413474
180	0xbb29e94b	-0.0025926407
181	0xbcd9575b	-0.026530912
182	0x3d4105b7	0.04712459
183	0x3d1c99c0	0.038232565
184	0xbc954022	-0.018219057
185	0x3e25b5cf	0.16182636
186	0x3ca77857	0.020443125
187	0x3e150990	0.14554429
188	0x3c811086	0.01575495
189	0x3e40a1b0	0.18811679
190	0x3d387e8f	0.04504257
191	0x3c2b3d37	0.0104516065
192	0xbc682f80	-0.014171481
193	0xbb1e93ee	-0.002419706
194	0x3d377f62	0.044799216
195	0x3dec6ba4	0.11543968
196	0xbab64e8d	-0.0013908908
197	0xbdfba620	-0.12287545
198	0x3c8be940	0.017078996
199	0xbd361407	-0.044452693
200	0x3df0026e	0.117192134
201	0x3d23eaa7	0.040018704
202	0x3e02de03	0.12780003
203	0xbd68ddc3	-0.056852113
204	0x3d3f60e1	0.04672325
205	0xbe1464aa	-0.14491525
206	0x3d3f2b80	0.046672344
207	0xbd34d3c8	-0.044147283
208	0xbdd6ccb9	-0.104882665
209	0x3e02a21f	0.12757157
210	0x3df9a826	0.12190275
211	0xbe407588	-0.18794835
212	0x3e0830b9	0.13299836
213	0xbe387016	-0.18011507
214	0x3de3efd5	0.11129729
215	0x3d46f4b9	0.04857323
216	0x3e00d5d0	0.12581563
217	0xbe4091a6	-0.1880556
218	0xbcbe682a	-0.023243029
219	0xbcb02f38	-0.02150689
220	0x3d0f7779	0.035026047
221	0x3e5b5e11	0.21422602
222	0x3ddb2dcb	0.10702094
223	0xbdf2234d	-0.11823139
224	0xbd4089a5	-0.047006268
225	0xbd118c74	-0.035534337
226	0xbd2f1910	-0.04274851
227	0x3e3d78c9	0.18503107
228	0x3e45351c	0.19258541
229	0xbcd070d5	-0.025444428
230	0x3dfa4cc2	0.12221672
231	0x3d6bd6b2	0.057577796
232	0xbd18951f	-0.037251588
233	0x3e53cf87	0.20684634
234	0x3d6cf969	0.057855044
235	0xbe03e94a	-0.12881961
236	0xbcb463a4	-0.022020169
237	0x3c5f7ba1	0.013640315
238	0xbcd961f8	-0.026535973
239	0xbc34020e	-0.010986818
240	0xbe34fbf5	-0.17674239
241	0x3e5a35ac	0.21309537
242	0x3ce669bb	0.028126588
243	0x3e15a0fb	0.1461219
244	0x3e5af75f	0.21383427
245	0x3dbbb20d	0.0916482
246	0xbdaac304	-0.083379775
247	0x3df79582	0.12089063
248	0xbcb9251c	-0.022600703
249	0xbdde5dc9	-0.10857732
250	0xbdfc4da3	-0.123194955
251	0xbe03ff6a	-0.12890401
252	0x3d78a0c9	0.06070021
253	0x3df21384	0.118201286
254	0x3e249adf	0.16074704
255	0x3d61bde2	0.055112727

gain_net.gru.weight_hh f4 [96, 32]
0	0x3dc36395	0.09540478
1	0x3d445e87	0.04794171
2	0x3d7db8d9	0.061943863
3	0xbe3e1b45	-0.1856509
4	0xbe35a88f	-0.17740081
5	0xbcd9469f	-0.026522933
6	0xbd4e91d9	-0.05043206
7	0x3e03f514	0.12886459
8	0x3d58be1b	0.052915674
9	0xbdafc8aa	-0.085831955
10	0x3dceffe8	0.10107404
11	0xbd86046c	-0.06543812
12	0x3e58f1be	0.21185967
13	0x3e59bba5	0.21262987
14	0xbc71952f	-0.014745041
15	0x3e01cfb9	0.12676896
16	0xbc82246a	-0.015886504
17	0xbdb91689	-0.09037501
18	0xbe2aee53	-0.16692476
19	0xbdf7395f	-0.120714895
20	0xbe674ae1	-0.22587158
21	0x3e08be97	0.13353954
22	0xbe078f76	-0.1323832
23	0xbdfeb2fd	-0.12436483
24	0x3e04c356	0.1296514
25	0xbe1cb1fe	-0.15302274
26	0xbd43badb	-0.04778562
27	0x3dbf727e	0.093480095
28	0xbe177fad	-0.14794798
29	0xbd019c09	-0.031642947
30	0xbd2c3099	-0.042038534
31	0xbd83e5e2	-0.06440331
32	0xbdea1779	-0.11430258
33	0xbccbaf4c	-0.024863862
34	0xbe5c0284	-0.21485335
35	0x3e28bf15	0.16479142
36	0xbcf40ef1	-0.02979228
37	0x3d871df4	0.0659751
38	0x3e148e50	0.14507413
39	0x3d4cf25c	0.05003582
40	0x3cc59d81	0.024122955
41	0xbd3b9fda	-0.045806743
42	0x3de412b7	0.11136382
43	0x3e5cbb74	0.21555883
44	0x3ce2feed	0.027709449
45	0xbd902da4	-0.07039955
46	0xbdacd1fe	-0.0843849
47	0xbd9e8788	-0.07740694
48	0x3e38ca2a	0.1804587
49	0x3c60d5b1	0.013722823
50	0x3e67fd67	0.22655259
51	0x3df24c3d	0.118309475
52	0x3cd55f43	0.0260464
53	0xbe0f3f13	-0.13988905
54	0xbc348e70	-0.011020288
55	0xbd1b1fbe	-0.03787207
56	0x3cef192a	0.029186804
57	0xbdc733c9	-0.09726674
58	0x3d59cf3f	0.05317616
59	0x3d3f2bb7	0.04667255
60	0xbd4fa354	-0.05069287
61	0x3cdeb42c	0.027185522
62	0xbe34550b	-0.17610566
63	0xbc492a62	-0.012278171
64	0x3b8a1d8c	0.004214948
65	0x3ddfe6c1	0.10932685
66	0x3e26cf9d	0.16290136
67	0x3e0b71e8	0.1361767
68	0xbd99e97a	-0.07515235
69	0xbde0a957	-0.10969799
70	0xbdac0a21	-0.084003694
71	0xbbbbf4ce	-0.00573597
72	0xbe37a171	-0.17932679
73	0x3cb523b4	0.022111751
74	0x3e4545a2	0.19264844
75	0xbc3a076b	-0.011354308
76	0x3e35a236	0.1773766
77	0x3b8477a3	0.004042582
78	0x3d71d65a	0.059042312
79	0xbdadbde9	-0.08483488
80	0xbe0da81a	-0.13833657
81	0x3d4cb06f	0.049972948
82	0x3d7d297b	0.061807137
83	0x3d7dc274	0.061953023
84	0x3d3cf3a4	0.04613079
85	0x3d9c61be	0.0763583
86	0xbd0064e0	-0.031346202
87	0xbbe7ecb6	-0.0070777787
88	0x3d8dc399	0.06922073
89	0xbe482658	-0.19545877
90	0x3d69218a	0.05691675
91	0xbde38113	-0.11108603
92	0x3d2cd351	0.042193715
93	0xbd621bb8	-0.055202216
94	0xbdc9d2cf	-0.09854662
95	0x3d21928d	0.039446402
96	0xbc847d2e	-0.016172972
97	0xbd450867	-0.048103716
98	0x3e5e1543	0.21687798
99	0xbdfc636e	-0.12323652
100	0x3c812b5c	0.015767746
101	0x3de24b0d	0.11049471
102	0xbd88ed18	-0.06685847
103	0x3e296332	0.16541746
104	0x3d75da2c	0.060022518
105	0x3d9ee633	0.07758751
106	0x3db07ab1	0.086171515
107	0xbd6fa933	-0.05851097
108	0x3de57b7b	0.11205193
109	0x3ca7980c	0.020458244
110	0x3ddbca2e	0.10731922
111	0xbe0948c6	-0.13406667
112	0x3de6bf99	0.11267013
113	0x3d39ea34	0.04538937
114	0xbe590fba	-0.21197405
115	0x3d9514bc	0.072793454
116	0xbcfea024	-0.03108222
117	0xbd3ddd53	-0.04635365
118	0xbdb4db0c	-0.088308424
119	0xbc1804a5	-0.009278451
120	0x3e3158a2	0.17318967
121	0xbde7f27a	-0.113255456
122	0x3df53ad9	0.11974115
123	0xbce975d5	-0.02849857
124	0x3df10ac8	0.117696345
125	0xbdc95ead	-0.09832511
126	0xbdf19019	-0.117950626
127	0xbe5ca4a2	-0.21547177
128	0x3df0514f	0.117342584
129	0x3e7463b3	0.23866157
130	0x3bb1ef2b	0.0054301224
131	0x3da1cf92	0.07900919
132	0x3f2e2b44	0.6803477
133	0x3d9f0cf1	0.0776614
134	0xbdcbe248	-0.09955269
135	0xbd7ae26b	-0.061251085
136	0xbc5bce87	-0.013415939
137	0x3d1ac55e	0.03778588
138	0x3dda5660	0.10661006
139	0xbce75f26	-0.028243612
140	0x3c711faa	0.014717022
141	0x3e0fe277	0.14051233
142	0xbe886542	-0.26639754
143	0xbe0b7b90	-0.13621354
144	0xbe44a6b4	-0.19204217
145	0x3d9daafc	0.07698628
146	0x3ded5308	0.115881026
147	0x3ccc7fd8	0.024963304
148	0x3e072f58	0.13201654
149	0xbe15e7af	-0.14639162
150	0xbe294654	-0.16530734
151	0x3d534233	0.051576804
152	0xbc91aa6b	-0.017781457
153	0xbddead7c	-0.10872933
154	0xbedb21f0	-0.4279933
155	0xbc51b6cd	-0.012799931
156	0x3eb70c0b	0.35751376
157	0xbdfb09af	-0.122577064
158	0xbdfe243d	-0.12409256
159	0xbdb5e5c0	-0.08881712
160	0xbe5666be	-0.2093763
161	0xbd07bf1a	-0.033141233
162	0x3dae1791	0.08500589
163	0xbe33c5ac	-0.17555875
164	0x3cf07655	0.0293533
165	0xbe28931d	-0.1646237
166	0xbdb48c0d	-0.08815775
167	0x3cc44000	0.023956299
168	0xbc4d69f7	-0.012537471
169	0xbce6f123	-0.028191155
170	0xbd070888	-0.03296712
171	0xbd0440ed	-0.03228848
172	0x3e0dfb7e	0.13865468
173	0x3da36759	0.079786964
174	0x3e3eb0fa	0.18622199
175	0x3d3f4c1a	0.046703435
176	0xbd645703	-0.055747043
177	0x3b3786db	0.0028003964
178	0x3ddc0d0f	0.10744678
179	0xbe0ecece	-0.13946077
180	0x3d643c9b	0.05572186
181	0xbd8c8e47	-0.06863075
182	0xbcd8f176	-0.026482325
183	0xbcdfb9c3	-0.027310258
184	0xbd87c874	-0.0663003
185	0x3d816f76	0.063200876
186	0x3d3f17ac	0.046653435
187	0xbcc189e0	-0.023625314
188	0xbd82fd3a	-0.063959554
189	0xbd410ee5	-0.047133345
190	0x3e4d78b1	0.20065571
191	0xbe3363ff	-0.17518614
192	0x3dd39d4d	0.10332737
193	0x3d8b064d	0.06788311
194	0xbe24ce0e	-0.16094229
195	0xbda200b1	-0.07910288
196	0xbe13aff2	-0.14422587
197	0x3da4d90f	0.08049213
198	0xbd356149	-0.04428223
199	0x3e382890	0.17984223
200	0x3e2e3133	0.17010956
201	0x3d464b16	0.04841145
202	0x3d99f05a	0.075165465
203	0x3d098bd0	0.0335806
204	0x3d25339b	0.040332418
205	0x3d5100dc	0.05102621
206	0x3e296c1c	0.16545147
207	0xbc1bfd17	-0.009520791
208	0xbd5e66a7	-0.054297116
209	0x3d072096	0.03299006
210	0xbcb350fe	-0.021889206
211	0xbe2c539d	-0.16828771
212	0x3d13a5a3	0.036046635
213	0x3d599fae	0.053130798
214	0xbdb8bf64	-0.0902088
215	0xbdc65758	-0.09684628
216	0x3d694a2c	0.0569555
217	0x3cec8d97	0.028876109
218	0xbdad5f14	-0.084654
219	0xbe2bd066	-0.16778716
220	0xbdf6157b	-0.12015816
221	0xbe11519b	-0.14191286
222	0xbcc80503	-0.024416452
223	0x3dbd565e	0.09244989
224	0xbdf57530	-0.11985242
225	0x3b22ad93	0.0024822697
226	0xbd9f4490	-0.07776749
227	0xbd96d619	-0.07365055
228	0xbe62d659	-0.2215208
229	0x3dc70349	0.097174235
230	0x3dbf7594	0.09348598
231	0x3ba4326a	0.0050108926
232	0x3d7e42a4	0.062075272
233	0x3dc0e665	0.09418944
234	0x3e180cfa	0.148487
235	0x3dfe9721	0.12431169
236	0x3dd1e8f7	0.10249513
237	0x3e2d7f0e	0.16942999
238	0xbd173236	-0.03691312
239	0xbda76293	-0.081730984
240	0xbe037d6a	-0.1284081
241	0x3d95515f	0.07290911
242	0xbdcdc7e0	-0.10047889
243	0x3d93837d	0.07202814
244	0xbd184667	-0.037176516
245	0x3e1c6be9	0.1527554
246	0xbe1c171f	-0.15243195
247	0x3e2f4146	0.17114744
248	0x3d7c8269	0.061647806
249	0x3e001815	0.12509187
250	0x3e467fc5	0.19384678
251	0xbe4aba65	-0.19797666
252	0xbd403ee4	-0.046934977
253	0x3da3eb85	0.08003906
254	0x3e548d5c	0.2075705
255	0xbe09774f	-0.13424419

gain_net.gru.bias_ih f4 [96]
0	0xbdfc564b	-0.123211466
1	0xbdc47de1	-0.09594322
2	0xbd9dd24a	-0.07706125
3	0x3e1e4d8a	0.15459266
4	0x3e48286b	0.19546668
5	0xbc0331f0	-0.0080075115
6	0x3b6e3ab9	0.003635092
7	0xbe0d69c7	-0.13809882
8	0x3e1c875b	0.15286009
9	0xbc9a3bac	-0.018827282
10	0xbdc10a8f	-0.09425842
11	0xbc80f780	-0.015743017
12	0x3e651ce9	0.2237431
13	0x3d239578	0.039937466
14	0x3dbcfe3a	0.09228177
15	0xbdcf2da8	-0.1011613
16	0x3d8c5678	0.0685243
17	0x3e47c865	0.19510038
18	0x3d2a76ca	0.041617192
19	0xbdbf27e1	-0.09333778
20	0x3e1720af	0.14758562
21	0x3e57cb21	0.21073581
22	0x3e160e4c	0.14653891
23	0x3e309b61	0.17246772
24	0x3e4eefbd	0.2020864
25	0xbd994d47	-0.074854426
26	0x3e5b75c5	0.21431644
27	0xbdc2fa19	-0.095203586
28	0xbd988d71	-0.07448853
29	0x3e2469db	0.16056006
30	0x3e3134bd	0.17305274
31	0x3d6b8b89	0.057506118
32	0x3d89699b	0.06709596
33	0x3d944f55	0.07241694
34	0xbe595949	-0.21225466
35	0xbcc467d1	-0.023975285
36	0xbe704530	-0.23463893
37	0xbe809f1d	-0.25121394
38	0xbdab7d03	-0.083734535
39	0x3c5015f7	0.012700549
40	0xbe11b06a	-0.14227453
41	0xbe29d333	-0.16584472
42	0xbe452888	-0.19253743
43	0xbd3de2ff	-0.04635906
44	0xbe597631	-0.21236493
45	0xbdf4eedd	-0.11959622
46	0x3d530a83	0.051523697
47	0xbe3015c6	-0.17195806
48	0xbe1da64b	-0.15395467
49	0xbcc38e8c	-0.023871683
50	0x3d6898ae	0.05678623
51	0xbd39a80d	-0.04532628
52	0xbdc85cda	-0.09783335
53	0xbc0653c0	-0.0081986785
54	0xbe8aeb4a	-0.27132636
55	0xbe85cc71	-0.2613254
56	0xbdf9cc98	-0.12197226
57	0xbc2449ce	-0.010027362
58	0xbd4108ab	-0.047127407
59	0xbe596fd4	-0.21234065
60	0xbe12762a	-0.14302889
61	0xbe800dae	-0.25010437
62	0xbd832180	-0.06402874
63	0xbe591a0e	-0.21201345
64	0xbd6ba610	-0.057531416
65	0xbda2968f	-0.07938873
66	0x3c55ec10	0.01305677
67	0x3ce1a17e	0.027542826
68	0x3e0b4304	0.13599783
69	0xbe2bc095	-0.16772683
70	0xbda230b2	-0.07919444
71	0xbb854c64	-0.0040679444
72	0x3d5baad3	0.053629708
73	0x3e727f2e	0.23681328
74	0x3e0a3346	0.13496122
75	0x3b0ef9f8	0.0021816473
76	0xbda80777	-0.08204549
77	0x3e625481	0.22102548
78	0x3e34baf1	0.17649437
79	0xbd380899	-0.044930074
80	0xbd594fc4	-0.053054586
81	0xbd34b653	-0.04411919
82	0xbc509308	-0.0127303675
83	0x3cf4ef03	0.029899126
84	0x3d100f0f	0.03517061
85	0xbdad7aef	-0.08470713
86	0xbe6dc753	-0.23220567
87	0x3d168f2b	0.03675763
88	0x3e3a968d	0.18221493
89	0xbc98f621	-0.01867205
90	0xbc442a16	-0.011972925
91	0xbe108e64	-0.14116818
92	0x3e22f132	0.15912321
93	0xbe34b482	-0.17646983
94	0xbc88f026	-0.016716074
95	0xbe48c6ed	-0.19607134

gain_net.gru.bias_hh f4 [96]
0	0x3ca5c1af	0.020233957
1	0x3cb0659b	0.021532824
2	0x3d930e2c	0.071804374
3	0xbddcc855	-0.10780398
4	0x3e20983c	0.15683073
5	0xbd827da1	-0.06371618
6	0x3d3beda0	0.045880914
7	0x3d36d753	0.044638943
8	0xbd3164d6	-0.043309055
9	0xbc8d7b40	-0.017270684
10	0x3d86c503	0.06580546
11	0xbc965159	-0.018349336
12	0x3ce1c854	0.027561344
13	0xbd6c265a	-0.057653762
14	0xbdb78f26	-0.0896285
15	0xbe12396f	-0.14279722
16	0xbd129f54	-0.03579648
17	0x3dc8fb75	0.098135866
18	0x3d08a5fb	0.033361416
19	0x3d38cf20	0.045119405
20	0x3e047431	0.12934949
21	0x3e14cfb0	0.14532351
22	0x3e266d5b	0.16252653
23	0x3db235c1	0.08701659
24	0x3e00987c	0.12558168
25	0xbd522946	-0.051308893
26	0x3e5be355	0.21473439
27	0x3e0d41a8	0.13794577
28	0xbdf74d34	-0.12075272
29	0xbd57859a	-0.052617647
30	0xbd082a59	-0.03324351
31	0xbd9ee37d	-0.07758234
32	0xbc512239	-0.012764507
33	0x3de00eb6	0.10940306
34	0x3cefdb38	0.029279336
35	0xbdd83f60	-0.10558963
36	0xbe4b4a53	-0.19852571
37	0xbd421605	-0.04738428
38	0xbe788b83	-0.2427197
39	0xbe2bb64e	-0.16768762
40	0xbd531c88	-0.05154088
41	0xbde4ddb1	-0.11175097
42	0xbb33fd08	-0.002746405
43	0xbdc7f447	-0.09763389
44	0x3d30c893	0.043160032
45	0xbe00de75	-0.1258486
46	0x3dbcca82	0.09218313
47	0xbaf01b48	-0.0018318677
48	0xbdb1614e	-0.086611375
49	0xbda1d1b9	-0.079013295
50	0x3c081466	0.008305645
51	0xbddf2357	-0.108954124
52	0xbd5f876a	-0.0545725
53	0x3c92bbdb	0.017911842
54	0xbe369f09	-0.17834105
55	0xbd711acd	-0.05886345
56	0x3d9f36a0	0.07774091
57	0x3d0dbbcd	0.03460293
58	0xbcf28c72	-0.029607985
59	0xbd65524f	-0.0559867
60	0x3b269adf	0.00254219
61	0xbe29e6ea	-0.16591993
62	0xbe680197	-0.22656856
63	0xbdaa7065	-0.08322219
64	0x3d9ca722	0.076490656
65	0xbdf91cd2	-0.121637
66	0x3d1bc8a8	0.038033158
67	0x3db90d68	0.0903576
68	0x3c9e90c8	0.019356146
69	0xbe3705ab	-0.17873256
70	0x3d3fdcdb	0.046841484
71	0xbc2f4186	-0.010696774
72	0x3d432882	0.047646053
73	0x3e831fe0	0.25610256
74	0x3d9a732c	0.075414985
75	0x3c3d4a6c	0.011553388
76	0x3e5900a3	0.21191649
77	0x3e1ff9bb	0.15622608
78	0x3e087fd6	0.13330016
79	0x3dab41dd	0.08362172
80	0xbe096495	-0.13417275
81	0x3d2f265d	0.042761195
82	0xbdcdb2c7	-0.10043865
83	0xbe0b3b85	-0.13596924
84	0xbe463cdb	-0.19359152
85	0x3d0841f6	0.03326603
86	0x3d344fe7	0.044021513
87	0x3d656379	0.056003068
88	0x3e6161a1	0.22009899
89	0x3d8da981	0.06917096
90	0xba9f2ce7	-0.0012144119
91	0x3d7f4982	0.062325962
92	0x3cf2f23a	0.029656518
93	0x3dd594b1	0.10428751
94	0x3da99b84	0.082816154
95	0xbe63b2b9	-0.22236146

gain_net.trunk.0.weight f4 [32, 32]
0	0x3dfc7be2	0.12328316
1	0xbded6ec6	-0.11593394
2	0xbd402554	-0.0469106
3	0xbde788f6	-0.1130542
4	0xbe068ef7	-0.13140474
5	0xbd1225c4	-0.035680547
6	0xbde0460b	-0.1095086
7	0xbbefa4a0	-0.007313326
8	0x3daa70c2	0.08322288
9	0xbe334eb8	-0.17510498
10	0xbdd367cc	-0.10322532
11	0xbde51d23	-0.11187198
12	0x3e1286f3	0.14309292
13	0xbda7c583	-0.08191969
14	0x3dca3706	0.09873776
15	0xbc91d300	-0.017800808
16	0x3dbc1ac6	0.09184794
17	0xbd4de8b4	-0.05027075
18	0x3cdfe600	0.027331352
19	0x3d1f30ec	0.038865015
20	0xbdfa07ce	-0.1220852
21	0xbe039d8b	-0.12853067
22	0x3e2c17bb	0.16805927
23	0xbde8bcd7	-0.11364143
24	0x3dc5733e	0.09641121
25	0x3c518280	0.012787461
26	0xbda95e43	-0.08269932
27	0x3dca6b02	0.09883691
28	0xbd82bda4	-0.06383827
29	0x3e16aef7	0.14715181
30	0xbd872275	-0.06598369
31	0x3d446fb0	0.047958076
32	0xbca92d25	-0.02065141
33	0xbe90b4e0	-0.28262997
34	0x3e2ee551	0.17079665
35	0xbe053581	-0.13008691
36	0xbe627e1e	-0.22118422
37	0xbe70cb2d	-0.23515005
38	0xbdd596ce	-0.10429154
39	0x3dd8cd99	0.1058609
40	0xbe24d449	-0.16096605
41	0x3e8fa1cf	0.28053138
42	0x3e77f1a8	0.24213278
43	0x3d2a429f	0.04156744
44	0x3e960b1b	0.29305348
45	0x3ddb0d01	0.1069584
46	0x3d816351	0.06317771
47	0x3e212e8a	0.1574041
48	0xbe71a240	-0.2359705
49	0xbcd4de5a	-0.025984932
50	0xbe180534	-0.14845735
51	0xbe2ba82b	-0.1676337
52	0xbe95f1f2	-0.29286152
53	0x3e378c9c	0.17924732
54	0xbdf850e4	-0.12124804
55	0x3e9f1c91	0.31076482
56	0x3d074e1c	0.033033475
57	0x3a5a3c9d	0.0008325072
58	0x3e925ab5	0.2858483
59	0xbe3d6c3d	-0.18498321
60	0xbd87d4be	-0.06632374
61	0xbe8ec580	-0.27885056
62	0x3d9699e3	0.0735357
63	0xbe45107e	-0.19244573
64	0xbe78b9ed	-0.24289675
65	0x3e7b0b18	0.2451595
66	0x3e07b1d1	0.13251425
67	0xbddfd89f	-0.10929989
68	0x3f06d973	0.5267555
69	0xbe12e931	-0.14346768
70	0xbd59f083	-0.053207885
71	0x3e9127b5	0.28350607
72	0xbe8333ff	-0.25625607
73	0xbda3ece2	-0.08004166
74	0x3dae8549	0.08521516
75	0xbe1b39c8	-0.1515876
76	0x3e5c4cd2	0.2151368
77	0x3dabff92	0.083983555
78	0xbeac6c17	-0.33676216
79	0xbe99ca8e	-0.3003735
80	0xbd68b3e8	-0.056812197
81	0x3e5a278f	0.21304153
82	0xbe60e62d	-0.21962805
83	0xbd233b24	-0.039851323
84	0x3d93866d	0.07203374
85	0xbea5fbb5	-0.324186
86	0xbe82d704	-0.2555467
87	0xbbffe889	-0.007809703
88	0x3e5e9117	0.21735035
89	0xbdd6db4c	-0.10491046
90	0xbf119d67	-0.568808
91	0xbd63dbfa	-0.055629708
92	0x3e510a40	0.20414066
93	0x3d7ce659	0.061743114
94	0xbee42b86	-0.44564456
95	0xbe5c8782	-0.21536067
96	0xbe350c5f	-0.176805
97	0xbe193832	-0.14962843
98	0xbd053882	-0.032524593
99	0xbd2514a2	-0.04030288
100	0xbea99983	-0.33124933
101	0xbdcc3ac6	-0.09972148
102	0xbe9a1549	-0.30094364
103	0x3e757bec	0.23973054
104	0xbd92df2b	-0.07171472
105	0x3c8fde52	0.017562065
106	0x3dcba7af	0.099440925
107	0xbe8cc21e	-0.2749185
108	0x3e2c58ca	0.16830745
109	0x3e89c43a	0.2690752
110	0xbe119649	-0.14217485
111	0x3e4fcbad	0.2029254
112	0x3c8f92a8	0.017525986
113	0xbe9ce7e1	-0.3064566
114	0xbe92dec2	-0.28685576
115	0xbcce69c9	-0.025196927
116	0xbe7e0517	-0.24806629
117	0x3745f826	1.1799892e-05
118	0xbe987470	-0.29776335
119	0x3e9142d1	0.2837129
120	0x3d76cff9	0.060256932
121	0xbe529c42	-0.2056742
122	0x3cc5db67	0.02415247
123	0xbe26976b	-0.16268699
124	0x3d9c6c25	0.076378144
125	0xbe6f36d6	-0.23360762
126	0x3e2da80c	0.16958636
127	0xbdc57a29	-0.09642441
128	0xbe05c872	-0.13064745
129	0xbd808b55	-0.062765755
130	0x3e3c8e40	0.18413639
131	0xbe5abd0c	-0.21361178
132	0x3dcddb22	0.10051562
133	0xbe56c729	-0.20974411
134	0xbe840c27	-0.25790522
135	0x3e5d1187	0.21588717
136	0xbbf19499	-0.0073724505
137	0xbcd5e461	-0.026109876
138	0x3e9e3775	0.30901685
139	0xbe9709ec	-0.29499757
140	0xbc448847	-0.011995382
141	0x3e6bdcf3	0.23033504
142	0xbda1be7e	-0.078976616
143	0x3e914182	0.2837029
144	0xbe8533e0	-0.2601614
145	0x3c0dcf23	0.008655342
146	0xbe2e906a	-0.17047277
147	0x3d1a768c	0.03771071
148	0xbe7985a3	-0.24367385
149	0x3e9d8a6f	0.3076968
150	0xbe670ec4	-0.22564226
151	0x3dc8b21b	0.09799596
152	0x3e19f012	0.15032986
153	0xbbdb6174	-0.006694967
154	0x3cdbf4c2	0.026850108
155	0xbdf48fe5	-0.11941508
156	0xbe6643fc	-0.22486871
157	0xbe36b592	-0.17842701
158	0x3e58d308	0.21174252
159	0xbda118ba	-0.07866044
160	0xbe546f12	-0.20745495
161	0x3e8e85a4	0.27836335
162	0xbcc71960	-0.024304092
163	0xbe56c211	-0.20972468
164	0x3e5f7a39	0.21823968
165	0xbda0bee9	-0.07848913
166	0xbe3d44ff	-0.18483351
167	0x3e4cb91a	0.19992486
168	0x3d77d1d4	0.060502842
169	0x3db08f98	0.08621138
170	0x3d9940b2	0.07483043
171	0xbc963d33	-0.018339729
172	0x3e4ff014	0.20306426
173	0x3e8f907c	0.2803992
174	0xbe3d831d	-0.18507047
175	0xbdcdb665	-0.100445546
176	0xbe0d26ac	-0.13784283
177	0x3e1813d3	0.14851312
178	0xbd9ffdf5	-0.0781211
179	0xbe28c1ae	-0.16480133
180	0xbe784342	-0.24244407
181	0xbe3b8453	-0.18312196
182	0x3d401569	0.04689542
183	0x3d847083	0.064667724
184	0x3e6c840b	0.23097245
185	0x3d0c62f4	0.034274057
186	0xbe7e200e	-0.24816915
187	0xbd86c19f	-0.06579899
188	0x3e630e1d	0.22173353
189	0xbe8dc314	-0.27687895
190	0xbeb90e3a	-0.36143667
191	0xbe73d322	-0.2381101
192	0xbe8c7008	-0.27429223
193	0x3d75dfe5	0.060027976
194	0xbc87967b	-0.016551247
195	0xbd3b6ca2	-0.045757897
196	0xbec875bd	-0.39152327
197	0xbe7cec4c	-0.24699515
198	0xbd1d4c04	-0.038402572
199	0x3e4b0e23	0.19829611
200	0xbde9f05d	-0.11422799
201	0xbce05e7a	-0.0273888
202	0x3da9584a	0.08268793
203	0xbd9669ba	-0.073443845
204	0x3e8827f4	0.26592982
205	0xbba89f3e	-0.0051459363
206	0x3e2c49bd	0.16825004
207	0x3dafbfc3	0.085814975
208	0xbd5a380f	-0.053276118
209	0xbeafc70e	-0.34331554
210	0xbddd2f32	-0.108000174
211	0xbcb98061	-0.022644224
212	0xbdd0a44a	-0.10187586
213	0x3dc52ab4	0.096272856
214	0xbe497445	-0.1967326
215	0x3cfb7e69	0.030699925
216	0x3e422360	0.18958807
217	0xbe919354	-0.28432715
218	0x3e84aca8	0.25912976
219	0xbe87bd76	-0.26511735
220	0xbd6166d5	-0.05502971
221	0xbe37c6b0	-0.17946887
222	0x3e3e979e	0.18612525
223	0xbe461312	-0.19343212
224	0xbda11cb3	-0.07866802
225	0x3de49fc2	0.11163284
226	0xbdda6eca	-0.106656626
227	0x3e0c1755	0.13680775
228	0x3ce614d8	0.028086111
229	0xbe20a845	-0.1568919
230	0x3e282a7b	0.16422455
231	0xbe0cfbb6	-0.13767895
232	0x3d83d79c	0.064376086
233	0x3d138428	0.036014706
234	0x3ad23000	0.0016036034
235	0x3de0c832	0.10975684
236	0x3dfae25e	0.12250207
237	0x3daaa102	0.08331491
238	0xbe054b56	-0.1301702
239	0xbe00e24a	-0.12586322
240	0x3d8a045e	0.06739114
241	0xbddf9a3a	-0.10918088
242	0x3ddf6f3e	0.1090989
243	0x3da22702	0.079175964
244	0xbd771dee	-0.060331278
245	0xbd0d641c	-0.0345193
246	0x3e15977d	0.1460857
247	0x3df288e6	0.118425176
248	0xbdf70bb5	-0.1206278
249	0xbdb39d13	-0.08770194
250	0x3e06d4e5	0.1316715
251	0xbcc25358	-0.023721382
252	0x3d3608ac	0.044441864
253	0xbe0badfb	-0.13640587
254	0xbd078e4c	-0.03309469
255	0x3e25b119	0.16180839

gain_net.trunk.0.bias f4 [32]
0	0xbd6eb6a4	-0.05827965
1	0x3ddd6aa2	0.10811354
2	0x3d904150	0.07043707
3	0x3dfbefb7	0.12301581
4	0x3e667c65	0.2250839
5	0xbbec183a	-0.0072050365
6	0x3ddd9a9c	0.10820505
7	0xbdd1cc95	-0.10244099
8	0x3df89ef2	0.121396914
9	0x3e23c5c0	0.15993404
10	0x3e30a9f1	0.17252328
11	0x3dde296b	0.108477436
12	0xbded8ca5	-0.115990914
13	0x3de1968c	0.11015043
14	0x3e531fc1	0.20617582
15	0x3e9cc1ab	0.30616507
16	0x3e13fa21	0.14450885
17	0xbc8aaa42	-0.016926888
18	0x3e45f745	0.19332607
19	0x3c855d21	0.016279759
20	0xbd8076e5	-0.06272677
21	0xbdceaeab	-0.10091909
22	0x3c82b92d	0.01595744
23	0xbcf2253d	-0.029558772
24	0x3e9ccabc	0.30623424
25	0xbdd88fa9	-0.10574276
26	0x3ce9c8cf	0.028538136
27	0x3e94c07d	0.29053107
28	0xbddb4633	-0.10706749
29	0x3e09e36e	0.13465664
30	0xbcfd7118	-0.030937716
31	0xbe29b85f	-0.16574238

gain_net.dk_head.0.weight f4 [32, 32]
0	0xbe300ebb	-0.17193119
1	0xbd8393c5	-0.06424669
2	0x3c8efb20	0.01745373
3	0x3dcadbd5	0.09905211
4	0x3df7b921	0.120958574
5	0x3d10bba4	0.035335198
6	0xbdeff8ff	-0.11717414
7	0xbe269fda	-0.16271916
8	0xbc46d6eb	-0.012136201
9	0xbdafa665	-0.08576659
10	0x3e68b2f9	0.22724523
11	0x3e096529	0.13417496
12	0xbc219ddb	-0.009864296
13	0xbdf1b84b	-0.11802729
14	0x3c415a00	0.011801243
15	0x3d968ec1	0.07351447
16	0xbd2307d2	-0.03980238
17	0x3db4fbaa	0.088370636
18	0x3e081fbc	0.13293356
19	0xbdf4ccfc	-0.1195316
20	0x3d171931	0.03688926
21	0x3df8681e	0.12129234
22	0x3e2a4c63	0.16630702
23	0x3e6be74b	0.2303745
24	0x3e38ca86	0.18046007
25	0x3e135aa0	0.1439004
26	0xbe026b97	-0.12736355
27	0x3e14adab	0.14519374
28	0x3da3dcb7	0.080010824
29	0x3df23e68	0.11828309
30	0x3e13aebd	0.14422126
31	0xbdf57c9c	-0.11986658
32	0xbb2315c0	-0.002488479
33	0xbdfef8a1	-0.12449766
34	0x3e1dda85	0.1541539
35	0xbe31502b	-0.17315738
36	0xbd5bc548	-0.05365494
37	0x3df2bad6	0.118520424
38	0xbe0e88bc	-0.13919348
39	0xbe1a05b8	-0.15041244
40	0xbcb23c00	-0.021757126
41	0xbcbabec0	-0.022796035
42	0xbb969880	-0.004595816
43	0xbde2354e	-0.11045323
44	0xbc771610	-0.015080944
45	0x3e0792c7	0.13239585
46	0x3ddc200e	0.107483014
47	0x3d9d8ed2	0.076932564
48	0x3df0469e	0.11732219
49	0x3d1cd9c4	0.038293615
50	0x3e2ee0d9	0.1707796
51	0x3d583c80	0.052792072
52	0xbc754620	-0.014970332
53	0xbd84137b	-0.06449028
54	0x3e2cd8cb	0.16879575
55	0xbce0bd20	-0.027433932
56	0x3d8d6416	0.069038555
57	0x3d7f3828	0.062309414
58	0xbc2160a0	-0.009849697
59	0xbdb5ffc6	-0.088866755
60	0x3d5da4ac	0.05411212
61	0xbe2e1fb9	-0.17004289
62	0xbbe68ec0	-0.00703606
63	0x3d175c9c	0.036953554
64	0x3dc1b5c6	0.09458499
65	0xbd6e3343	-0.058154356
66	0xbdd84b87	-0.10561281
67	0xbe30bab0	-0.17258716
68	0x3ddd0818	0.107925594
69	0xbe244240	-0.16040897
70	0x3dd758ea	0.10515006
71	0x3e0e4673	0.13894062
72	0xbdee12ce	-0.116246805
73	0x3e485570	0.19563842
74	0x3db319f5	0.08745185
75	0x3e27b44b	0.1637737
76	0x3dec0546	0.11524443
77	0x3df3aa1c	0.1189768
78	0x3daf8093	0.085694455
79	0x3dfdef9d	0.12399218
80	0xbd5e7317	-0.054308977
81	0x3db4da57	0.088307075
82	0x3e37dd59	0.17955531
83	0x3da0872e	0.078382835
84	0x3c7e72b4	0.015530277
85	0xbdf8dacb	-0.121511064
86	0x3d8bf65e	0.068341
87	0xbe83abc4	-0.25716984
88	0xbdb75923	-0.08952548
89	0xbda3b6de	-0.079938635
90	0xbe14f2bf	-0.14545725
91	0x3df263f8	0.11835474
92	0x3ccaa919	0.024738835
93	0xbe888084	-0.2666055
94	0x3e1ee459	0.15516795
95	0xbcbb3a64	-0.022854991
96	0xbddbe0d1	-0.1073624
97	0x3e03c06b	0.1286637
98	0x3d0186ee	0.03162282
99	0xbdab51ae	-0.083651885
100	0xbd88376d	-0.06651197
101	0x3ce7f3f3	0.028314566
102	0x3e10b434	0.14131242
103	0xbdb04fd4	-0.08608976
104	0xbcc28ea7	-0.023749663
105	0xbe352291	-0.17688967
106	0x3d94792b	0.072496735
107	0xbc7d32a3	-0.015453967
108	0x3e1c13cd	0.15241928
109	0xbe16b7c3	-0.14718537
110	0x3e1d0873	0.15335254
111	0xbe244757	-0.16042839
112	0x3d004b66	0.031321906
113	0xbc6263b0	-0.013817713
114	0x3aae312b	0.00132898
115	0xbd2c0d30	-0.042004764
116	0x3da45c10	0.08025372
117	0xbdfb8a23	-0.12282207
118	0x3e055a6f	0.13022779
119	0x3d849710	0.064741254
120	0xbe37966d	-0.17928477
121	0x3e13daa5	0.14438875
122	0xbb20081e	-0.00244189
123	0xbd92e264	-0.07172087
124	0x3d5f0454	0.054447487
125	0x3e25f7be	0.16207787
126	0x3d2cd4b0	0.042195022
127	0xbd67a83a	-0.056556918
128	0xbe116e06	-0.14202127
129	0x3dc65615	0.096843876
130	0xbea9412b	-0.33057532
131	0xbdb2e4ce	-0.08735047
132	0xbce6065c	-0.028079204
133	0xbe00d0a9	-0.12579598
134	0x3e200130	0.15625453
135	0xbcaf3ed8	-0.02139227
136	0xbd3ab6df	-0.045584556
137	0x3e3e1193	0.18561392
138	0x3cdb21f8	0.026749596
139	0x3e346e89	0.17620291
140	0x3dc21874	0.0947732
141	0x3bd34590	0.0064475015
142	0x3d91c86b	0.07118305
143	0xbdb20a4a	-0.08693369
144	0x3d7534c1	0.059864763
145	0xbd271336	-0.040789805
146	0x3dfe4ac2	0.12416603
147	0x3e20a537	0.15688024
148	0xbdf926e6	-0.121656224
149	0x3dc1248d	0.094308
150	0x3e218d37	0.15776525
151	0xbe53ef89	-0.20696844
152	0xbcd61be7	-0.026136352
153	0xbe11c42c	-0.1423499
154	0x3d887169	0.06662256
155	0x3d8f4306	0.069952056
156	0x3d916330	0.07098997
157	0xbe8b0a1e	-0.27156156
158	0xbe1aade9	-0.15105404
159	0x3e12f522	0.14351323
160	0x3d347b44	0.044062868
161	0x3d609a5d	0.054834712
162	0xbe6a6696	-0.22890696
163	0xbd90a86b	-0.07063373
164	0xbb3ebf27	-0.0029105635
165	0xbdd1effd	-0.10250852
166	0x3de309cc	0.11085853
167	0x3e28dfad	0.16491576
168	0xbe3d3099	-0.1847557
169	0x3e33572d	0.17513724
170	0xbdb32c93	-0.08748736
171	0xbc89df34	-0.016830064
172	0x3d8bb9d7	0.068225555
173	0x3dbe255e	0.09284471
174	0x3deefa09	0.11668784
175	0x3cecd8d6	0.02891199
176	0x3e1965d3	0.14980249
177	0xbe163764	-0.14669567
178	0x3d3c0835	0.045906264
179	0x3da947a9	0.08265621
180	0xbe02e7d3	-0.12783746
181	0xbe05b063	-0.13055567
182	0xbc1e21e1	-0.009651632
183	0xbe68e648	-0.22744095
184	0x3e4b4064	0.19848782
185	0xbcb867f2	-0.022510502
186	0x3d84e5e4	0.06489161
187	0x3e3342d2	0.17505959
188	0x3e09ad20	0.13444948
189	0xbd9a031e	-0.07520126
190	0xbd666c46	-0.0562556
191	0xbe1cc1e3	-0.15308337
192	0x3dc24cb6	0.09487288
193	0x3dabea8c	0.08394346
194	0xbe4afd6d	-0.19823237
195	0xbdb60773	-0.088881396
196	0x3e26e20c	0.16297168
197	0xbe56d5ea	-0.20980039
198	0xbe042111	-0.12903239
199	0x3e0e136b	0.13874595
200	0x3e2fe18c	0.17175883
201	0xbd37b94d	-0.04485445
202	0x3df4ecf1	0.119592555
203	0x3b0142c5	0.0019723636
204	0xbe1891da	-0.14899388
205	0xbd9b3eb2	-0.075803176
206	0xbd94c67a	-0.07264419
207	0xbb398b9b	-0.002831197
208	0x3dcfc9d4	0.101459175
209	0xbdf0c671	-0.117566
210	0x3e137606	0.14400491
211	0xbe0644a6	-0.13112125
212	0xbe423f78	-0.18969524
213	0xbdcc47c8	-0.09974629
214	0x3c4aa3c7	0.012368149
215	0xbdec5f73	-0.11541643
216	0xbb93bd24	-0.0045086313
217	0xbcaf23d8	-0.021379396
218	0x3e283ab3	0.16428642
219	0xbdee2503	-0.11628153
220	0x3e2d7ba4	0.16941696
221	0xbdecf9f2	-0.11571111
222	0x3d9b833f	0.075933926
223	0x3d856e81	0.065152176
224	0xbdeabffd	-0.114624
225	0x3de28954	0.110613495
226	0xbe8d9a55	-0.27656808
227	0x3db9eaa9	0.09077961
228	0x3dd0b989	0.10191638
229	0x3da1b776	0.078963205
230	0x3ceaca26	0.028660845
231	0xbe0e749a	-0.13911667
232	0xbd1add70	-0.037808836
233	0x3df42a47	0.11922126
234	0x3e1d717e	0.15375325
235	0x3d27dc7b	0.04098175
236	0x3dc69549	0.09696443
237	0x3e06285b	0.13101332
238	0xbd61608b	-0.05502371
239	0x3df5267a	0.119702294
240	0x3d4e9e32	0.050443836
241	0xbd7df4a0	-0.06200087
242	0xbdd9bfa2	-0.10632254
243	0x3da92e7b	0.082608186
244	0x3d9db549	0.07700593
245	0x3d643d10	0.055722296
246	0x3e1b2fc1	0.15154935
247	0xbe69c241	-0.22828008
248	0x3db615a7	0.088908486
249	0x3e04f870	0.12985396
250	0xbe1c4891	-0.15262057
251	0x3e132a59	0.14371623
252	0xbe1f4299	-0.15552749
253	0xbe5f0bff	-0.2178192
254	0x3e2b2628	0.16713774
255	0xbe1f24f0	-0.15541434
