results/run1/model_best.pt (torch, 50229 bytes, 22 tensors)

Q f4 [4, 4]
000000 ac c5 27 37 00 00 00 00 00 00 00 00 00 00 00 00
       1e-05 0.0 0.0 0.0
000010 00 00 00 00 17 b7 d1 38 00 00 00 00 00 00 00 00
       0.0 1e-04 0.0 0.0
000020 00 00 00 00 00 00 00 00 bd 37 86 35 00 00 00 00
       0.0 0.0 1e-06 0.0
000030 00 00 00 00 00 00 00 00 00 00 00 00 bd 37 86 35
       0.0 0.0 0.0 1e-06

R f4 [2, 2]
000000 0a d7 23 3b 00 00 00 00 00 00 00 00 0a d7 23 3b
       0.0025 0.0 0.0 0.0025

wm f4 [9]
000000 00 00 10 bf 00 00 48 3e 00 00 48 3e 00 00 48 3e
       -0.5625 0.1953125 0.1953125 0.1953125
000010 00 00 48 3e 00 00 48 3e 00 00 48 3e 00 00 48 3e
       0.1953125 0.1953125 0.1953125 0.1953125
000020 00 00 48 3e
       0.1953125

wc f4 [9]
000000 7b 14 e6 3f 00 00 48 3e 00 00 48 3e 00 00 48 3e
       1.7975 0.1953125 0.1953125 0.1953125
000010 00 00 48 3e 00 00 48 3e 00 00 48 3e 00 00 48 3e
       0.1953125 0.1953125 0.1953125 0.1953125
000020 00 00 48 3e
       0.1953125

gain_net.ln.weight f4 [20]
000000 ce 91 8c 3f fa 2c 9d 3f e5 6d 89 3f 93 b6 8b 3f
       1.0981996 1.2279351 1.0736662 1.0915092
000010 a8 b2 93 3f 29 a6 8a 3f e8 87 8f 3f 61 13 93 3f
       1.1538897 1.0831958 1.121335 1.1490289
000020 cf f1 86 3f 8d 08 89 3f c3 b3 99 3f c3 f1 9c 3f
       1.0542544 1.0705734 1.2007984 1.226128
000030 fa d6 8a 3f c0 12 8a 3f 54 b1 91 3f a5 53 86 3f
       1.0846856 1.0786972 1.1382241 1.0494276
000040 28 e2 82 3f 34 d6 a0 3f 42 35 80 3f b0 de 8d 3f
       1.0225267 1.256537 1.0016253 1.1083584

gain_net.ln.bias f4 [20]
000000 19 64 c5 bb d0 88 80 3d 6c 7e 92 3d d3 bd 63 bd
       -0.0060238955 0.06276095 0.07153019 -0.055600952
000010 ac 73 62 3d 1b 62 31 3d 87 c4 2a 3d ec 1e 0a 3d
       0.055286095 0.04330645 0.04169133 0.033720896
000020 56 a9 06 bd bb e2 01 bd 74 83 25 bd a6 b5 3d bd
       -0.032876335 -0.031710368 -0.040408567 -0.04631581
000030 3e 2d 20 bc de bf 3c bd a3 77 15 3d 1e ef fc bc
       -0.009776412 -0.046081416 0.036491048 -0.030875739
000040 c3 e8 cb bd 90 15 18 bd 2a c1 2b 3d 72 23 d4 3c
       -0.09956505 -0.03712994 0.041932262 0.025895808

gain_net.enc.0.weight f4 [32, 20]
000000 cb 6f 10 3e bc 1e b4 bd ad 16 75 3e e4 6e 6a 3c
       0.14105146 -0.087949246 0.23934431 0.014308665
000010 07 f7 66 be 11 10 f8 3d cf 05 d3 3d 06 26 6d be
       -0.22555171 0.121124394 0.10303842 -0.23159036
000020 fe d7 22 3e e5 80 30 be bb f3 88 be 48 43 9a be
       0.15902707 -0.1723667 -0.26748452 -0.30129457
000030 69 ab 75 bc ca 83 f3 bd 59 80 ec 3d 70 c3 c2 3d
       -0.014994481 -0.11890371 0.11547918 0.09509933
000040 c1 d7 d9 bd 5a 3d 02 3d aa 43 22 3e 56 e6 42 bb
       -0.10636855 0.03179679 0.15846124 -0.0029739342
000050 df 1d 2d be df 39 d4 bd e6 cd 77 3d 6c a6 1d be
       -0.16905926 -0.103626005 0.060499094 -0.15395516
000060 27 e7 bb bd 01 49 13 3e 8e aa 97 bc ed 4c 23 3e
       -0.09174948 0.14383318 -0.018513944 0.15947314
000070 a4 91 56 bd 3a b1 8d 3d 81 8e bf bd 7d eb 16 bd
       -0.052384987 0.06918569 -0.09353352 -0.036845673
000080 80 a6 58 be dd c5 15 3e 61 5d 95 bd 95 08 d5 3c
       -0.21157265 0.1462626 -0.07293201 0.026005069
000090 01 70 61 be c9 a3 11 be 06 0a 2c be f4 94 af 3b
       -0.22015382 -0.14222635 -0.16800699 0.005358333
0000a0 bd 66 1f be ae 8b 34 3e fb ba 82 bd 76 dc 85 3d
       -0.15566535 0.17631409 -0.0638332 0.0653619
0000b0 44 cd 17 be b7 59 93 3c 91 7c 49 be 72 ac a6 3d
       -0.14824396 0.017987115 -0.19676425 0.0813836
0000c0 2b 56 f1 3c 39 a1 d5 3d f3 7e 24 bc b2 d1 df 3d
       0.029460033 0.104311414 -0.010040033 0.10928668
0000d0 14 c0 a4 3d 6b c4 64 3d 54 88 e2 3d 39 be 0f 3e
       0.080444485 0.05585138 0.11061159 0.14037408
0000e0 50 92 40 3e 2a a2 12 3c a0 d0 12 3e 12 99 27 be
       0.18805814 0.008949796 0.14337397 -0.16366985
0000f0 09 a4 45 3e da db 14 3e 25 41 19 be 4c d8 07 bd
       0.19300856 0.14536992 -0.14966257 -0.03316526
000100 42 ea 91 bd a2 c8 ca bd d9 68 64 be 95 e7 3f be
       -0.07124759 -0.09901549 -0.22305621 -0.18740685
000110 05 76 ac 3c 99 30 9f 3d 28 37 12 3e 6d be 25 be
       0.02105237 0.07772941 0.14278853 -0.16185923
000120 ef 0d 18 3e 62 fd 08 bd 5a eb 06 be 0f 91 3d 3c
       0.14849065 -0.03344477 -0.13175717 0.011570229
000130 02 5c 9e 3c 9f a9 13 3e fa b3 b8 3d f9 72 5a 3e
       0.019330982 0.14420174 0.09018703 0.21332921
000140 c8 9a 0c 3e 53 79 44 be 74 59 2f be 58 90 9a bd
       0.1373092 -0.19186907 -0.17123967 -0.07547063
000150 76 b3 1b be 20 2d 87 3b 6f 2f 5e be 9c 4b c1 bd
       -0.15205178 0.0041252524 -0.21697782 -0.094382495
000160 50 14 62 3d 3e 01 52 be b0 f1 1c bc 4b e5 59 be
       0.055195153 -0.20508286 -0.009579107 -0.21278875
000170 c1 ca e5 bd dc c6 4e bd 54 63 5f bd 28 9c b8 3d
       -0.11220313 -0.050482616 -0.054538086 0.090141594
000180 64 9d 11 be 30 4b e4 bd d0 17 9c 3c 60 37 27 be
       -0.14220196 -0.111471534 0.019054323 -0.16329718
000190 62 df 22 be 2e d0 e3 3e 21 06 20 3e b7 0e 75 bd
       -0.15905526 0.44494766 0.15627338 -0.059828486
0001a0 e7 cc f3 ba 28 65 86 bd bd 6d 66 be 25 be 2a 3e
       -0.0018600494 -0.06562263 -0.225028 0.16674097
0001b0 3c 77 80 be 2a 14 63 bd f0 1b 90 3d 17 05 79 be
       -0.2509097 -0.05543915 0.07036579 -0.24318348
0001c0 30 1c b1 bd 54 b2 c6 bd 66 46 49 3c 23 c0 2f be
       -0.086479545 -0.09701982 0.012284851 -0.17163138
0001d0 b9 43 3c be e5 0b 89 bd b9 35 da bb ab 98 1d be
       -0.18385209 -0.06691722 -0.0066592363 -0.1539027
0001e0 bb ce f1 bc 3d e7 03 3e 6b 89 2a bd f2 5e 8e be
       -0.029517522 0.12881179 -0.04163496 -0.27806813
0001f0 c8 6f 79 3e 40 43 ac 3e b6 7e 36 3e 17 8d 12 bd
       0.24359047 0.33645058 0.17821774 -0.035779085
000200 f3 2d 71 bd b6 79 be bd 62 bf e9 bd 8e 18 c1 3d
       -0.05888171 -0.09300558 -0.114134565 0.094285116
000210 af d9 85 3e d5 bf 6d 3e 37 8f 1e 3e 23 d6 bb bd
       0.26142642 0.2321771 0.1548432 -0.09171703
000220 81 fa ce bd 34 42 ab 3e 38 cb 2a 3e 6b 6d a2 bd
       -0.101063736 0.33448946 0.16679084 -0.07931026
000230 ac 57 64 be 4c e3 f9 3d 56 b8 84 bd d8 10 27 3d
       -0.22299069 0.122015566 -0.06480472 0.040787548
000240 48 7a 2e be a2 ae a4 bd 48 b5 42 be 00 53 b1 3d
       -0.17038834 -0.08041121 -0.19014466 0.08658409
000250 40 70 af 3d 00 52 69 3a a4 2c 46 bd 32 22 30 3e
       0.08566332 0.00089004636 -0.048382416 0.17200544
000260 7c a7 29 3e 68 eb 5b be 2d 66 e7 bd 90 4e d9 3d
       0.16567796 -0.21476519 -0.11298785 0.10610688
000270 fe 3a 5e 3e 20 89 14 bc 00 0c 52 39 fd ae fd bd
       0.21702191 -0.009065896 0.00020031631 -0.12386892
000280 7f 65 79 3e bf d0 84 3c 7b 2a 9e bd a7 be fa bd
       0.24355124 0.01621282 -0.07722946 -0.12243395
000290 af 6f 76 bd e9 ec 44 3e 0a e6 a6 3d 56 c0 39 3e
       -0.060165104 0.19230999 0.08149345 0.18139777
0002a0 3a a9 84 be 9e 84 f1 bd eb ec aa bd b9 dd 50 be
       -0.2591036 -0.11792873 -0.0834597 -0.2039708
0002b0 67 3b dd bd 01 04 a2 3d 8a ba a0 3c b5 1c e0 bd
       -0.10802346 0.0791092 0.019620199 -0.109429754
0002c0 d2 4f b6 3d cf 14 95 3e df 0b 30 3d bb 81 2e be
       0.08901943 0.29117438 0.04298007 -0.17041676
0002d0 5f c9 31 bc e7 da 91 3e dd 89 09 bc ff 71 b0 bd
       -0.010851233 0.28487322 -0.008394686 -0.08615493
0002e0 e0 24 86 3e cd 6e 08 bd ca ac 43 3e 79 2a 28 3c
       0.26200008 -0.033308793 0.19108883 0.0102640325
0002f0 e3 ab 0d be f1 78 11 be 8c 6f c5 3a 81 c1 b7 bd
       -0.13835101 -0.14206292 0.0015063151 -0.08972455
000300 79 46 5a 3e a2 d7 c7 3d 45 e0 8f 3e 8b 28 e2 3d
       0.21315946 0.097579256 0.28100792 0.11042889
000310 63 4d 2c 3e 40 87 cf 3d 86 77 88 3d 80 0a 7b be
       0.16826396 0.10133219 0.06663422 -0.24515724
000320 70 d2 d6 3d 27 e7 a8 3e 4f 18 bf 3d 60 7b 15 3e
       0.104893565 0.32988855 0.09330808 0.14597845
000330 60 f5 71 bd 9c a8 ad 3c bc 09 50 3e f9 99 64 be
       -0.0590719 0.021198563 0.20316213 -0.22324361
000340 54 f1 03 3b 9b f1 89 3b 40 b1 67 be 0f 5a b2 bc
       0.0020132856 0.00420971 -0.2262621 -0.021771459
000350 ba db 05 3e 8f 96 9c 3c f3 19 6d 3d 51 51 2c 3e
       0.130721 0.01911476 0.057886075 0.16827895
000360 3c 8b 0b bd 5a 38 69 3e 1f f3 84 3d a8 f0 f9 3b
       -0.03406833 0.22775403 0.06491684 0.0076275654
000370 83 cc 38 be 34 3d b5 3d 8d 4d 02 be dc 18 ac 3d
       -0.18046765 0.08849564 -0.12724896 0.08403179
000380 87 72 51 be 1c 1d 3d bd b2 49 27 3e 48 e9 49 be
       -0.20453845 -0.04617034 0.16336706 -0.19717896
000390 88 12 1d be 00 4b f8 3c 4e bb 19 be 44 db a7 3d
       -0.153391 0.0303092 -0.15012857 0.081961185
0003a0 3c 19 0c be 2e 06 31 be aa a7 c5 bd 58 19 d9 3d
       -0.13681501 -0.17287514 -0.0965112 0.10600537
0003b0 a8 92 75 bd 36 df 4f 3e 68 1d b6 3d 40 6b 27 3e
       -0.059954315 0.20299992 0.088923275 0.16349506
0003c0 4e 51 61 3e 0f c6 0f bd 9e e9 8f bd d9 57 8d be
       0.22003672 -0.035100993 -0.07026981 -0.27606085
0003d0 60 87 5c 3e 13 dc 80 3e a2 73 ae 3d 7a 0d bc 3e
       0.21536016 0.25167903 0.08518149 0.36729032
0003e0 74 27 e8 bc e6 7b 99 be 16 35 aa 3d d5 36 a6 bc
       -0.028339125 -0.2997734 0.083109066 -0.020289818
0003f0 87 e6 43 bc 03 25 32 3e 7b cf 48 3e d2 59 86 3d
       -0.0119568175 0.17396931 0.19610398 0.065601006

gain_net.enc.0.bias f4 [32]
000000 b1 1f 25 3c 98 58 46 bd 52 48 3b 3e 69 1f dc bd
       0.010078357 -0.048424333 0.18289307 -0.107481785
000010 fa b1 12 be 80 cd 95 3d 55 c6 9d bc 84 4b 61 be
       -0.14325705 0.07314587 -0.019259611 -0.22001463
000020 18 3d 58 3e 4f 4b d2 3d 50 f3 39 3e de 05 eb bd
       0.21117055 0.1026827 0.18159223 -0.114757285
000030 9d 19 49 3e 45 48 27 bd 62 6f c8 3d a6 a1 65 3e
       0.19638677 -0.040840406 0.097868696 0.22424945
000040 61 d6 75 bd 95 3b 36 3e c7 50 25 3e 5f 29 72 3e
       -0.0600189 0.17796166 0.16144095 0.23648594
000050 7c f1 83 3e 2a 01 c2 bb 5b 9c 64 3e 3f 89 cf 3d
       0.25770175 -0.005920549 0.2232527 0.101335995
000060 07 8b be 3d d5 02 a3 bd c5 c5 26 be c0 ee a4 bd
       0.09303861 -0.079595245 -0.1628638 -0.080533504
000070 db 54 e5 bd f1 61 4d 3e 5c 60 65 3e 38 24 be 3d
       -0.111978255 0.20056893 0.2240004 0.09284252

gain_net.enc.2.weight f4 [32, 32]
000000 6b 23 90 bd 57 db 10 3e 56 18 0b 3e 16 68 dc 3d
       -0.070380054 0.14146172 0.13583502 0.1076204
000010 c7 ed 24 3e 8e 65 8e 3a cf 1a 70 3e 7f 85 31 be
       0.1610633 0.0010864006 0.23447727 -0.17336081
000020 1d a6 f0 3c a0 56 bb ba 4d dd a8 bd e9 59 cf bd
       0.029376084 -0.0014292784 -0.08245335 -0.10124571
000030 0f ce d0 3b f5 42 3c 3e 8c e1 9d bd 8f 1c 85 be
       0.0063722203 0.18384917 -0.07709035 -0.2599835
000040 a4 57 e6 3d d1 06 51 3e d1 5a 40 be 19 f1 a5 3c
       0.11247185 0.20412757 -0.18784644 0.020256566
000050 0a 1d 16 3e a4 31 42 3e 9f 0a e3 bd ed 0c 8d bd
       0.14659515 0.18964249 -0.1108601 -0.06887231
000060 37 43 c1 bd 3b 44 f3 3c 80 d8 4e bc 50 49 a8 3c
       -0.09436648 0.02969562 -0.01262486 0.02054277
000070 e8 da 12 be 3e 52 12 3e 4f 82 63 3e 14 2e 09 3e
       -0.14341319 0.14289185 0.22217678 0.13396484
000080 aa 46 cf 3d 29 20 bf 3d 3e f6 24 be 6e 09 b2 bd
       0.101209 0.09332306 -0.16109559 -0.08693205
000090 b2 44 e9 3d e9 87 49 3e e4 0c c6 bd fe 24 c8 3d
       0.11390056 0.19680752 -0.096704274 0.09772681
0000a0 03 ab 06 be 2a 89 b7 3d f7 ff 2f bc de 8b c8 3d
       -0.13151173 0.08961709 -0.010742179 0.097923025
0000b0 98 d8 ce bd 55 87 1f bc 68 84 66 3e 4d dd 66 3e
       -0.10099906 -0.0097368555 0.22511446 0.22545357
0000c0 37 5d 0a be 16 5e bc bd ec 3f ce bd 34 b1 f1 3b
       -0.13512121 -0.09197633 -0.10070786 0.0073758606
0000d0 2c 29 cd 3d 00 16 91 3d e0 cb 03 3e 58 39 89 bd
       0.100176185 0.07084274 0.12870741 -0.067003906
0000e0 bb 1b 31 bd 3c b0 cb 3d ee e1 df bd 81 0a 0d 3d
       -0.043239336 0.099457234 -0.109317645 0.034433845
0000f0 ce 7c c7 bd e8 c7 c7 bd 69 67 01 3e c9 be fd 3b
       -0.097406015 -0.09754926 0.12637104 0.0077436906
000100 88 ad 97 3b 28 bd af 3d a9 22 8e bd 03 74 33 be
       0.004628841 0.085810006 -0.06940205 -0.17524724
000110 e3 4a 20 3e f0 fa f3 3c 97 ef c3 bd 04 9f 5b 3d
       0.15653567 0.029782742 -0.095671825 0.053618446
000120 16 e7 d6 3d 13 d5 e6 3d 34 a9 0f bd 00 8c ac bd
       0.10493295 0.112711094 -0.035073474 -0.084251404
000130 4f ce 0b 3e 55 d8 dd 3d a1 68 7b 3c 46 f5 29 3e
       0.13652919 0.10832278 0.01534477 0.1659747
000140 42 db 0a 3d c5 06 1c be ac 31 d4 bc a7 9c ab bd
       0.033900507 -0.15236957 -0.025902592 -0.083794884
000150 73 5e 01 3e 7c d4 33 3d ea 38 24 bd db ca df bc
       0.12633686 0.043903813 -0.04009334 -0.027318409
000160 e2 3e e6 bd cd d9 03 3e 58 c8 27 3d 89 a2 7d 3c
       -0.11242463 0.12876053 0.040962547 0.015480646
000170 af b3 0d 3d 60 57 d3 3d 22 2e 12 3e dd e6 97 3c
       0.034595188 0.103194 0.14275411 0.018542701
000180 86 96 10 be 3c 59 15 bd 54 9f 85 bd bc 2b 54 3b
       -0.1411992 -0.036462054 -0.0652453 0.00323747
000190 4f 8f ad bd 4e b8 05 3e 78 ef 2b bd b4 bf b9 bd
       -0.084745996 0.13058588 -0.041976422 -0.090697676
0001a0 ee 84 27 3e f9 0d 82 3d 14 1a e0 bc 64 ba 93 3d
       0.16359302 0.06350321 -0.027356185 0.072132856
0001b0 46 46 2c 3e 8d 63 0d 3d 2b e8 12 3e 23 fc f1 3d
       0.16823682 0.034518767 0.14346378 0.118156694
0001c0 39 e7 2a 3e fc e1 04 3e 1c f4 55 3d cb e2 15 be
       0.16689767 0.12976831 0.052234754 -0.14637296
0001d0 85 71 8b 3e a9 6a 09 3e 2e cf 4a 3e 4a 8e 45 bd
       0.27235046 0.13419594 0.19805595 -0.0482314
0001e0 63 59 09 3e 52 1a 27 3d dd ab 2a be ee 1c 1d bd
       0.13413005 0.040796585 -0.16667123 -0.038357668
0001f0 09 34 f6 bc ff 14 45 3e 6a 42 1e bd 75 3a 9d bd
       -0.03005411 0.1924629 -0.038637556 -0.076771654
000200 39 86 4c 3e 07 36 b9 3d 27 1b 15 3e 22 e5 ca 3d
       0.19973077 0.09043508 0.14561139 0.09906985
000210 76 ad c4 bd 86 31 51 3d 0d a4 6e bd 5a 59 96 3d
       -0.096033975 0.05107262 -0.05826192 0.07341261
000220 3a 9a 39 3e f0 ab 01 3e 53 76 92 3e 84 bc 80 3d
       0.18125239 0.12663245 0.286059 0.062859565
000230 9c e6 7c bd 00 da 77 3d 7e df 68 3d f2 dc 50 3d
       -0.061743364 0.060510635 0.056853764 0.05099196
000240 f3 b6 6c bd df cb aa 3d 17 2b a0 3d ca 35 5a 3e
       -0.05779166 0.083396666 0.07820719 0.21309581
000250 24 7a 88 bd 17 d1 c6 bc 20 f0 d9 3d 92 4f db bb
       -0.066639215 -0.024269624 0.10641503 -0.006692835
000260 3b 8f 6b 3e 24 01 1f 3e 92 46 c3 3d 3b a5 79 3e
       0.23003857 0.15527779 0.095349446 0.24379437
000270 a0 a5 ed 3d 0a 3b 32 3e 20 42 72 3e e9 a2 ad bd
       0.11603856 0.17405334 0.23658037 -0.08478338
000280 12 80 b0 3c 00 80 ec 3d 7f 0c 49 bc 4e 62 56 bb
       0.021545444 0.115478516 -0.012271046 -0.0032712403
000290 b8 2b 93 bc 4f 71 41 3e 07 24 91 3d 10 b9 2a 3c
       -0.017965183 0.1889088 0.0708695 0.010420099
0002a0 da 08 75 bd a9 c5 2a 3e a3 c9 d7 bc 1d e4 0d be
       -0.059822895 0.16676964 -0.026341265 -0.1385655
0002b0 ec 89 63 be 17 44 05 bd 38 a1 87 3d 2c 5e e6 3c
       -0.22220582 -0.03253564 0.06622547 0.028121077
0002c0 ac 4f 22 bd 39 39 ce 3d 79 aa 5b 3b 0c 83 e8 bd
       -0.039626762 0.10069508 0.0033518358 -0.1135312
0002d0 75 2d 1b be ba 62 c2 bd a0 30 e2 bd 1d 7e 44 3e
       -0.15154059 -0.09491487 -0.11044431 0.19188733
0002e0 1d 8c 09 be cb 58 7f 3e f0 a4 a0 3c c8 16 62 3e
       -0.13432355 0.24936216 0.019609898 0.22079003
0002f0 21 b1 f9 bd 1a 09 ef 3d 7e f6 7e bd e9 0b 53 3d
       -0.12191988 0.11671658 -0.062246792 0.05152503
000300 e0 b2 0b 3c 82 8f e7 3d 32 32 a0 3d 78 61 2d be
       0.008526534 0.11306669 0.07822074 -0.16931713
000310 04 34 04 3d 90 48 69 3d 88 53 fa 3c 72 2d b3 3d
       0.03227617 0.056953967 0.030557409 0.087489024
000320 2b 91 1f 3e 8f a0 84 bd 9f 90 21 be 2b c3 25 be
       0.15582721 -0.064759366 -0.15777825 -0.16187732
000330 1e 7b ef bd 86 b3 ae 3d 10 16 61 bc 8a dc e6 3d
       -0.116934046 0.08530335 -0.01373817 0.11272533
000340 d1 e1 2f 3e d0 29 18 bc af e1 13 be 97 80 16 3e
       0.17175986 -0.009287313 -0.1444156 0.1469749
000350 9a f8 fb bd 21 22 30 3e c5 f3 a9 bd 21 4c 31 be
       -0.12303276 0.17200519 -0.082984485 -0.17314197
000360 d4 5a 13 be f7 1b e7 bd 5a 65 c8 3d b9 46 dd bd
       -0.14390117 -0.11284631 0.09784956 -0.10804505
000370 ca 9c 10 be 10 e6 5d 3c a0 1c 2b be be 5e df 3d
       -0.1412231 0.013543621 -0.16710138 0.109067425
000380 d9 e1 56 bc d0 d7 1f be a2 77 db bd e6 10 92 bd
       -0.01311537 -0.1560967 -0.107161775 -0.07132129
000390 b0 be d4 3c 07 6a 01 3e b0 1c f3 bd 00 e5 db ba
       0.025969833 0.12638102 -0.11870706 -0.0016776621
0003a0 eb 9a 0f be f4 c2 65 bd 08 49 01 be e1 a7 e8 bd
       -0.1402394 -0.056094125 -0.12625515 -0.11360145
0003b0 1d 4a 93 bd 2f 26 ef 3d b9 fd 1b be 52 fc db 3d
       -0.0719187 0.11677205 -0.15233506 0.10741486
0003c0 00 62 70 3a 68 a2 20 3d 44 70 26 be 4b e0 f5 bb
       0.00091698766 0.039217383 -0.16253763 -0.0075035444
0003d0 7d cc 5c bb 92 13 04 be 4a 3c 86 3d 09 8c 88 bc
       -0.003369122 -0.1289809 0.06554468 -0.016668336
0003e0 4f 00 0b be 3e 33 9a bd 10 ec 40 bc 95 c4 a9 3d
       -0.13574336 -0.07529305 -0.011775032 0.08289448
0003f0 c3 5d b1 3d a3 b7 a6 3c 19 6d 14 be c0 bb 4f bb
       0.08660462 0.020351237 -0.14494742 -0.00316976

gain_net.enc.2.bias f4 [32]
000000 8a bb 1b be d3 d5 b4 bd a8 96 84 3c ca 23 c2 bd
       -0.15208259 -0.08829846 0.01618512 -0.094794825
000010 5d a3 49 3e ad 22 03 3e f6 6a a4 bd d2 6a 05 3e
       0.19691224 0.12806197 -0.08028214 0.1302903
000020 df 1e 71 3e 7e 95 44 3d 6e 18 66 3d 31 1d dd 3b
       0.23546933 0.04799413 0.05617564 0.0067478647
000030 b8 c7 ea bd 48 64 b5 bc 94 a3 1f be d2 4c 8e 3c
       -0.114638746 -0.022142544 -0.15589744 0.017370615
000040 7c 61 0d 3d 2c 05 f2 bc d1 6d 92 bd 06 f8 f5 3c
       0.034516796 -0.029543482 -0.07149852 0.030025493
000050 f6 22 d8 3d 2e b4 51 3d a9 c4 cb bd ee 13 1b be
       0.10553543 0.051197223 -0.09949619 -0.15144321
000060 76 e3 06 3e cf a2 49 3e 52 a9 25 3e d6 7e 80 3d
       0.13172707 0.19691013 0.16177872 0.06274192
000070 93 c8 45 bd cb b2 41 3e b1 20 05 be 7a 8d 61 3c
       -0.048286986 0.1891586 -0.13000752 0.013766641

gain_net.gru.weight_ih f4 [96, 32]
000000 5c 15 b6 bd 96 bf 30 3d c6 de ac 3c 5e 59 0d 3e
       -0.08890793 0.04315146 0.02110232 0.13803622
000010 92 cc 6c 3e 0f 78 02 be 22 2d 04 be c0 0a 1d be
       0.23124912 -0.12741111 -0.12907842 -0.15336132
000020 b3 58 65 3d 9f a6 10 3e f4 9d 4c 3d 52 ce 9b bd
       0.055992793 0.14126061 0.049955323 -0.07607712
000030 d5 70 21 3d d4 9c 2c 3e bb 16 1f be 66 93 fd 3d
       0.039414246 0.168567 -0.15536015 0.1238163
000040 1c ff 46 3d 19 cd a2 3d a1 b8 9f 3c 2b 82 24 3e
       0.048583135 0.079492755 0.019497218 0.1606528
000050 88 a8 4f 3e 8d 6d 94 3d 6a fe 40 3d 2e 2c ab 3d
       0.20279133 0.07247458 0.04711763 0.08358036
000060 db f1 1c 3e 6b 7d 49 3d b0 9f 49 3e ff 9a 2d 3c
       0.15326636 0.049191874 0.19689822 0.010596036
000070 ce b6 ad bc 48 d0 3b 3e 40 e0 d8 bd af 8b ac bd
       -0.021205332 0.18341172 -0.10589647 -0.0842508
000080 a3 13 79 be 99 ab 68 be c3 5d cf 3c 7f be 5c be
       -0.24323897 -0.2272171 0.025313264 -0.21557043
000090 48 b9 89 be 41 65 8f be d8 dc fa bc 14 79 cc 3d
       -0.2689917 -0.28006938 -0.030622885 0.09984031
0000a0 d2 9e b3 3d 72 82 b2 be da e5 6e bd b1 f5 bd bc
       0.08770527 -0.34865147 -0.058324672 -0.023188444
0000b0 49 2f 07 be 7e a5 c8 bd f3 f5 0c 3e 9d 41 2f 3e
       -0.13201632 -0.0979719 0.13765697 0.17114873
0000c0 19 81 0b 3e d4 f5 1f be b1 7c cb 3d 8c ce 91 3d
       0.13623466 -0.1562112 0.099358924 0.07119474
0000d0 a4 ba 95 be 6e 99 3d 3e 50 66 8b 3d 9c 91 05 3d
       -0.29243958 0.1851556 0.06806624 0.032609567
0000e0 04 65 da bd ec 47 0a 3c 58 de 2c 3d 7f d4 fe bc
       -0.106637985 0.008439999 0.04220423 -0.031107185
0000f0 22 18 9e bb 5e 18 ae 3c 6a 50 97 bd 61 9f 1b be
       -0.004824654 0.021251854 -0.07388385 -0.15197517
000100 87 a4 29 3e 2a b8 f9 bd e8 ce 76 bc a5 f9 dd bd
       0.16566668 -0.1219333 -0.015063979 -0.108386315
000110 c8 46 56 3e 3c 5e 4d 3d 87 ba 1e be 2c 53 0b be
       0.20925438 0.050138697 -0.15500842 -0.13605946
000120 da 7d 7a bc 42 f2 0c bd 01 c6 5c 3d 04 af 32 be
       -0.015288794 -0.034410723 0.05389977 -0.17449576
000130 a2 cf 34 3e af c4 00 3e 50 af 33 3d 8e d8 10 3e
       0.1765733 0.12575029 0.043868363 0.14145109
000140 90 d1 e1 3c e8 66 05 3d 78 3a e4 bd bc a0 9e 3d
       0.027565747 0.032568842 -0.111439645 0.077455014
000150 a4 06 ac 3d b3 43 01 3e 55 64 a0 bd 16 cb 27 be
       0.08399704 0.12623481 -0.07831637 -0.16386065
000160 14 54 0f bc 49 cd 71 bd e2 11 09 bd 96 7a 0e 3e
       -0.008748073 -0.059033666 -0.03346432 0.1391395
000170 3e ff 36 bd a2 1a 0b 3e 45 1a ec 3d 17 4f 67 bc
       -0.04467701 0.13584378 0.11528448 -0.014117978
000180 b5 9a 97 3c 31 5e b6 3d c5 da c1 3d 08 eb d6 3d
       0.018506387 0.08904684 0.09465555 0.104940474
000190 55 6b ee bd 0c e5 51 bd f6 b2 c0 bd 73 e7 00 be
       -0.11641566 -0.051243827 -0.09409134 -0.12588291
0001a0 0f f4 e9 3b 7a 91 6b 3e cb 3a 9f 3c af 3d 32 3e
       0.0071396898 0.23004714 0.019437214 0.17406343
0001b0 83 5f 51 3d 99 62 ca bc 4e f7 c2 3d 53 62 86 3d
       0.051116478 -0.024705218 0.09519826 0.065617226
0001c0 de 1e f3 3d d8 7c ec bd c5 68 82 3d 77 08 53 3e
       0.11871122 -0.115472496 0.063676395 0.20608698
0001d0 60 c0 45 3e 8f 6c 7c 3d b3 a0 c0 bc dd 09 11 3e
       0.19311666 0.061626967 -0.023514127 0.14163919
0001e0 c1 bb f4 bd e2 8e b0 bd 84 8f 1a 3e d6 7a 2c 3e
       -0.11949874 -0.08621003 0.1509381 0.16843733
0001f0 4d 6c b3 bc 04 eb a9 3d 5c 4b 19 3e 7d 68 c6 3d
       -0.021902228 0.08296779 0.14970154 0.09687898
000200 9f 64 30 3e c6 e7 28 3c 95 99 07 3d 9d d6 34 3e
       0.17225884 0.010309165 0.03310545 0.17659993
000210 8e 80 df 3d fa 62 02 be ed 56 09 3e 5a 02 df bd
       0.10913192 -0.12733069 0.13412066 -0.108891204
000220 a1 2d 28 3e 7c e2 4d bc 21 2b dd 3d d5 1d 99 3b
       0.16423656 -0.012566205 0.10799242 0.0046727457
000230 27 e5 b6 bd e6 9b 3f 3e 30 63 82 3d 72 86 1a bd
       -0.08930426 0.18711814 0.06366575 -0.037725873
000240 f5 5b 0d 3e 1b f2 b1 3b 6a 2f 8c 3d 37 ef 9c bd
       0.1380461 0.0054304725 0.06844981 -0.07662814
000250 8e 31 9a bd 4c 34 a2 3d a6 ce c0 bd 24 c1 66 3d
       -0.07528983 0.07920131 -0.09414415 0.056336537
000260 b1 aa 66 3e 00 bf 6d 3e 68 e4 66 bd 35 ea ef bd
       0.22526051 0.23217392 -0.05637017 -0.11714593
000270 3d 86 22 bd b2 1c 6f be 52 83 95 3d 7d 69 02 be
       -0.0396788 -0.2335079 0.07300438 -0.12735553
000280 1c 12 b8 3d 74 9d 18 3e f6 8c 66 3e 48 fd 65 bd
       0.08987829 0.14903814 0.2251471 -0.05614975
000290 bd 37 b1 bc 2d 1a c4 ba 72 99 33 be b3 64 d6 3d
       -0.021633023 -0.0014961414 -0.17539003 0.104684256
0002a0 6d 54 44 3e 5f 56 68 3e 6e 8a 08 be dc 1e 91 3d
       0.19172831 0.22689198 -0.13334057 0.07085964
0002b0 56 0f 96 3d df ae a2 bd 49 c6 33 3e 77 6a bd 3d
       0.07327144 -0.0794351 0.17556109 0.09248822
0002c0 74 a4 0e bd 03 fa 2d 3e ca a9 39 3e a0 06 ac 3d
       -0.034824803 0.16989903 0.18131176 0.08399701
0002d0 19 39 0a 3b ed 81 eb bc 93 f2 40 3d c0 99 1c 3d
       0.0021091162 -0.028748477 0.047106337 0.038232565
0002e0 bc e7 95 bc 78 b5 25 3e 8e 7b a7 3c db ed 18 3e
       -0.018298976 0.16182506 0.020444658 0.14934485
0002f0 72 64 80 3c 26 02 47 3e 67 18 38 3d f5 5f 31 3c
       0.015672896 0.19434413 0.044945147 0.010826101
000300 f9 19 53 bc 8b 08 15 bb ce c1 38 3d d9 d1 ed 3d
       -0.01288461 -0.0022740688 0.0451067 0.11612291
000310 a6 00 7c 3b f0 e2 fa bd 40 e9 8b 3c 07 14 36 bd
       0.0038452535 -0.12250316 0.017078996 -0.044452693
000320 af a2 f3 3d e6 01 3d 3d ea dc 02 3e 86 dd 68 bd
       0.11896264 0.04614439 0.12779585 -0.056851886
000330 92 e5 43 3d 8f 4c 13 be 80 2b 3f 3d c8 d3 34 bd
       0.047826357 -0.14384674 0.046672344 -0.044147283
000340 b9 cc d6 bd a4 07 04 3e 9a a2 fb 3d 77 f8 3e be
       -0.104882665 0.1289354 0.12286873 -0.1864947
000350 36 a7 0d 3e 2f d6 35 be fe 73 e5 3d b9 f4 46 3d
       0.13833317 -0.17757486 0.112037644 0.04857323
000360 1d eb 01 3e 4f b3 3f be 1f 5a be bc c9 45 8a bc
       0.12687345 -0.18720745 -0.023236332 -0.01687898
000370 cf f1 15 3d 8d 3a 61 3e d6 14 dd 3d f4 38 ec bd
       0.03660756 0.21994992 0.1079499 -0.115343004
000380 1d 38 40 bd ab 9f 11 bd 88 f2 2e bd 2b 8a 3d 3e
       -0.046928514 -0.035552662 -0.042711765 0.18509738
000390 7f 7c 46 3e ad 83 d0 bc c2 4c fa 3d b2 d6 6b 3d
       0.19383429 -0.025453413 0.12221672 0.057577796
0003a0 0b 4e 18 bd 77 0c 5c 3e 3b f9 6c 3d 4a e9 03 be
       -0.037183803 0.2148913 0.057854872 -0.12881961
0003b0 3d 5c b3 bc 53 2e 62 3c f8 61 d9 bc 0e 02 34 bc
       -0.021894569 0.01380499 -0.026535973 -0.010986818
0003c0 f5 fb 34 be 96 46 5a 3e 4d 5f e6 3c 88 b2 15 3e
       -0.17674239 0.21315989 0.028121615 0.14618886
0003d0 8e 48 5d 3e a8 8e be 3d 2e 95 aa bd 82 95 f7 3d
       0.21609709 0.09304553 -0.08329235 0.12089063
0003e0 77 40 b8 bc 1e 49 de bd 5d 4d fc bd 14 e3 01 be
       -0.022491677 -0.1085379 -0.123194434 -0.1268428
0003f0 dd d5 78 3d 26 a5 00 3e a3 b4 24 3e 3c 6d 63 3d
       0.06075083 0.12562999 0.16084532 0.055524096

gain_net.gru.weight_hh f4 [96, 32]
000000 c7 b9 c2 3d 69 c8 43 3d 43 0c 7f 3d df c0 3e be
       0.095080905 0.047798548 0.062267553 -0.18628262
000010 32 a5 35 be 6e ce dc bc d7 f6 50 bd 11 cd 04 3e
       -0.17738798 -0.026953902 -0.051016655 0.12968852
000020 aa 3d 57 3d 75 10 af bd 18 a9 cf 3d cc cb 86 bd
       0.05254904 -0.08548061 0.10139674 -0.0658184
000030 a1 4d 59 3e de 10 5a 3e 98 b8 6b bc 0e 33 02 3e
       0.2122102 0.21295497 -0.014387272 0.12714788
000040 16 17 88 bc e1 cd b9 bd 94 4e 2b be 0c 5d f8 bd
       -0.01661257 -0.090724714 -0.16729194 -0.12127122
000050 7f 1d 68 be 16 90 09 3e 11 31 08 be 3f 03 fe bd
       -0.22667502 0.1343387 -0.13299967 -0.12402963
000060 51 4a 05 3e c6 18 1d be 75 ea 40 bd 41 bc be 3d
       0.1301663 -0.15341482 -0.047098596 0.0931325
000070 13 a3 17 be 1b 35 03 bd 66 a0 2a bd cf ca 84 bd
       -0.14808302 -0.032033067 -0.041656874 -0.06483995
000080 3b 0c 04 be ca f1 4c bd bc cf 4c be f0 6c 10 3e
       -0.1289529 -0.050035276 -0.2000112 0.14104056
000090 fe a2 84 bd 42 fb 41 3d fa 52 f9 3d 43 42 a2 3d
       -0.06476401 0.04735876 0.1217403 0.07922795
0000a0 c6 9d 00 3c 7a aa f2 bc a5 3f 01 3e 33 cb 4b 3e
       0.007850116 -0.029622305 0.12621935 0.19901733
0000b0 03 3c 31 3d 65 84 63 bd b6 6f 77 bd 44 2e a2 bd
       0.043270122 -0.055546183 -0.06040927 -0.07918981
0000c0 6c 0d 1e 3e bb 74 7f bb 3d 33 57 3e 41 7f c4 3d
       0.15434808 -0.003897949 0.2101564 0.09594584
0000d0 53 94 40 39 80 fc 04 be ba c2 0f bd 77 b4 b8 bc
       0.00018365802 -0.12986946 -0.035097815 -0.02254699
0000e0 04 f4 4d 3d fe 1b ea bd ed 33 b4 3d 06 6f fc 3c
       0.05028154 -0.1143112 0.087989666 0.030814659
0000f0 67 e5 bd bd 01 81 29 3c b6 42 32 be b6 55 00 bd
       -0.09272271 0.010345698 -0.1740826 -0.03133174
000100 9e cd 6c 3b e5 a5 df 3d c0 6e 27 3e 4f 87 0a 3e
       0.00361333 0.10920314 0.16350842 0.13528179
000110 22 fc 99 bd 3e 21 e2 bd b0 dd ad bd e4 4d 8c bb
       -0.07518794 -0.11041497 -0.08489549 -0.004281746
000120 e8 49 38 be ba 63 ba 3c 62 e3 45 3e 52 bc 44 bc
       -0.17996943 0.022752631 0.19325021 -0.01200779
000130 1c 45 36 3e 0a 58 98 3b 98 a1 73 3d 06 c1 ac bd
       0.177998 0.004649167 0.05948028 -0.08435254
000140 bd ba 0e be 29 f7 4a 3d ce 83 7a 3d 19 5c 7a 3d
       -0.13938423 0.049552117 0.061160855 0.061122987
000150 f6 be 38 3d ec 3d 9e 3d 10 38 04 bd 58 c2 d3 bb
       0.04510399 0.077266544 -0.032280028 -0.0064623766
000160 3e 67 8f 3d eb d2 48 be bd 5d 6b 3d 48 cb e4 bd
       0.07002114 -0.19611709 0.057462443 -0.11171585
000170 f8 a5 2c 3d 16 d0 64 bd cd ca c8 bd 9a 97 1e 3d
       0.042150468 -0.05586251 -0.09804306 0.038718797
000180 d9 59 8a bc ab 49 45 bd 5c d1 5e 3e f7 32 fe bd
       -0.016888546 -0.04816596 0.21759552 -0.124120645
000190 c4 db 81 3c a2 b9 e0 3d 13 c5 8a bd 02 1d 2b 3e
       0.015851863 0.10972907 -0.0677587 0.16710284
0001a0 c1 e4 72 3d 49 6a a0 3d 3e ea b1 3d e0 ac 72 bd
       0.059300188 0.07832772 0.08687256 -0.059246898
0001b0 91 ec e6 3d eb 66 ad 3c a5 ca dc 3d 72 c6 08 be
       0.1127559 0.02116724 0.10780839 -0.13356951
0001c0 55 94 e4 3d f8 2e 38 3d fa cf 59 be 19 56 93 3d
       0.111611046 0.044966668 -0.21270743 0.07194156
0001d0 85 4d 03 bd c3 12 3a bd 25 cf b6 bd d6 4f 0c bc
       -0.03205635 -0.04542805 -0.089262284 -0.008563956
0001e0 c4 2d 32 3e a7 6a e9 bd 09 00 f6 3d 22 56 ef bc
       0.1740027 -0.113972954 0.120117255 -0.029215876
0001f0 74 16 f1 3d 3a dd ca bd dc 67 f0 bd dd 6e 5d be
       0.11771861 -0.09905477 -0.117385596 -0.21624322
000200 70 e1 e6 3d e2 2d 6e 3e 36 83 24 3c 35 a6 98 3d
       0.112734675 0.2325969 0.010041049 0.074535765
000210 93 1c 34 3f d7 85 95 3d 4f 56 d5 bd c6 75 68 bd
       0.703561 0.073009185 -0.10416853 -0.056752943
000220 f5 6b 93 bc ea 25 2d 3d 45 dd e3 3d 57 95 06 bd
       -0.017995814 0.042272486 0.11126188 -0.032857265
000230 c9 9c 9e 3c a2 a5 14 3e df a5 8a be a2 4b 05 be
       0.01936187 0.14516309 -0.27079675 -0.13017133
000240 d3 6d 49 be dc 24 a0 3d 18 f5 e3 3d 0a 21 aa 3c
       -0.19670801 0.0781953 0.11130732 0.020767707
000250 d7 94 02 3e c8 d5 0f be 6a f9 2d be cb 20 66 3d
       0.1275209 -0.14046395 -0.16989675 0.056183618
000260 ff 84 57 bc eb 34 e8 bd f1 9f dc be 42 e8 8e bc
       -0.013154267 -0.11338218 -0.43090776 -0.017444734
000270 63 dc ac 3e 52 39 02 be 14 5b f5 bd 24 6e bf bd
       0.33761892 -0.12717178 -0.119802624 -0.093471795
000280 58 b4 56 be 01 4f 08 bd 54 b3 ae 3d a1 48 34 be
       -0.20967233 -0.03327847 0.08530298 -0.1760583
000290 87 72 e3 3c b7 f1 28 be f5 86 b5 bd cf 00 ce 3c
       0.027764572 -0.16498457 -0.08863632 0.02514687
0002a0 78 9e 52 bc e1 44 e4 bc 37 d8 05 bd 3e 97 05 bd
       -0.012855165 -0.027864875 -0.0326769 -0.03261494
0002b0 e4 4a 0e 3e a4 01 a4 3d bc 75 3f 3e d9 e5 3e 3d
       0.13895756 0.080081254 0.18697256 0.04660592
0002c0 2d d6 66 bd 67 c8 c4 3a cf 63 db 3d af 49 0f be
       -0.056356598 0.0015013338 0.10712396 -0.13992952
0002d0 99 b4 61 3d af eb 8c bd d0 37 dd bc ee 41 dd bc
       0.055103872 -0.068808906 -0.027004153 -0.027008977
0002e0 2f ed 86 bd 5e c6 80 3d e0 99 48 3d 24 0c c4 bc
       -0.06588208 0.062878355 0.04897487 -0.02393157
0002f0 3f 6a 83 bd 43 68 42 bd 92 42 4e 3e 08 c4 33 be
       -0.06416749 -0.047462713 0.20142582 -0.17555249
000300 91 2a ce 3d 03 bb 88 3d 45 15 22 be a4 86 a8 bd
       0.10066713 0.06676295 -0.15828426 -0.08228806
000310 40 03 16 be 72 fa 9e 3d ab 44 42 bd 79 f0 3b 3e
       -0.14649677 0.077626124 -0.047428768 0.18353452
000320 50 60 2b 3e 05 81 51 3d a1 54 9f 3d b2 2e fc 3c
       0.16735959 0.051148433 0.077798136 0.030783985
000330 f8 36 30 3d d8 cf 5b 3d 1c fe 2b 3e d4 4d 04 bc
       0.043021172 0.053665012 0.16796154 -0.008075196
000340 80 3f 6c bd 83 9d f5 3c cf 08 ca bc 74 89 2f be
       -0.057677746 0.029982334 -0.024662403 -0.17142278
000350 ba 13 06 3d ce 68 61 3d 71 5c bf bd 08 da c0 bd
       0.032733656 0.05503159 -0.09343804 -0.09416586
000360 22 a5 75 3d 1d cb d5 3c 5c 1f a8 bd 83 95 2e be
       0.059971936 0.026097829 -0.08209106 -0.17049222
000370 5e 69 f8 bd 4d 2d 14 be a2 0c b3 bc 68 6a b7 3d
       -0.12129472 -0.14470406 -0.02185661 0.08955842
000380 7b 64 f6 bd 5a 9d 25 3b 1d 57 9e bd 5a dc 97 bd
       -0.12030884 0.002527079 -0.07731459 -0.074150756
000390 bf 6d 62 be 4f 14 c6 3d da 70 be 3d b3 87 bb 3b
       -0.22112177 0.09671842 0.092988685 0.0057229637
0003a0 c9 6c 7c 3d f3 d4 c1 3d 30 80 18 3e ea a5 fd 3d
       0.061627183 0.09464445 0.1489265 0.12385161
0003b0 3b cf d2 3d 35 f3 2d 3e 69 8a 16 bd 79 c0 a6 bd
       0.10293432 0.16987307 -0.036753092 -0.0814218
0003c0 f3 10 04 be 62 50 95 3d d2 b7 ce bd ed 80 92 3d
       -0.1289709 0.072907224 -0.10093655 0.07153497
0003d0 9c 6f 1a bd 7c de 1c 3e dc 9f 1c be 7b b6 2f 3e
       -0.037704095 0.15319246 -0.15295357 0.17159455
0003e0 2a 71 7e 3d e3 48 ff 3d e3 5d 46 3e 96 2e 4b be
       0.06211964 0.12465074 0.19371752 -0.1984199
0003f0 a5 d8 3f bd c4 fe a2 3d 2f c6 54 3e 2a ef 09 be
       -0.046837468 0.07958749 0.20778726 -0.1347014

gain_net.gru.bias_ih f4 [96]
000000 9b d5 fb bd 43 27 ad bd ec c7 9c bd aa 05 1f 3e
       -0.122966014 -0.08454754 -0.076553196 0.15529504
000010 cd ef 4c 3e 4b 02 fe bb 56 48 bd 3b 2b fa 0c be
       0.20013352 -0.007751738 0.0057764454 -0.13767307
000020 5e bc 1c 3e a8 5c 8b bc b5 a3 c0 bd 98 03 7c bc
       0.15306231 -0.017011955 -0.09406225 -0.015381716
000030 2a a6 65 3e 76 7e 2b 3d a4 49 cb 3d 14 59 e4 bd
       0.22426668 0.04186865 0.09926155 -0.11149803
000040 ad fc 91 3d d1 92 4a 3e d6 bf 2c 3d 14 eb bc bd
       0.07128272 0.19782569 0.042175137 -0.09224525
000050 af 63 17 3e 71 5a 5c 3e 26 6e 18 3e ec c4 31 3e
       0.1478412 0.21518876 0.14885768 0.17360276
000060 fc ed 50 3e 90 ab 95 bd be ee 56 3e e9 61 bf bd
       0.20403284 -0.073081136 0.2098951 -0.09344847
000070 25 0f 69 bd 4c 9b 24 3e d2 56 32 3e c0 3d 6e 3d
       -0.05689921 0.16074866 0.17415932 0.05816436
000080 26 6d 88 3d 38 4e 9a 3d c6 0d 5c be 85 43 c0 bc
       0.066614434 0.0753445 -0.21489629 -0.023469696
000090 93 4f 6c be 80 c7 81 be 5f 93 af bd 63 01 34 3c
       -0.2307723 -0.2534752 -0.08573031 0.010986659
0000a0 26 cc 12 be c9 4c 2b be 87 cb 46 be 49 5d 48 bd
       -0.14335689 -0.1672851 -0.19413577 -0.04891709
0000b0 98 a0 5a be 0a 6b fa bd e6 60 5e 3d a3 d0 2f be
       -0.21350324 -0.12227447 0.05429163 -0.17169432
0000c0 4f 28 1f be 50 e0 b5 bc 8e e1 62 3d 84 e8 3f bd
       -0.1554272 -0.022201687 0.055390887 -0.046852604
0000d0 74 e6 c8 bd 55 5c 6b bc ad bf 8b be e8 28 87 be
       -0.098095804 -0.014365275 -0.27294675 -0.26398396
0000e0 f9 e4 fb bd ec f1 21 bc be 69 2b bd ce 15 5b be
       -0.122995324 -0.009884339 -0.04184889 -0.21395037
0000f0 d8 82 14 be 2b 36 81 be 3e d6 84 bd 58 8a 5a be
       -0.14503038 -0.2523664 -0.06486176 -0.21341836
000100 13 a7 6d bd 62 33 b6 bd f0 3c 5c 3c fb 76 db 3c
       -0.058020663 -0.08896519 0.013442263 0.026790133
000110 de f8 08 3e 30 4c 29 be 72 bc a4 bd 37 6e 5c bb
       0.13376185 -0.1653297 -0.080437556 -0.003363503
000120 f4 9b 5a 3d 02 7c 74 3e 93 55 0a 3e 8e f9 dc 3a
       0.053371385 0.2387543 0.13509206 0.0016859041
000130 d5 f1 a6 bd 05 a4 63 3e b6 82 2e 3e b5 97 47 bd
       -0.081515945 0.22230537 0.1704205 -0.048728663
000140 18 70 5b bd 43 00 43 bd 6f 7d 5f bc bb 75 ef 3c
       -0.053573698 -0.04760767 -0.013640746 0.029230943
000150 84 95 0e 3d 97 89 b1 bd fb 27 6f be 22 33 19 3d
       0.034810558 -0.08668821 -0.23355095 0.03740228
000160 6c d3 3c 3e 5d bf a5 bc 76 ff 91 bc 08 39 11 be
       0.18440026 -0.02023285 -0.017822009 -0.14181912
000170 7f 46 1c 3e 9d c0 35 be ef 0c 48 bc 4a 6c 49 be
       0.15261267 -0.17749257 -0.012210115 -0.19670215

gain_net.gru.bias_hh f4 [96]
000000 7e c4 a7 3c 0a e0 06 3d 8a 18 94 3d 20 58 db bd
       0.020479437 0.032928504 0.07231243 -0.10710168
000010 9e 5f 25 3e 8a f7 81 bd f9 b2 44 3d ad 95 38 3d
       0.16149756 -0.063460425 0.048022244 0.045064617
000020 bc 90 30 bd 7e 38 7d bc dd 2b 87 3d a6 5b 93 bc
       -0.04310678 -0.015455363 0.06600163 -0.017988037
000030 3e 12 e6 3c 5c 3d 64 bd bc 43 a9 bd 1e cf 1c be
       0.02808487 -0.05572258 -0.082648724 -0.15313384
000040 e6 52 07 bd 4c 90 ce 3d 07 ef 0a 3d be 48 3d 3d
       -0.033038042 0.10086116 0.03391936 0.04621195
000050 31 b7 04 3e 00 5f 19 3e 35 cd 28 3e db 88 b4 3d
       0.12960507 0.14977646 0.1648453 0.088151656
000060 bb 96 02 3e cd e5 4a bd 4e 5c 57 3e be 0d 0f 3e
       0.12752812 -0.04953556 0.21031305 0.13970086
000070 55 47 d3 bd da bf 56 bd 08 a2 03 bd 66 8a 9d bd
       -0.1031634 -0.052429058 -0.032136947 -0.07692413
000080 aa 05 59 bc 99 0d e6 3d 4a 37 da 3c 48 36 d7 bd
       -0.013245979 0.11233062 0.026637692 -0.105084
000090 b6 54 47 be 19 59 4b bd b1 96 7a be 96 77 2d be
       -0.19465908 -0.049645517 -0.24471547 -0.1694015
0000a0 60 8b 57 bd d9 d0 e7 bd 8e 5e 8e bb 71 31 cd bd
       -0.052623153 -0.113191314 -0.004344768 -0.10019196
0000b0 ff 1e 2c 3d 8f 9c 03 be bc 75 c2 3d 58 89 cd ba
       0.042021748 -0.12852691 0.09495112 -0.001568119
0000c0 5c 65 b4 bd 2d 66 9e bd be 6f e2 3b 94 43 e2 bd
       -0.08808395 -0.07734332 0.0069102934 -0.11048046
0000d0 9e 9a 60 bd 2a 6f 40 3c bf 47 38 be aa fe 7b bd
       -0.054834954 0.011745254 -0.17996119 -0.061522163
0000e0 3f 1e 9d 3d c7 51 0e 3d a1 4e c7 bc 47 ea 6b bd
       0.076717846 0.034745958 -0.024329485 -0.05759647
0000f0 22 bf 0d 3a e5 37 2c be f7 db 68 be f4 50 ad bd
       0.0005407204 -0.16818197 -0.2274016 -0.08462706
000100 eb e2 9a 3d 0d 1e ff bd f1 d9 1e 3d 81 25 b6 3d
       0.075628124 -0.124569036 0.038782064 0.08893872
000110 7b f1 d8 3b df 85 33 be f7 66 38 3d 6f fd 1c bc
       0.0066205836 -0.17531537 0.04502007 -0.009581908
000120 f7 8d 41 3d 8d 5e 84 3e 39 fa 9a 3d 8c 9c 2e 3c
       0.04725453 0.25853387 0.075672574 0.010657441
000130 9e bc 59 3e 47 1a 22 3e f7 9d 04 3e 5d c3 a7 3d
       0.21263358 0.15830337 0.12950884 0.081915595
000140 f4 2d 0b be 03 ca 20 3d 43 e6 d0 bd 69 55 0c be
       -0.13591748 0.039255153 -0.10200169 -0.13704456
000150 5a b9 46 be 07 a7 ff 3c f9 97 2c 3d d2 df 69 3d
       -0.19406644 0.031207575 0.04213712 0.057098217
000160 a0 31 64 3e f3 f8 88 3d 67 b9 de bb e5 e0 7a 3d
       0.22284555 0.06688108 -0.006797004 0.061249632
000170 fe af 80 3c e1 c6 d2 3d 29 28 b3 3d 46 db 64 be
       0.01570892 0.102918394 0.08747894 -0.22349271

gain_net.trunk.0.weight f4 [32, 32]
000000 e2 7b fc 3d c6 6e ed bd 54 25 40 bd f6 88 e7 bd
       0.12328316 -0.11593394 -0.0469106 -0.1130542
000010 f7 8e 06 be c4 25 12 bd 0b 46 e0 bd a0 a4 ef bb
       -0.13140474 -0.035680547 -0.1095086 -0.007313326
000020 c2 70 aa 3d b8 4e 33 be cc 67 d3 bd 23 1d e5 bd
       0.08322288 -0.17510498 -0.10322532 -0.11187198
000030 f3 86 12 3e 83 c5 a7 bd 06 37 ca 3d 00 d3 91 bc
       0.14309292 -0.08191969 0.09873776 -0.017800808
000040 c6 1a bc 3d b4 e8 4d bd 00 e6 df 3c ec 30 1f 3d
       0.09184794 -0.05027075 0.027331352 0.038865015
000050 ce 07 fa bd 8b 9d 03 be bb 17 2c 3e d7 bc e8 bd
       -0.1220852 -0.12853067 0.16805927 -0.11364143
000060 3e 73 c5 3d 80 82 51 3c 43 5e a9 bd 02 6b ca 3d
       0.09641121 0.012787461 -0.08269932 0.09883691
000070 a4 bd 82 bd f7 ae 16 3e 75 22 87 bd b0 6f 44 3d
       -0.06383827 0.14715181 -0.06598369 0.047958076
000080 e9 40 aa bc 92 a1 94 be 41 07 2f 3e e4 52 05 be
       -0.020782905 -0.29029518 0.17092611 -0.13019902
000090 b3 8f 54 be 70 1b 71 be 75 e6 d5 bd 1e 0a d9 3d
       -0.20757942 -0.23545623 -0.10444347 0.10597633
0000a0 bf f3 24 be 5c ae 8f 3e 0a 17 78 3e 36 ac 29 3d
       -0.16108607 0.28062713 0.24227539 0.041424
0000b0 5d 1e 96 3e 5a 59 db 3d c7 bc 72 3d bb 57 2d 3e
       0.2932004 0.10710402 0.059262063 0.16927998
0000c0 b4 dd 71 be 15 2d 69 bc 70 24 18 be 1f a6 2b be
       -0.2361973 -0.01423194 -0.1485765 -0.16762589
0000d0 84 00 96 be 2a e1 47 3e 28 a6 f8 bd 26 2d 9f 3e
       -0.29297268 0.19519487 -0.12141067 0.31089133
0000e0 26 d3 07 3d 80 b1 32 3a 58 75 90 3e 7b 91 3d be
       0.03316035 0.00068166107 0.28214526 -0.18512528
0000f0 b5 56 8e bd 8b d6 8e be 3d 17 8a 3d 93 39 45 be
       -0.06950132 -0.27898058 0.067427136 -0.19260244
000100 c4 33 7b be 02 a8 7f 3e 8c 2b 0a 3e e9 c1 e4 bd
       -0.24531466 0.24966434 0.13493174 -0.11169798
000110 f1 26 09 3f 15 69 15 be c5 da 63 bd 40 61 92 3e
       0.53575045 -0.14590867 -0.055628557 0.2858982
000120 9e 6f 84 be ee f6 9e bd 4a 7d b3 3d ff b2 1d be
       -0.25866407 -0.07761942 0.08764131 -0.15400313
000130 89 c7 5e 3e df f3 b0 3d e6 82 b1 be 90 cf 98 be
       0.21755804 0.08640265 -0.3467018 -0.29845858
000140 48 9a 72 bd 22 26 5e 3e 72 5f 63 be 40 ef 2c bd
       -0.059229165 0.21694234 -0.22204378 -0.042220354
000150 5d 9c 8e 3d c3 a1 a5 be 99 11 84 be 79 fe b0 bb
       0.06963418 -0.32349977 -0.25794676 -0.0054014293
000160 49 06 61 3e 1e ce db bd db 1a 12 bf 21 c7 6d bd
       0.21975054 -0.10732673 -0.5707223 -0.058051232
000170 59 eb 59 3e 87 fe 72 3d 6b 61 e5 be 28 02 5f be
       0.21281184 0.059324767 -0.44800887 -0.21778166
000180 e7 3c 37 be e9 58 13 be cd f8 f8 bc f9 ca 2d bd
       -0.17894326 -0.14389385 -0.030392075 -0.042429898
000190 77 7f b4 be 4f a2 d0 bd fd 2a 9b be 7e af 77 3e
       -0.35253498 -0.10187208 -0.30306235 0.24188039
0001a0 de 3a 97 bd bd 09 a1 3c a0 01 d0 3d c3 da 8d be
       -0.07384275 0.019657964 0.1015656 -0.27705964
0001b0 b4 84 2e 3e b0 d8 8a 3e b7 13 2b be 34 24 4c 3e
       0.1704281 0.27118444 -0.1670674 0.19935685
0001c0 e4 1b 7c 3c ed d4 9e be 57 f5 93 be d2 c4 df bc
       0.015387509 -0.31021824 -0.28898117 -0.02731553
0001d0 12 1d 80 be 16 d3 cd bb 81 8a 99 be eb 58 92 3e
       -0.2502218 -0.006281267 -0.29988483 0.28583464
0001e0 ee 5c 7f 3d 65 c2 54 be 7a 65 0f 3c fe c2 28 be
       0.062344484 -0.2077728 0.008752221 -0.16480634
0001f0 21 ae a8 3d ff 63 71 be 88 7e 39 3e 51 d3 c9 bd
       0.082363375 -0.23573302 0.18114674 -0.098547585
000200 06 d1 09 be 00 94 85 bd 8e 93 40 3e b0 c2 5e be
       -0.13458642 -0.065223694 0.18806288 -0.21753955
000210 7f 11 db 3d 49 e7 5a be a4 13 86 be b1 23 61 3e
       0.106966965 -0.21377291 -0.2618686 0.21986271
000220 23 d7 38 bc 5c 19 b6 bc 82 39 a0 3e 96 10 99 be
       -0.011281761 -0.02222889 0.31293875 -0.29895467
000230 8a 59 04 bc cb df 6f 3e bc 23 bc bd 08 9c 96 3e
       -0.008077988 0.23425214 -0.09186503 0.29415917
000240 b2 47 87 be fe 5b 76 3c cf 95 32 be 5e cf 0a 3d
       -0.26421887 0.015036581 -0.1743996 0.033889167
000250 62 97 7d be 8d 37 a4 3e 45 24 6b be e2 b4 d0 3d
       -0.24764779 0.32073632 -0.22963054 0.10190751
000260 5c f5 1d 3e f2 d3 2d bc 46 9e 99 3c 54 98 fc bd
       0.15425628 -0.010609614 0.018752228 -0.12333742
000270 22 7c 61 be f0 b9 3a be c2 ae 5a 3e 22 2c a9 bd
       -0.22020009 -0.18234992 0.21355727 -0.08260371
000280 51 36 56 be 68 a8 91 3e 24 e0 b8 bc d9 89 58 be
       -0.20919158 0.28448796 -0.022567816 -0.21146335
000290 06 40 65 3e c6 41 a4 bd 84 0a 3f be a0 7f 4e 3e
       0.22387704 -0.08020358 -0.18656355 0.20165873
0002a0 5b b7 70 3d 84 27 b4 3d 45 ce 9c 3d 55 6d a4 bc
       0.05876861 0.087965995 0.0765653 -0.020071665
0002b0 fb b5 51 3e 4e 73 90 3e 7c 0e 46 be 9e da d3 bd
       0.20479576 0.2821297 -0.19341463 -0.10344432
0002c0 a8 e6 0e be d1 10 1a 3e 06 8e a3 bd 67 92 2a be
       -0.13955176 0.15045477 -0.07986073 -0.1665741
0002d0 2f 0b 7a be f3 79 40 be 15 12 39 3d 50 fb 87 3d
       -0.24418329 -0.1879652 0.04518326 0.06639731
0002e0 5f 45 6e 3e bf 54 05 3d 86 09 80 be c2 4d 8a bd
       0.2326865 0.032551523 -0.25007266 -0.067531124
0002f0 49 01 6c 3e 0d a7 8e be a4 6f ba be c5 97 75 be
       0.23047365 -0.27861825 -0.364133 -0.23983677
000300 f3 ca 89 be 0c 70 6e 3d b1 d0 b1 bc c1 6b 26 bd
       -0.2691265 0.058212325 -0.021705957 -0.040630106
000310 a2 20 d0 be 76 8b 77 be 71 13 08 bd c9 ca 45 3e
       -0.40649897 -0.24174294 -0.033221666 0.19315638
000320 e9 6b df bd 0d 36 05 bd 56 c7 9e 3d be cf 8b bd
       -0.10909254 -0.03252225 0.07752864 -0.06826733
000330 bf 84 85 3e 08 c9 28 bc 8f 8e 30 3e e2 a6 a6 3d
       0.2607784 -0.010301836 0.17241882 0.08137299
000340 b6 be 44 bd d8 8a b5 be a5 9f d2 bd 02 6e 90 bc
       -0.04803344 -0.35457492 -0.10284356 -0.01763058
000350 ce 12 c6 bd 45 35 ba 3d 37 22 44 be 6a 5b d1 3c
       -0.096715555 0.090921916 -0.19153677 0.025556285
000360 28 d7 3c 3e 79 ee 8e be 83 4b 89 3e 53 19 85 be
       0.1844145 -0.27916315 0.26815423 -0.25995883
000370 4c 5b 80 bd ed 80 32 be 62 9c 42 3e b3 c7 40 be
       -0.062674135 -0.17431994 0.19004968 -0.18826179
000380 b3 1c a1 bd c2 9f e4 3d ca 6e da bd 55 17 0c 3e
       -0.07866802 0.11163284 -0.106656626 0.13680775
000390 d8 14 e6 3c 45 a8 20 be 7b 2a 28 3e b6 fb 0c be
       0.028086111 -0.1568919 0.16422455 -0.13767895
0003a0 9c d7 83 3d 28 84 13 3d 00 30 d2 3a 32 c8 e0 3d
       0.064376086 0.036014706 0.0016036034 0.10975684
0003b0 5e e2 fa 3d 02 a1 aa 3d 56 4b 05 be 4a e2 00 be
       0.12250207 0.08331491 -0.1301702 -0.12586322
0003c0 5e 04 8a 3d 3a 9a df bd 3e 6f df 3d 02 27 a2 3d
       0.06739114 -0.10918088 0.1090989 0.079175964
0003d0 ee 1d 77 bd 1c 64 0d bd 7d 97 15 3e e6 88 f2 3d
       -0.060331278 -0.0345193 0.1460857 0.118425176
0003e0 b5 0b f7 bd 13 9d b3 bd e5 d4 06 3e 58 53 c2 bc
       -0.1206278 -0.08770194 0.1316715 -0.023721382
0003f0 ac 08 36 3d fb ad 0b be 4c 8e 07 bd 19 b1 25 3e
       0.044441864 -0.13640587 -0.03309469 0.16180839

gain_net.trunk.0.bias f4 [32]
000000 a4 b6 6e bd 84 b6 dd 3d c0 3b 95 3d be 23 00 3e
       -0.05827965 0.10825828 0.07286787 0.12513635
000010 85 7c 6a 3e 4f 34 b3 bb 39 0b d3 3d 95 cc d1 bd
       0.22899063 -0.005468882 0.10304875 -0.10244099
000020 8d 24 f8 3d aa 3f 21 3e 21 58 33 3e fe 14 e3 3d
       0.121163465 0.15746942 0.17514087 0.11087988
000030 a5 8c ed bd 8c 96 e1 3d ce b0 52 3e a9 c1 9e 3e
       -0.115990914 0.11015043 0.20575258 0.31007126
000040 61 16 15 3e 42 aa 8a bc 0f cf 44 3e 21 5d 85 3c
       0.14559318 -0.016926888 0.19219612 0.016279759
000050 e5 76 80 bd ab ae ce bd 2d b9 82 3c 9e ab e1 bc
       -0.06272677 -0.10091909 0.01595744 -0.027547654
000060 23 49 9e 3e a9 8f d8 bd 27 14 f2 3c fb 47 94 3e
       0.30915174 -0.10574276 0.029550625 0.28961167
000070 33 46 db bd c5 15 0c 3e 18 71 fd bc 5f b8 29 be
       -0.10706749 0.1368018 -0.030937716 -0.16574238
