results/run1/model_best.pt (torch, 50229 bytes, 22 tensors)

Q f4 [4, 4]
00000000: acc5 2737 0000 0000 0000 0000 0000 0000
00000010: 0000 0000 17b7 d138 0000 0000 0000 0000
00000020: 0000 0000 0000 0000 bd37 8635 0000 0000
00000030: 0000 0000 0000 0000 0000 0000 bd37 8635
1e-05 0.0 0.0 0.0 0.0 1e-04 0.0 0.0
0.0 0.0 1e-06 0.0 0.0 0.0 0.0 1e-06

R f4 [2, 2]
00000000: 0ad7 233b 0000 0000 0000 0000 0ad7 233b
0.0025 0.0 0.0 0.0025

wm f4 [9]
00000000: 0000 10bf 0000 483e 0000 483e 0000 483e
00000010: 0000 483e 0000 483e 0000 483e 0000 483e
00000020: 0000 483e
-0.5625 0.1953125 0.1953125 0.1953125 0.1953125 0.1953125 0.1953125 0.1953125
0.1953125

wc f4 [9]
00000000: 7b14 e63f 0000 483e 0000 483e 0000 483e
00000010: 0000 483e 0000 483e 0000 483e 0000 483e
00000020: 0000 483e
1.7975 0.1953125 0.1953125 0.1953125 0.1953125 0.1953125 0.1953125 0.1953125
0.1953125

gain_net.ln.weight f4 [20]
00000000: 54c4 913f da0f a33f 8b9f 883f 5ced 893f
00000010: d1a5 903f d99a 8a3f 5d6c 8d3f c193 923f
00000020: 14d8 853f 549d 893f dc2c 9b3f 8777 a13f
00000030: f17a 883f 848a 883f ad80 8f3f 99da 8b3f
00000040: b1bc 833f 8071 a23f d525 833f ae05 a53f
1.138804 1.2739213 1.0673689 1.0775561 1.1300603 1.0828506 1.1048695 1.1451341
1.0456567 1.0751138 1.2123065 1.2614602 1.0662519 1.0667272 1.1211144 1.0926086
1.0291959 1.2690887 1.024592 1.2892358

gain_net.ln.bias f4 [20]
00000000: 31ac 5abc 2f7a 7e3d 007a 823d 8068 54bd
00000010: db86 6b3d 8b29 1b3d 06d0 2f3d 7646 0a3d
00000020: f5ac b8bc cb1c a9bc 6b46 e5bc a723 ccbc
00000030: 8d2f f0bb c2f4 27bd c1ea 063d 7575 0bbd
00000040: 4552 cfbd b783 14bd 5476 043d 1fc1 a53c
-0.013346718 0.062128242 0.06370926 -0.05185747 0.057501655 0.037881415 0.042922996 0.033758603
-0.02254341 -0.020643612 -0.02798768 -0.024919344 -0.0073298872 -0.041004904 0.032938723 -0.034047563
-0.101231135 -0.036258426 0.03233941 0.020233689

gain_net.enc.0.weight f4 [32, 20]
00000000: a9ef 0c3e 99e2 72bd f9d9 663e c01d f93c
00000010: 53a3 6ebe afc8 e33d ecdc b23d 59ea 7cbe
00000020: fd7e 313e 7305 1dbe 11a3 96be 91c6 a1be
00000030: b94e b0bc 46e5 a3bd 5024 e43d ff97 bb3d
00000040: 8b54 e6bd 0961 d33c 5bcf e83d 4b1c 31bd
00000050: dabe 37be e596 13bd f8af 3f3d ff32 06be
00000060: 3e89 dabd 3ce0 093e 52c3 18bd 3769 103e
00000070: fb31 01bd 8fe6 ab3d 0a8d 1abe 1e42 fcbc
00000080: c4cd 68be 0a82 253e c73e a5bd caf1 2d3d
00000090: 6994 70be 199a 0bbe a8b3 66be 70e1 dbbd
000000a0: bd66 1fbe ae8b 343e fbba 82bd 76dc 853d
000000b0: 44cd 17be b759 933c 917c 49be 72ac a63d
000000c0: 2b56 f13c 39a1 d53d f37e 24bc b2d1 df3d
000000d0: 14c0 a43d 6bc4 643d 5488 e23d 39be 0f3e
000000e0: 5092 403e 2aa2 123c a0d0 123e 1299 27be
000000f0: b01b 443e fe77 123e 6e1b 1bbe 5fe6 ebbc
00000100: 3015 95bd ab78 cdbd 00f4 65be 7278 41be
00000110: 6b82 ca3c 5840 a53d d673 123e 897e 23be
00000120: d6ab 163e 74f6 0dbd 4254 08be b2ad 313c
00000130: 7651 953c 9b11 123e 07f6 b53d 29ec 583e
00000140: c89a 0c3e 5379 44be 7459 2fbe 5890 9abd
00000150: 76b3 1bbe 202d 873b 6f2f 5ebe 9c4b c1bd
00000160: 5014 623d 3e01 52be b0f1 1cbc 4be5 59be
00000170: c1ca e5bd dcc6 4ebd 5463 5fbd 289c b83d
00000180: 649d 11be 304b e4bd d017 9c3c 6037 27be
00000190: f03c 26be b800 073f ce2f 223e ab56 21bd
000001a0: a7d1 e2bc 9ae0 a2bd c17a 80be 16b0 103e
000001b0: 58f7 7cbe 1c43 54bd d9b4 053d 29a0 85be
000001c0: 6159 ddbd 0712 b6bd 99d8 33bc f9fe 2dbe
000001d0: 3323 57be 3cc3 1bbd cfbf c6bd 747b aebe
000001e0: 2f31 f1bc 44a5 083e ba3d adbc 0b12 8cbe
000001f0: f700 5e3e bf54 a43e cb07 223e 4a65 69bd
00000200: 1a61 83bd fe0e ddbd a4dc 0cbe 8771 b13d
00000210: def6 673e 8427 3f3e 6563 ff3d 57a1 b7bd
00000220: 4637 12be 1dec a43e c466 183e 4f0f 1dbe
00000230: ac57 64be 4ce3 f93d 56b8 84bd d810 273d
00000240: 487a 2ebe a2ae a4bd 48b5 42be 0053 b13d
00000250: 4070 af3d 0052 693a a42c 46bd 3222 303e
00000260: 7ca7 293e 68eb 5bbe 2d66 e7bd 904e d93d
00000270: fe3a 5e3e 2089 14bc 000c 5239 fdae fdbd
00000280: 2ce2 8a3e 1f88 6e3c 501d a5bd ca14 e2bd
00000290: 2b70 95bd 7818 483e fb72 9c3d b4de 343e
000002a0: 478a 84be 1164 01be c9ce cfbd 09f4 4cbe
000002b0: 4785 edbd 5dc8 af3d 49ab e43b fb4b 96bd
000002c0: 198d b03d 6ebb 9e3e 1c05 0e3d 57a3 72be
000002d0: b240 19bc 2637 9c3e 01ee a5bb 2e18 8dbd
000002e0: a91e 713e 24dd 32bd 4263 2f3e 7f07 1cbc
000002f0: c979 0abe cd04 16be d48c bfbc 71b3 babd
00000300: f593 423e 373b ba3d 389d 823e 1485 033e
00000310: ec36 173e f1fd ec3d 7a1e de3c dc3b b9be
00000320: bc64 f23d 096d c33e 9308 ce3d d6d5 2a3e
00000330: 368f 99bd ba22 863c 813c 3d3e 6347 77be
00000340: a2af 3a3a 749c 803a d728 9bbe 9aa9 9abd
00000350: 1dec ec3d 203a 6c3d fd80 2e3d 32af 413e
00000360: 8c79 7cbd c890 793e a014 9cba bf6c 06be
00000370: 83cc 38be 343d b53d 8d4d 02be dc18 ac3d
00000380: 8772 51be 1c1d 3dbd b249 273e 48e9 49be
00000390: 8812 1dbe 004b f83c 4ebb 19be 44db a73d
000003a0: 3c19 0cbe 2e06 31be aaa7 c5bd 5819 d93d
000003b0: a892 75bd 36df 4f3e 681d b63d 406b 273e
000003c0: 5515 793e f702 52bd 7d4a 75bd e9ce 89be
000003d0: 164e 4e3e 8abd 803e dce0 a03d 2774 b83e
000003e0: d0bf 08bd 3c9d a1be 618d 603d 862e febc
000003f0: 804c debc 11c6 2d3e e2b1 363e 9d5c cd3d
0.13763298 -0.05929813 0.22544087 0.030409694 -0.23304491 0.11122262 0.08733544 -0.24698772
0.17333598 -0.1533411 -0.29421285 -0.31596807 -0.021521913 -0.08002715 0.111397386 0.0915985
-0.11246594 0.025803106 0.11367675 -0.043239873 -0.17943898 -0.036032576 0.046798676 -0.13105391
-0.10670708 0.13464445 -0.037295647 0.14102636 -0.031541806 0.08393585 -0.15092865 -0.030793246
-0.22734743 0.16162887 -0.080686145 0.042466916 -0.23494114 -0.13633002 -0.22529471 -0.10736358
-0.15566535 0.17631409 -0.0638332 0.0653619 -0.14824396 0.017987115 -0.19676425 0.0813836
0.029460033 0.104311414 -0.010040033 0.10928668 0.080444485 0.05585138 0.11061159 0.14037408
0.18805814 0.008949796 0.14337397 -0.16366985 0.19151187 0.14303586 -0.15147182 -0.028796373
-0.07279432 -0.10032781 -0.2245636 -0.18893602 0.024720391 0.08068913 0.14302 -0.15966238
0.14713988 -0.034658864 -0.13313392 0.010844635 0.01822732 0.14264528 0.088848166 0.21183838
0.1373092 -0.19186907 -0.17123967 -0.07547063 -0.15205178 0.0041252524 -0.21697782 -0.094382495
0.055195153 -0.20508286 -0.009579107 -0.21278875 -0.11220313 -0.050482616 -0.054538086 0.090141594
-0.14220196 -0.111471534 0.019054323 -0.16329718 -0.16234183 0.5273547 0.15838549 -0.039389294
-0.02768786 -0.079529956 -0.25093654 0.14129671 -0.24703729 -0.051821813 0.032643173 -0.26098755
-0.10808063 -0.08890157 -0.010976934 -0.16991796 -0.21009521 -0.038027987 -0.09704553 -0.34078562
-0.029442398 0.13344294 -0.021147598 -0.27357516 0.21680056 0.32095906 0.15823285 -0.056981362
-0.06415005 -0.10793875 -0.13756043 0.08664232 0.22652766 0.18667418 0.1247013 -0.0896632
-0.14278898 0.3221139 0.14882952 -0.15337871 -0.22299069 0.122015566 -0.06480472 0.040787548
-0.17038834 -0.08041121 -0.19014466 0.08658409 0.08566332 0.00089004636 -0.048382416 0.17200544
0.16567796 -0.21476519 -0.11298785 0.10610688 0.21702191 -0.009065896 0.00020031631 -0.12386892
0.2712568 0.014558821 -0.080622315 -0.110391214 -0.07296785 0.19540584 0.07639118 0.1766308
-0.25886747 -0.12635829 -0.10146863 -0.20014967 -0.11597686 0.08583138 0.0069784266 -0.07338711
0.08620662 0.31002373 0.03467284 -0.23695122 -0.0093538035 0.30510825 -0.0050637727 -0.068893775
0.23546852 -0.043667927 0.17127708 -0.009523272 -0.1352302 -0.14650269 -0.023382582 -0.09116257
0.19001754 0.090933256 0.25510573 0.12843734 0.14767045 0.11571873 0.027114142 -0.36178482
0.1183562 0.38169125 0.10060229 0.16683134 -0.074980184 0.01637398 0.18480112 -0.24148326
0.0007121508 0.0009812252 -0.30304596 -0.0755188 0.115684725 0.05767262 0.04260348 0.18914488
-0.061639354 0.24371636 -0.0011908002 -0.13127421 -0.18046765 0.08849564 -0.12724896 0.08403179
-0.20453845 -0.04617034 0.16336706 -0.19717896 -0.153391 0.0303092 -0.15012857 0.081961185
-0.13681501 -0.17287514 -0.0965112 0.10600537 -0.059954315 0.20299992 0.088923275 0.16349506
0.24324544 -0.05127236 -0.05988549 -0.26915672 0.20146975 0.25144607 0.078553885 0.36026117
-0.03338605 -0.31565273 0.05482233 -0.031028043 -0.027136087 0.16970088 0.17841294 0.1002743

gain_net.enc.0.bias f4 [32]
00000000: d6eb c8bb b5a9 82bd 5248 3b3e d6c2 e0bd
00000010: fab1 12be 63b8 883d 2216 a5bb 844b 61be
00000020: bbc5 513e 6bed cb3d e2eb 333e de05 ebbd
00000030: cc65 4e3e b9cc 7dbd 00d5 aa3d c57b 753e
00000040: 61d6 75bd 5701 223e c8e1 203e 5000 723e
00000050: d587 873e e252 6ebc d279 553e ba0e c43d
00000060: 0310 b13d 5316 9dbd c5c5 26be 7e78 afbd
00000070: 1110 eabd ecd1 4d3e 1c3c 673e 572b bf3d
-0.0061316295 -0.06380025 0.18289307 -0.10974662 -0.14325705 0.06675794 -0.005038039 -0.22001463
0.20485584 0.09957393 0.17570451 -0.114757285 0.2015602 -0.061962817 0.08341408 0.23972996
-0.0600189 0.15820824 0.15711129 0.23632932 0.2647082 -0.014546128 0.20847252 0.09573121
0.08645632 -0.07670274 -0.1628638 -0.08567904 -0.11428846 0.2009961 0.22581524 0.09334438

gain_net.enc.2.weight f4 [32, 32]
00000000: ce2a a1bd 5d32 ee3d 5618 0b3e 3b4a dc3d
00000010: c7ed 243e 8055 23bd e7db 6d3e 7f85 31be
00000020: 6370 023d 17d7 4abc b72f d3bd e959 cfbd
00000030: c7fb 933c 9749 3b3e 8173 e4bd 53e6 9ebe
00000040: a457 e63d a938 813e d17e 6ebe 8e15 18bd
00000050: 8231 1d3e ceef 3c3e bda7 fbbd 6e65 d9bd
00000060: c509 dcbd 8208 8c39 80d8 4ebc b6f7 04bd
00000070: bd39 32be c83a 163e 9bc7 653e 2631 093e
00000080: 3b7d d03d 4836 b93d 3ef6 24be caf7 b1bd
00000090: b244 e93d 8de0 713e 1811 b0bd fe24 c83d
000000a0: 38d4 ddbd 3fc1 133e 7149 893d de8b c83d
000000b0: c7c2 01be 2095 23bd 9e16 943e e032 a73e
000000c0: 375d 0abe 2d4a fabd fdb8 c2bd a483 b13c
000000d0: 4806 af3d 9709 c73d d1c6 463e 1dd6 a1bc
000000e0: 9423 26bd daf0 313e eee1 dfbd 12d5 a63d
000000f0: a2ed d8bd 2183 debd 1aeb 093e e096 fd3b
00000100: b49b e2bc d6fe 883d a922 8ebd 8679 33be
00000110: e34a 203e f1d6 6a3b 968c ffbd 049f 5b3d
00000120: 452b 933d dcf2 b13d 3b2d 5dbd 008c acbd
00000130: 3d96 d73d 70ad 9b3d 623d 31bb 4db0 133e
00000140: 42db 0a3d 0ed7 0ebe 0d1c 4ebd 7655 e1bd
00000150: 91cb d63d e661 3f3c e69f 87bd 7772 4dbd
00000160: c9ed 15be 1667 da3d 58c8 273d ee37 a3bb
00000170: 3c67 d63b 072f 8e3d c324 ea3d b6e4 973c
00000180: b569 09be 83db 3ebd 549f 85bd ead8 523b
00000190: 4f8f adbd 536d e53d 93c8 41bd b4bf b9bd
000001a0: 5999 3b3e 9b24 703d 62d3 04bd 64ba 933d
000001b0: 5e40 383e c488 2d3d e202 083e 79cd c23d
000001c0: 39e7 2a3e 7b42 273e d783 193d 954a 25be
000001d0: 891f 893e ff66 0a3e 2bd4 4a3e 20ad 83bd
000001e0: 34a7 0a3e 2d70 b13c ddab 2abe 99c1 76bd
000001f0: c799 28bd 9869 4d3e 8a73 edbc 1835 9dbd
00000200: eaf3 7b3e c767 b33d 271b 153e 18f4 ca3d
00000210: 76ad c4bd 36c9 493d bea0 3abd 5a59 963d
00000220: 11f8 603e 1894 143e be2c a43e 84bc 803d
00000230: 0107 2abd 6a56 b43d cb97 8b3d c166 a03d
00000240: f3b6 6cbd cc9f eb3d 7ec8 803d b25b 543e
00000250: 3e7b 6bbd b75e fcbb ee92 033e 8ba9 48bb
00000260: 8dfc 8c3e ae6e 143e 9246 c33d 3f6f 713e
00000270: 02d9 e03d f012 473e 82b2 813e 7698 adbd
00000280: 5fd6 903c 1536 003e 7f0c 49bc 0dc5 56bb
00000290: b82b 93bc d94b 753e fa0b 793d 10b9 2a3c
000002a0: 60f9 c6bd 07a1 493e 064e f63c 1de4 0dbe
000002b0: 96fc 8fbe 797c 70bd ee97 083e 502f 083e
000002c0: ac4f 22bd 3b6e 933d f5cf cb3c 32f2 acbd
000002d0: af63 35be 6f0b bebd 2410 a3bd cd46 7c3e
000002e0: 8582 08be a533 a53e f0a4 a03c a8ab 903e
000002f0: a97d e5bd 9c7a a03d bd71 b6bd 280a 533d
00000300: e0b2 0b3c 828f e73d 3232 a03d 7861 2dbe
00000310: 0434 043d 9048 693d 8853 fa3c 722d b33d
00000320: 2b91 1f3e 8fa0 84bd 9f90 21be 2bc3 25be
00000330: 1e7b efbd 86b3 ae3d 1016 61bc 8adc e63d
00000340: d1e1 2f3e d029 18bc afe1 13be 9780 163e
00000350: 9af8 fbbd 2122 303e c5f3 a9bd 214c 31be
00000360: d45a 13be f71b e7bd 5a65 c83d b946 ddbd
00000370: ca9c 10be 10e6 5d3c a01c 2bbe be5e df3d
00000380: d9e1 56bc d0d7 1fbe a277 dbbd e610 92bd
00000390: b0be d43c 076a 013e b01c f3bd 00e5 dbba
000003a0: eb9a 0fbe f4c2 65bd 0849 01be e1a7 e8bd
000003b0: 1d4a 93bd 2f26 ef3d b9fd 1bbe 52fc db3d
000003c0: 0062 703a 68a2 203d 4470 26be 4be0 f5bb
000003d0: 7dcc 5cbb 9213 04be 4a3c 863d 098c 88bc
000003e0: 4f00 0bbe 3e33 9abd 10ec 40bc 95c4 a93d
000003f0: c35d b13d a3b7 a63c 196d 14be c0bb 4fbb
-0.078694925 0.116307 0.13583502 0.10756346 0.1610633 -0.03987646 0.23228417 -0.17336081
0.03184546 -0.012380383 -0.10311835 -0.10124571 0.018064393 0.18289791 -0.11154843 -0.31035098
0.11247185 0.2523854 -0.23290564 -0.03712993 0.15350917 0.18450853 -0.12287853 -0.10615049
-0.10744051 0.0002670922 -0.01262486 -0.032462798 -0.17404838 0.14670861 0.22439425 0.13397655
0.10180136 0.090435565 -0.16109559 -0.0868984 0.11390056 0.23620816 -0.085970104 0.09772681
-0.10831493 0.14429186 0.06703461 0.097923025 -0.12671958 -0.03993714 0.28923506 0.32656002
-0.13512121 -0.12221179 -0.0950794 0.021669216 0.0854612 0.09718626 0.1941178 -0.019755417
-0.040561274 0.17377034 -0.109317645 0.08146109 -0.105922 -0.108648546 0.1346859 0.007738933
-0.027662136 0.06689231 -0.06940205 -0.17526826 0.15653567 0.0035833681 -0.124779865 0.053618446
0.071859874 0.086889 -0.053998213 -0.084251404 0.105267026 0.0760144 -0.0027044644 0.14422722
0.033900507 -0.13949224 -0.05031972 -0.110026285 0.10488046 0.011681056 -0.06622295 -0.05015799
-0.14641489 0.10664193 0.040962547 -0.0049810326 0.006543068 0.069425635 0.11432793 0.018541675
-0.1341923 -0.04659606 -0.0652453 0.0032172748 -0.084745996 0.112024926 -0.047310423 -0.090697676
0.18320216 0.05862866 -0.032428153 0.072132856 0.17993304 0.042366758 0.1328235 0.09511847
0.16689767 0.16333954 0.037479248 -0.16141732 0.26781872 0.13515852 0.19807498 -0.06429505
0.13540345 0.021659935 -0.16667123 -0.060243223 -0.04116228 0.20059812 -0.028985757 -0.076761425
0.24604765 0.08760028 0.14561139 0.099098384 -0.096033975 0.049264155 -0.045563452 0.07341261
0.2196963 0.14509618 0.32065386 0.062859565 -0.041510586 0.08805545 0.068160616 0.07832099
-0.05779166 0.11505088 0.06288241 0.20738104 -0.05749058 -0.0077017206 0.12849018 -0.0030618634
0.2753643 0.14495346 0.095349446 0.23577593 0.10978891 0.19440818 0.25331503 -0.08476345
0.017680345 0.1252063 -0.012271046 -0.003277126 -0.017965183 0.23954715 0.060802437 0.010420099
-0.09715533 0.19690333 0.030066501 -0.1385655 -0.28122395 -0.058712456 0.13339207 0.13299298
-0.039626762 0.07198759 0.024879435 -0.084446326 -0.17713808 -0.092795245 -0.07962063 0.24636383
-0.13331039 0.32265964 0.019609898 0.28255963 -0.112056084 0.07835886 -0.089084126 0.051523358
0.008526534 0.11306669 0.07822074 -0.16931713 0.03227617 0.056953967 0.030557409 0.087489024
0.15582721 -0.064759366 -0.15777825 -0.16187732 -0.116934046 0.08530335 -0.01373817 0.11272533
0.17175986 -0.009287313 -0.1444156 0.1469749 -0.12303276 0.17200519 -0.082984485 -0.17314197
-0.14390117 -0.11284631 0.09784956 -0.10804505 -0.1412231 0.013543621 -0.16710138 0.109067425
-0.01311537 -0.1560967 -0.107161775 -0.07132129 0.025969833 0.12638102 -0.11870706 -0.0016776621
-0.1402394 -0.056094125 -0.12625515 -0.11360145 -0.0719187 0.11677205 -0.15233506 0.10741486
0.00091698766 0.039217383 -0.16253763 -0.0075035444 -0.003369122 -0.1289809 0.06554468 -0.016668336
-0.13574336 -0.07529305 -0.011775032 0.08289448 0.08660462 0.020351237 -0.14494742 -0.00316976

gain_net.enc.2.bias f4 [32]
00000000: 4cf6 2abe b475 b5bd d429 87bc 1e17 d5bd
00000010: db99 4f3e b03c 0d3e f66a a4bd d26a 053e
00000020: c6e8 713e f143 583d 6118 663d 4c2b aa39
00000030: 915d fdbd e31d 0dbd 94a3 1fbe b8e0 233c
00000040: 7c61 0d3d 12d4 a7bc afd4 7fbd 123c 2d3d
00000050: 85ef c53d 0c82 063d 75f9 fabd 7e5f 35be
00000060: e27b 063e 58d7 353e 53d9 243e f1b9 823d
00000070: e132 32bd 62d0 423e 3a74 17be 7222 5bbc
-0.16695517 -0.08860341 -0.016499437 -0.104048 0.20273535 0.13792682 -0.08028214 0.1302903
0.23623952 0.05279917 0.056175593 0.00032457185 -0.12371362 -0.03445233 -0.15589744 0.010002308
0.034516796 -0.020486865 -0.06245869 0.042293616 0.09664825 0.032838866 -0.122546114 -0.17712209
0.13133195 0.17757928 0.16098528 0.06383122 -0.043505553 0.19024804 -0.1479043 -0.013374912

gain_net.gru.weight_ih f4 [96, 32]
00000000: 6918 b6bd becc 303d d88b ac3c 483f 0d3e
00000010: c8e5 723e 6a2d 02be 222d 04be c00a 1dbe
00000020: 711d 643d 48a8 1c3e f49d 4c3d bdce 9bbd
00000030: 9b8c 223d 70b6 2c3e bb16 1fbe 6693 fd3d
00000040: 1cff 463d c399 a23d ef59 9e3c a85d 243e
00000050: 9362 593e b916 943d ac85 413d 2e2c ab3d
00000060: 2e0f 1d3e 576d 493d b09f 493e 20bc 933c
00000070: 3955 afbc 13a7 463e f5fe d8bd edf6 a8bd
00000080: 2129 08be ea07 71be 9651 893d a345 20be
00000090: d647 60be 4073 b3be d8dc fabc 1479 cc3d
000000a0: f076 103e d3e2 babe dae5 6ebd 1e85 3fbc
000000b0: 9bbf aebd e44a 13bd f3f5 0c3e 9041 2f3e
000000c0: 1981 0b3e 2928 a6bd 790d 0e3e 204d 123e
000000d0: a530 85be e7f3 843e cd47 a23d de93 053d
000000e0: 73e3 2abd c237 d23d 96c2 353d c5f2 963c
000000f0: 805e 793d e8a8 473d 2d3f ebbc 6fcd cbbd
00000100: 0498 293e c197 f9bd 5f87 74bc 8ca6 ddbd
00000110: 144d 5f3e 6b39 4e3d 87ba 1ebe 2c53 0bbe
00000120: 5bae 76bc 48db 8abc 01c6 5c3d 7db2 32be
00000130: 359c 353e e897 013e 50af 333d 8ed8 103e
00000140: 90d1 e13c dcd5 053d 7b43 e4bd 5e22 9f3d
00000150: 45a8 c73d 9f4b 023e 3be4 9fbd 16cb 27be
00000160: 1dc9 05bc 21d2 71bd e212 09bd aaf9 183e
00000170: 853f 36bd 8ab4 1a3e 42bf ec3d edec 36bc
00000180: ae47 b13c fd2f b73d e2da c23d 0557 da3d
00000190: 2420 d9bd 81f8 51bd f6b2 c0bd 73e7 00be
000001a0: fea2 343c 43d8 843e cb3a 9f3c 7336 323e
000001b0: 66cb 573d bfc8 b4bc 4ef7 c23d 5362 863d
000001c0: de1e f33d 79dd e5bd eefe 853d b641 563e
000001d0: a3a3 563e a101 923d b48c bcbc b509 113e
000001e0: 8641 f1bd d077 adbd 018d 1a3e 1409 3a3e
000001f0: 164b 98bc 26cf e03d 53bf 1a3e 8fa1 cd3d
00000200: d035 4f3e ec64 03bc 6c54 be3c 08ef 363e
00000210: bea0 e73d 6d8f 28be ed56 093e 5a02 dfbd
00000220: 05fe 253e e9ca 87bc 212b dd3d c9a3 ad3b
00000230: ffcc bdbd d054 403e 3063 823d ab83 1abd
00000240: f55b 0d3e 24c3 3e3c 0d11 793d a31f 98bd
00000250: 9616 92bd 716d b33d 48f0 d7bd 587f 743d
00000260: aa3f 6a3e 1fed 833e f1c8 6dbd 2bbc e2bd
00000270: ca8d 0cbd c132 6bbe 5f96 933d 2042 febd
00000280: 3d85 bd3d e12e 4d3e 1486 6d3e e8a2 1dbd
00000290: b2fb 623d 6065 e03c 7299 33be b364 d63d
000002a0: d2ee 863e 5544 a03e 6e8a 08be 2e43 913d
000002b0: 279a de3d aeb6 35bd 49c6 333e 776a bd3d
000002c0: 74a4 0ebd fe7e 4a3e 82a6 6d3e a845 ee3d
000002d0: f7b6 a93d 02a2 453d c805 af3d 49a0 1c3d
000002e0: ec84 a33b 18bc 273e e27e a63c 7456 5b3e
000002f0: 4e81 523d 9f8b 8b3e 23da a13d 8e8f 893d
00000300: d894 1ebc ad5e dbba 8f65 323d 195c ea3d
00000310: f683 6d3c c67a f5bd 40e9 8b3c 0714 36bd
00000320: 96b0 ef3d 3c81 883d eadc 023e 8e7d 6abd
00000330: 8f2a 423d f08b 16be 802b 3f3d c8d3 34bd
00000340: b9cc d6bd f085 033e b53c fb3d 81f6 40be
00000350: 0d31 1c3e be50 3cbe 5b6b e43d 56f6 463d
00000360: 25d7 003e 8fc8 3dbe 7f76 bebc dab7 86bb
00000370: 5c24 123d 02ae 723e 67e9 da3d 3e31 e4bd
00000380: 820f 42bd 75e6 11bd eb35 2fbd 0c4e 3d3e
00000390: 62c5 483e 7b05 d1bc c24c fa3d b2d6 6b3d
000003a0: 1b38 1bbd 2b40 703e 3bf9 6c3d c42f 04be
000003b0: a2ac b3bc 057a 613c f861 d9bc 0e02 34bc
000003c0: f5fb 34be 0a09 5a3e 8ff9 e23c 493e 153e
000003d0: 2784 623e d957 ba3d c573 aabd 6a95 f73d
000003e0: 8696 b9bc b8c1 debd 384c fcbd a51b f9bd
000003f0: 2d69 763d 5bb2 113e 267a 243e eb1b 653d
-0.088913746 0.043164007 0.021062776 0.13793671 0.23720467 -0.12712637 -0.12907842 -0.15336132
0.05569214 0.15298569 0.049955323 -0.076077916 0.039684873 0.1686647 -0.15536015 0.1238163
0.048583135 0.07939484 0.019329993 0.16051352 0.2122901 0.072308965 0.04724662 0.08358036
0.15337822 0.04917654 0.19689822 0.01803404 -0.021402942 0.19399671 -0.10595504 -0.08250222
-0.1329694 -0.23538175 0.067050144 -0.15651564 -0.21902403 -0.35048866 -0.030622885 0.09984031
0.14107871 -0.36501178 -0.058324672 -0.011689452 -0.085326396 -0.035960093 0.13765697 0.17114854
0.13623466 -0.08113129 0.13872327 0.14287233 -0.26013675 0.25967333 0.07923851 0.03261172
-0.04172082 0.10264541 0.044375025 0.018426308 0.060881138 0.048745066 -0.028716648 -0.09951293
0.16561896 -0.12187148 -0.014924853 -0.10822782 0.21806747 0.050347727 -0.15500842 -0.13605946
-0.015056218 -0.016950265 0.05389977 -0.174509 0.1773537 0.12655604 0.043868363 0.14145109
0.027565747 0.032674655 -0.111456834 0.07770227 0.09748892 0.1272416 -0.078072034 -0.16386065
-0.008165625 -0.059038285 -0.033465274 0.1493899 -0.04449417 0.15107933 0.11559917 -0.011164886
0.021640625 0.089447 0.09514405 0.10661129 -0.106018335 -0.051262382 -0.09409134 -0.12588291
0.0110251885 0.25946245 0.019437214 0.17403583 0.05268421 -0.02206838 0.09519826 0.065617226
0.11871122 -0.11223883 0.065427646 0.20923504 0.2096086 0.07129217 -0.023016311 0.14163859
-0.11780076 -0.08470118 0.15092851 0.18167526 -0.018590491 0.109770104 0.15112047 0.100405805
0.20235372 -0.008019667 0.023233615 0.1786462 0.11309956 -0.16460963 0.13412066 -0.108891204
0.16210182 -0.016576247 0.10799242 0.0052990657 -0.092676155 0.18782353 0.06366575 -0.037723225
0.1380461 0.011643205 0.060807277 -0.07427909 -0.07133214 0.08761109 -0.10543877 0.059691757
0.22875848 0.25766847 -0.05805296 -0.110710464 -0.034314908 -0.2296858 0.072064154 -0.12414956
0.09253929 0.20037414 0.23195678 -0.038485438 0.055415817 0.02739209 -0.17539003 0.104684256
0.2635408 0.31302133 -0.13334057 0.07092892 0.10869246 -0.04436367 0.17556109 0.09248822
-0.034824803 0.19775006 0.23208049 0.116343796 0.08286851 0.048250206 0.085460246 0.038238797
0.0049902108 0.16380346 0.020324174 0.21419698 0.051392846 0.2725496 0.079029344 0.06716834
-0.009679042 -0.001673659 0.043553885 0.114433475 0.014496794 -0.11986308 0.017078996 -0.044452693
0.11703603 0.066652745 0.12779585 -0.057248645 0.04740387 -0.1470182 0.046672344 -0.044147283
-0.104882665 0.12844062 0.12267438 -0.18844034 0.15253086 -0.18390176 0.11153289 0.048574768
0.12582071 -0.18533538 -0.023249863 -0.0041112723 0.035679206 0.23699191 0.10689049 -0.11142205
-0.04737807 -0.03562017 -0.04277603 0.18486804 0.19606546 -0.025515309 0.12221672 0.057577796
-0.037895303 0.23461978 0.057854872 -0.12908846 -0.021932904 0.013762002 -0.026535973 -0.010986818
-0.17674239 0.2129251 0.02770689 0.14574541 0.22120725 0.09098787 -0.083228625 0.12089045
-0.022654783 -0.10876793 -0.12319225 -0.12163476 0.060158897 0.14228193 0.16062221 0.055934828

gain_net.gru.weight_hh f4 [96, 32]
00000000: 36ba bf3d 2375 423d c885 823d f484 41be
00000010: db3f 35be 625b ecbc 5357 5bbd 6953 083e
00000020: 5080 503d ddd7 abbd 1ea6 d23d 3549 8abd
00000030: 34eb 5a3e 0d92 5b3e 953f 57bc e83a 033e
00000040: bf54 a1bc 4450 bcbd 53fe 2cbe b649 fdbd
00000050: d68c 6bbe afce 0b3e 39e9 0abe 00ea fabd
00000060: b799 073e 0be4 1ebe 5cfa 3abd a487 bb3d
00000070: 1aed 17be c75b 0abd ec71 25bd b6c2 88bd
00000080: c211 43be dd5c 00be a2b8 0dbe b574 a33d
00000090: 0e50 2dbd 146b 84bc 3b78 743d 5cd1 103e
000000a0: 1831 5cbd f058 fe3c cc5e 403e 7890 0c3e
000000b0: eee8 d63d b1d2 c73b 281e 24bd 90d5 b4bd
000000c0: 2ab4 bd3d a3b4 89bc c10c 183e 1cc9 0e3d
000000d0: b4ce 7bbd 54b6 01be 96a8 c6bd 8316 203d
000000e0: 26f7 e53d c34b 34be f5c7 dd3d fe1a fdbc
000000f0: 8ec8 87be 16a6 52bd f8b2 63be 14ff bebd
00000100: 36ba 943a cc01 de3d 8bfe 293e f0f1 063e
00000110: 3d06 99bd ef1d e8bd 471b b5bd 379c 8c3a
00000120: 7bfb 3abe dea9 cf3c 6a6e 483e 1995 70bc
00000130: 41e3 383e 7d54 ea3b cc05 7a3d 37d6 a6bd
00000140: a5f2 12be 1158 433d 4fb0 6f3d 2a0d 6d3d
00000150: 0281 283d b546 a83d 0944 13bd 66c6 80bb
00000160: 51fc 953d 4195 4bbe 6de9 723d 2518 eabd
00000170: c27d 2b3d ebe0 6fbd 7146 c3bd 0b81 123d
00000180: 1d5d a0bc dc25 45bd 5494 613e 276d 02be
00000190: 2d7a 833c a31e da3d fe9f 91bd d63a 313e
000001a0: 55cb 673d c508 a63d 9f51 b73d e4fe 7dbd
000001b0: ee58 ec3d 9642 c33c eea1 e23d f46c 05be
000001c0: 614d dc3d 43bc 2f3d 82a0 5cbe d7f6 8c3d
000001d0: 38f4 11bd af5b 24bd cb09 bebd 2b9e c0bb
000001e0: 124b 353e 34f1 eebd 0959 f63d 8fb6 02bd
000001f0: 5f1c f33d ad7a d0bd c23f e9bd 3065 60be
00000200: 9904 d53d 3d88 843e 2d2d 9a3c 2022 893d
00000210: 0a71 453f de05 8b3d f65c e7bd 1c8b 46bd
00000220: 0bfc d9bc e8c0 4d3d e21d f63d d3a4 2abd
00000230: 9038 e73c b0c6 1d3e 44dd 96be c8f6 0abe
00000240: 4b09 52be cc8f c13d 9e5f d23d 2242 603c
00000250: 659a f43d 3da0 19be 35cd 36be 3b04 853d
00000260: b117 8ebb f26d fabd 7d0e d9be c2aa d7bc
00000270: 8dd7 9f3e 1834 0bbe ff81 e9bd 96b6 d1bd
00000280: 38cc 73be c21a a5bb 8d11 e93d 9825 5cbe
00000290: e7b8 023d 34f9 49be 08ed 01be 6f0d a13d
000002a0: 68cf 2ebd 7b81 0d3b a644 97bb b61c 81bd
000002b0: d2e7 2b3e 3106 de3d 035b 033e e16f 8c3c
000002c0: 4305 cbbd 6b76 fc3c 0aa2 9d3d 7868 35be
000002d0: 6ceb 453c d5a5 f3bd a0fc 88bd cfe2 e43a
000002e0: 7b3a f9bc 5bfe 053d 7046 1f3c be63 59bd
000002f0: 27eb 13bd 58db 9fbd 3923 353e 4661 55be
00000300: 7c1d c33d 16ec 953d 7291 1cbe 8ed9 b5bd
00000310: 397f 1fbe 018e 913d 7be0 5bbd 2c64 433e
00000320: a9aa 253e 3bd0 683d e238 aa3d d805 ce3c
00000330: 6371 463d e5a5 713d d7be 333e 9754 cdbc
00000340: fb66 84bd 4036 d63c 0a13 f8bc 3f39 36be
00000350: 73aa d53c 68e0 0d3d 5a89 ccbd d0bb b5bd
00000360: 9025 873d c309 a83c aede b2bd 5e2b 34be
00000370: 32b3 f2bd ecf1 19be 32a4 d6bc d391 ab3d
00000380: ed56 f8bd efb3 593a 3e66 9cbd 2ed8 99bd
00000390: d51a 61be 05e1 c33d d34f bc3d 60ed ea3b
000003a0: 949f 783d 6ba4 c33d c672 193e c0ac fb3d
000003b0: dcb2 d43d f1e7 2e3e 1c39 17bd 43b4 9cbd
000003c0: 914f 05be c447 933d 41a8 d0bd e1a5 903d
000003d0: a3bd 1ebd abb3 233e 0fba 1dbe 57ab 303e
000003e0: 1840 813d b562 fd3d b94e 483e de22 4cbe
000003f0: 6805 43bd 840f a13d b836 583e 91eb 0abe
0.09361689 0.04747499 0.06373173 -0.18898374 -0.1770014 -0.028852168 -0.053550076 0.13313068
0.05090362 -0.08390782 0.102855906 -0.067522444 0.21378785 0.21442433 -0.013137718 0.1281544
-0.01969373 -0.09194997 -0.16893892 -0.12367575 -0.23002943 0.13653062 -0.1356553 -0.12251663
0.13242231 -0.15516679 -0.045648918 0.09156731 -0.14836541 -0.033778932 -0.040391847 -0.06677763
-0.19049743 -0.12535425 -0.13839963 0.079812445 -0.042312674 -0.01616434 0.059684973 0.14142364
-0.053757757 0.031048268 0.18786162 0.13726985 0.104936466 0.0060981144 -0.04006782 -0.08829796
0.09262879 -0.016809767 0.14848615 0.03485976 -0.061476424 -0.12667209 -0.09700124 0.03908397
0.112287804 -0.17607026 0.108291544 -0.03089666 -0.265202 -0.051427923 -0.2223624 -0.09325996
0.0011346999 0.108401865 0.16601007 0.1317823 -0.07471893 -0.113338344 -0.08843093 0.0010727708
-0.18259995 0.025349554 0.1957337 -0.014683985 0.1805544 0.007151185 0.061040685 -0.08146327
-0.14350374 0.04769141 0.05851775 0.057873882 0.041138656 0.08216611 -0.035953555 -0.003929901
0.07323516 -0.19881155 0.059304643 -0.114303865 0.04186798 -0.058564108 -0.0953492 0.035767596
-0.01957565 -0.04813181 0.22029239 -0.12736951 0.016049469 0.10650375 -0.07110594 0.173076
0.056590397 0.081071414 0.08951115 -0.06201066 0.115403995 0.023835462 0.11066042 -0.13029844
0.10756946 0.04290415 -0.21545604 0.068830185 -0.035633296 -0.0401265 -0.092792116 -0.00587823
0.17704418 -0.116670996 0.12028701 -0.031912383 0.11870646 -0.101796485 -0.11389114 -0.219136
0.104012676 0.25885192 0.01882037 0.06695962 0.7712561 0.067882285 -0.11297028 -0.04847251
-0.026609441 0.050232798 0.120174184 -0.041661095 0.028225213 0.15407825 -0.29465687 -0.13570702
-0.20511357 0.09451255 0.10272144 0.013687642 0.11943511 -0.15002532 -0.17851718 0.064949475
-0.0043363203 -0.12228002 -0.42393866 -0.02632654 0.3121914 -0.13594091 -0.11401748 -0.10239904
-0.23808372 -0.00503859 0.11380301 -0.21498716 0.031914618 -0.1972397 -0.12688076 0.078638904
-0.042678267 0.002159207 -0.004616338 -0.06304304 0.16787651 0.10841025 0.12827687 0.017143192
-0.09913113 0.030818185 0.07696922 -0.17715633 0.012080055 -0.11896864 -0.066888094 0.0017462614
-0.030423393 0.032713275 0.009721383 -0.053073637 -0.03611293 -0.078055084 0.17689218 -0.20837888
0.09527108 0.073204204 -0.15289858 -0.08879386 -0.15575875 0.07107163 -0.053680878 0.19081181
0.16178383 0.05683921 0.08311631 0.02514927 0.048447978 0.0589961 0.17553268 -0.02506475
-0.064649545 0.026148915 -0.030282516 -0.17795275 0.026082253 0.03463784 -0.09987135 -0.08873713
0.06598961 0.020512467 -0.08733879 -0.17594668 -0.11850585 -0.15033692 -0.026201341 0.08377423
-0.12125955 0.0008304705 -0.07636689 -0.07511936 -0.21982892 0.095644034 0.09194913 0.0071694106
0.06069906 0.095528446 0.14985189 0.12288809 0.10385677 0.17080666 -0.036919698 -0.0765157
-0.13018633 0.071914226 -0.10188342 0.07062889 -0.03875507 0.15986507 -0.15403007 0.17252861
0.06311053 0.123723425 0.1956128 -0.19935176 -0.047612578 0.078642875 0.21114624 -0.13566424

gain_net.gru.bias_ih f4 [96]
00000000: 1789 f9bd 9ae6 bebc 5567 98bd 3c0d 223e
00000010: c620 563e f784 8b3c 6e64 203c 4711 0cbe
00000020: 31b9 1d3e 27e2 45bc be3f bfbd 7d14 66bc
00000030: 1690 673e 8369 463d acdc 623e d8f1 fcbd
00000040: 867c fa3d cb7d 483e 0024 373d 32fc b4bd
00000050: cfc9 183e 38de 673e fedb 203e 481b 343e
00000060: ad26 583e 74c0 89bd 5370 623e aa5d b2bd
00000070: 8a74 d13c 2fdc 243e edf4 043e 9cf3 793d
00000080: 204f 823d f427 a53d 4da3 68be e9c5 1bbc
00000090: f136 14be 33c0 90be 55e8 c3bd 4e25 4dbc
000000a0: fe1b 16be 944e 05be 32a4 50be d7fb 7dbd
000000b0: 526d 61be fb1a 09be 4e60 993d 96c3 4bbe
000000c0: 4257 2abe 42e9 11bc 5e8d 303d 8290 3dbd
000000d0: 33e2 c7bd 6dca 49bd 0463 8fbe a7b9 8dbe
000000e0: 1820 06be 7baa 3dbc ef64 dfbc 1d1b 63be
000000f0: 1c1f 07be 16b1 86be 1269 c2bd fb67 63be
00000100: 66ac 76bd 50d1 73bd aa06 783c 9e60 ea3c
00000110: ac8a 053e 0c00 38be f83c b3bd 3fd3 0e3b
00000120: f52e 553d da40 7b3e 07f9 0a3e 8df5 f4b9
00000130: 21b4 a2bd 4a88 683e c56b 2b3e 4f95 88bd
00000140: 8256 54bc e2d7 5bbd 1273 95bc 14d3 d53c
00000150: 045a 053d b4e4 a4bd a6d2 74be 3aad 233d
00000160: d325 453e 39f0 d6bc 8960 2ebc 8d2a 14be
00000170: 7e99 113e d877 39be ca7d d3bb 6883 4cbe
-0.12184351 -0.023303319 -0.07441584 0.15825361 0.2091094 0.017031176 0.009789569 -0.13678466
0.15402676 -0.012077845 -0.0933833 -0.014042971 0.22613558 0.048440468 0.22154492 -0.123508155
0.12230782 0.19579236 0.044712067 -0.08837165 0.14920734 0.22643363 0.1570892 0.17588532
0.21108504 -0.06726161 0.22113161 -0.08709271 0.025568265 0.16099618 0.12984057 0.06102334
0.06362748 0.08064261 -0.22718544 -0.009507635 -0.14474083 -0.28271636 -0.09565798 -0.012521101
-0.14659116 -0.13018256 -0.20375136 -0.06200775 -0.22014359 -0.13389198 0.07489072 -0.19898829
-0.16634849 -0.008905711 0.04310357 -0.04628039 -0.09759941 -0.049265314 -0.2800523 -0.27680704
-0.1309818 -0.01157629 -0.027269809 -0.22178312 -0.13195461 -0.2630698 -0.09492697 -0.22207634
-0.060223006 -0.059525788 0.015138308 0.028610524 0.1304118 -0.17968768 -0.08751863 0.0021793393
0.052046735 0.24536458 0.13571559 -0.00046722256 -0.07944513 0.2270824 0.1674033 -0.06669103
-0.012960078 -0.05367268 -0.018243346 0.026101626 0.03255655 -0.08051434 -0.23908481 0.039960124
0.1925271 -0.026237594 -0.010643133 -0.14469357 0.14218709 -0.18112123 -0.006454204 -0.19972003

gain_net.gru.bias_hh f4 [96]
00000000: 97f6 b03c a5dd c03d 2179 983d fe48 d5bd
00000010: 9790 2e3e 476c 1ebd ff22 553d 7039 3c3d
00000020: 729d 2cbd 4d61 2cbc d48f 883d 1764 88bc
00000030: 3b61 f53c 4f52 49bd 1258 223d 791b 29be
00000040: 9859 933c 3e66 ca3d 3153 153d 7426 4d3d
00000050: 511d 063e c7e2 243e 0d3b 313e 9235 b93d
00000060: 6ccf 093e 900f 33bd e3dd 623e d98f 153e
00000070: 608a a9bc 8bbc 55bd b594 9cbd 6baf 97bd
00000080: edfa 84bc 58e7 f03d 4816 6b3c 239e babd
00000090: 1878 debd 9d8f a1bd 9860 82be 0c8a 45be
000000a0: d9ca 64bd 67d4 9bbd 4aba 64bc c200 e8bd
000000b0: 21ec 103d 0582 0fbe a5a5 ec3d ed6f ecbc
000000c0: 56c3 cabd 302b 83bd ad31 b0bb 8e17 e1bd
000000d0: 2792 5ebd 3eaf bdbc 638e 3fbe 5342 98bd
000000e0: 1dc3 8c3d 9d63 073d 13c0 1fbc caff 85bd
000000f0: 3f18 5f3c d22d 37be b0d2 83be 210c bfbd
00000100: f301 933d 0819 d0bd a902 2c3d ae76 ba3d
00000110: 903d 2abc 40de 3fbe a98b 0e3d 87b5 4cba
00000120: 5e73 393d bb58 893e 7e87 9d3d 4a24 e03b
00000130: 629f 5c3e 802c 2a3e 5f2a 323d 5a0b 8e3d
00000140: 36f8 95bd c342 073d f2f7 e0bd 398b 11be
00000150: fbb4 49be 7f19 193d c1ab 0c3d 53fb 7b3d
00000160: d0a7 6e3e 11e2 6d3d 8799 563a f30f 673d
00000170: 4180 a8bc 84e9 c83d da2e c23d ab48 6abe
0.021601958 0.09417275 0.074449785 -0.10414313 0.17047344 -0.03867748 0.052035328 0.045953214
-0.04214234 -0.010521245 0.06668058 -0.016649289 0.02995359 -0.04915076 0.03963477 -0.16514386
0.017987058 0.098827824 0.03645629 0.0500855 0.13097121 0.16102134 0.17307682 0.09043421
0.13458031 -0.043716013 0.22154956 0.14605655 -0.020695865 -0.05218176 -0.07645551 -0.07406505
-0.016232932 0.11762875 0.014348574 -0.091121934 -0.1086275 -0.0788872 -0.2546432 -0.19290942
-0.055857513 -0.07608872 -0.01396043 -0.113282695 0.03538144 -0.14014442 0.11555032 -0.028861964
-0.099005386 -0.06404722 -0.0053770156 -0.10990821 -0.0543386 -0.023154851 -0.1870666 -0.07434525
0.068731524 0.033053983 -0.009750384 -0.065429285 0.013616621 -0.17888573 -0.2574668 -0.09328485
0.07178106 -0.10161024 0.041994724 0.091046676 -0.010390654 -0.18737125 0.03480116 -0.0007809032
0.04527604 0.26825508 0.07691859 0.0068402635 0.21545175 0.16618538 0.04349744 0.06935759
-0.07322733 0.033022653 -0.10984792 -0.14213265 -0.19697945 0.03737783 0.034343485 0.06151898
0.23306203 0.05807692 0.00081863295 0.056411695 -0.020568969 0.098101646 0.094815925 -0.22879283

gain_net.trunk.0.weight f4 [32, 32]
00000000: e27b fc3d c66e edbd 5425 40bd f688 e7bd
00000010: f78e 06be c425 12bd 0b46 e0bd a0a4 efbb
00000020: c270 aa3d b84e 33be cc67 d3bd 231d e5bd
00000030: f386 123e 83c5 a7bd 0637 ca3d 00d3 91bc
00000040: c61a bc3d b4e8 4dbd 00e6 df3c ec30 1f3d
00000050: ce07 fabd 8b9d 03be bb17 2c3e d7bc e8bd
00000060: 3e73 c53d 8082 513c 435e a9bd 026b ca3d
00000070: a4bd 82bd f7ae 163e 7522 87bd b06f 443d
00000080: 1c9c e8bc 9174 8abe 52d2 363e 13fb 0cbe
00000090: 4a07 25be c45c 49be 81af e5bd 20b3 e83d
000000a0: dcb7 2cbe 0d94 933e 04e1 7f3e bf43 0a3d
000000b0: 6504 9a3e dafe ea3d 8edd f93d 8833 573e
000000c0: 03c3 7dbe 266f 423d 5beb 1fbe 7478 33be
000000d0: 9be9 99be 9b8e 8d3e db42 04be 4215 a33e
000000e0: 0c48 273d d46e e5bb 1424 823e 4f60 45be
000000f0: 1e73 9abc 43bf 92be 563a af3c d015 4dbe
00000100: 01c8 76be 0920 873e 3ac7 053e 993c dabd
00000110: d1a4 123f 6a11 2fbe 427b 52bd 330d 903e
00000120: 7d32 82be a0d7 a7bd 52cf aa3d b551 19be
00000130: 9566 5a3e 8f34 a83d c46f d3be 948f 8fbe
00000140: 3654 60bd 1d09 7e3e abef 5ebe df0c 1bbd
00000150: f1e7 973d fd7f 9dbe 9fd8 81be 5fb5 1fbc
00000160: 6c94 5c3e 8a00 d3bd f016 17bf 1253 5cbd
00000170: a6fd 803e df40 823d e1c4 e6be 5ca9 5abe
00000180: db08 29be ee4f 05be 1740 35bd e221 e9bc
00000190: cec1 00bf 13e1 fdbd 0006 94be a15e 693e
000001a0: b1b1 75bd 20c7 bc3b 9cad b33d 25bd 86be
000001b0: 3e58 203e 06ba 833e 19fa c6be 6a64 463e
000001c0: 1c74 e63c 3ac0 b8be b2d0 8cbe 1dca 5abc
000001d0: dcf1 71be 6547 60bd d856 92be eb3c 8b3e
000001e0: 4266 453d 0f73 46be 3c86 bbbd 668e 1abe
000001f0: 15f6 d63d ed2b 63be 7aa3 983e e85c adbd
00000200: 1fa2 05be fa3b 56bd e576 3c3e a04b 59be
00000210: d05d f73d 110b 40be e908 84be 7e88 5c3e
00000220: 83b3 e8bb d4ce dbbc 4b3b 9e3e 2904 97be
00000230: b8e7 44bc 17d9 6b3e 6814 68be 7be8 be3e
00000240: 2f24 86be ba7a 833d ac46 2ebe 7914 203d
00000250: c6d2 78be 59bb d53e 2dd3 66be 7a61 c83d
00000260: 4db9 193e 83b3 d9bb dc4d 31bd 9289 f4bd
00000270: bdfe 22be a69d 36be c4b9 663e 2132 a1bd
00000280: 5f44 59be 621a 933e 1c62 a0bc db2d 5bbe
00000290: 0a03 7a3e a8f6 edbd 3e25 42be 9678 513e
000002a0: 148d 643d 3da8 ba3d 2df1 a23d fef8 bcbc
000002b0: 55c4 543e b9fa 913e 5367 50be e590 dabd
000002c0: bacc 11be 86c2 203e 78b5 a9bd 710a 2ebe
000002d0: 9212 7dbe 12c5 43be 65be 2c3d 480f 8e3d
000002e0: d34f 713e c539 f23c 41cd 82be 236e 90bd
000002f0: 05d5 773e 7031 90be 1f4a b9be bca9 78be
00000300: 53b9 8abe 08b8 513d 1ba3 a3bc 7927 35bd
00000310: 1c90 e5be 7fba 7abe 75e8 0ebd 1a31 483e
00000320: 1670 e3bd 3f92 f5bc 6603 a23d 4f4d 8fbd
00000330: 0f5e 863e b121 0ebc 1b08 8f3e 9a02 4a3c
00000340: db40 46bd 40f6 cebe 859c d6bd 61b9 abbc
00000350: 2a60 cbbd d8f5 a23c d11a 46be 092c e03c
00000360: aba7 3e3e 60c9 8fbe 8e7f a23e d8ee 85be
00000370: a021 e6bd f246 34be 1b78 2d3e 3765 42be
00000380: b31c a1bd c29f e43d ca6e dabd 5517 0c3e
00000390: d814 e63c 45a8 20be 7b2a 283e b6fb 0cbe
000003a0: 9cd7 833d 2884 133d 0030 d23a 32c8 e03d
000003b0: 5ee2 fa3d 02a1 aa3d 564b 05be 4ae2 00be
000003c0: 5e04 8a3d 3a9a dfbd 3e6f df3d 0227 a23d
000003d0: ee1d 77bd 1c64 0dbd 7d97 153e e688 f23d
000003e0: b50b f7bd 139d b3bd e5d4 063e 5853 c2bc
000003f0: ac08 363d fbad 0bbe 4c8e 07bd 19b1 253e
0.12328316 -0.11593394 -0.0469106 -0.1130542 -0.13140474 -0.035680547 -0.1095086 -0.007313326
0.08322288 -0.17510498 -0.10322532 -0.11187198 0.14309292 -0.08191969 0.09873776 -0.017800808
0.09184794 -0.05027075 0.027331352 0.038865015 -0.1220852 -0.12853067 0.16805927 -0.11364143
0.09641121 0.012787461 -0.08269932 0.09883691 -0.06383827 0.14715181 -0.06598369 0.047958076
-0.028394751 -0.27042058 0.17853668 -0.13767652 -0.16116062 -0.19664294 -0.11215115 0.113622904
-0.16867012 0.2882389 0.2498818 0.033756014 0.30081478 0.1147439 0.12200461 0.21015751
-0.24781422 0.04746928 -0.15617125 -0.17526418 -0.3006104 0.27647862 -0.12916128 0.31852156
0.040840194 -0.007001737 0.2541815 -0.1927502 -0.01885372 -0.28661546 0.021390121 -0.20027852
-0.24099733 0.26391628 0.1306428 -0.10656089 0.5728274 -0.17096487 -0.05138708 0.2813507
-0.25429145 -0.08195424 0.083403245 -0.14972575 0.21328194 0.0821315 -0.41296208 -0.2803923
-0.05476781 0.24808164 -0.21771114 -0.03785407 0.07417286 -0.3076171 -0.2536058 -0.009747832
0.21540993 -0.10302837 -0.59019375 -0.05379016 0.25193518 0.063600294 -0.45072082 -0.21353668
-0.16507284 -0.13018772 -0.044250574 -0.02845854 -0.5029572 -0.12396445 -0.28910828 0.22790004
-0.059983913 0.0057610422 0.08773348 -0.2631618 0.15658662 0.25727862 -0.38862684 0.19374242
0.028131537 -0.36084157 -0.27502972 -0.013353852 -0.23627418 -0.054755587 -0.28581882 0.27194914
0.048193224 -0.19379829 -0.091564626 -0.15093383 0.10496155 -0.22184725 0.29812223 -0.08464986
-0.13050126 -0.05230329 0.1840473 -0.21220255 0.1207844 -0.18754221 -0.25788048 0.21536443
-0.0071014776 -0.026832022 0.30904612 -0.2949536 -0.012018137 0.23032032 -0.22664034 0.37286744
-0.2619948 0.064198926 -0.17019147 0.039082024 -0.24299154 0.41744497 -0.22541495 0.09784217
0.15012093 -0.006643714 -0.043287143 -0.11940302 -0.15917487 -0.17833576 0.22531801 -0.078708895
-0.21217488 0.28731066 -0.019578032 -0.21404211 0.24415222 -0.116193116 -0.1895952 0.20456156
0.055798605 0.0911412 0.07956157 -0.023067947 0.2077802 0.285116 -0.20351915 -0.10672168
-0.14238253 0.15699205 -0.082865655 -0.1699617 -0.24714115 -0.19118145 0.042173762 0.069365084
0.23565607 0.029568562 -0.2554722 -0.07052257 0.24202354 -0.28162718 -0.36189362 -0.24283499
-0.27094516 0.051200897 -0.019975236 -0.044227097 -0.4483651 -0.24485205 -0.034889657 0.19549981
-0.11105363 -0.029976962 0.079108045 -0.06997167 0.26243636 -0.008675025 0.2793587 0.012329722
-0.048401695 -0.4042225 -0.104790725 -0.020962419 -0.09930451 0.019892618 -0.19346167 0.027364748
0.18618648 -0.28083324 0.31737942 -0.26158786 -0.11236882 -0.17605188 0.16940348 -0.18983923
-0.07866802 0.11163284 -0.106656626 0.13680775 0.028086111 -0.1568919 0.16422455 -0.13767895
0.064376086 0.036014706 0.0016036034 0.10975684 0.12250207 0.08331491 -0.1301702 -0.12586322
0.06739114 -0.10918088 0.1090989 0.079175964 -0.060331278 -0.0345193 0.1460857 0.118425176
-0.1206278 -0.08770194 0.1316715 -0.023721382 0.044441864 -0.13640587 -0.03309469 0.16180839

gain_net.trunk.0.bias f4 [32]
00000000: a4b6 6ebd d03e ed3d ea9d 8c3d c804 e43d
00000010: 0093 663e 679b 21bb f61b d63d 95cc d1bd
00000020: fa3a e83d 7d73 1e3e 7469 2d3e 059d d53d
00000030: a58c edbd 8c96 e13d ed31 573e edb8 963e
00000040: 0407 103e 2057 99bc 51c3 3c3e 215d 853c
00000050: ba74 80bd abae cebd 2db9 823c 5613 3ebd
00000060: e1aa 983e a98f d8bd dd79 d53c 004b 913e
00000070: 3346 dbbd 1ca1 fb3d 1871 fdbc 5fb8 29be
-0.05827965 0.11584246 0.06866057 0.111337245 0.22517014 -0.0024659277 0.10454552 -0.10244099
0.11339374 0.15473743 0.16934758 0.1043034 -0.115990914 0.11015043 0.21015139 0.29437962
0.14065176 -0.018718302 0.18433882 0.016279759 -0.06272264 -0.10091909 0.01595744 -0.04640516
0.2981787 -0.10574276 0.026059086 0.28377533 -0.10706749 0.122865885 -0.030937716 -0.16574238

gain_net.dk_head.0.weight f4 [32, 32]
00000000: bb0e 30be 147f a0bd 0a8b c23c a248 e93d
00000010: 4078 f23d 57a6 143d e8b9 fdbd da9f 26be
00000020: e0ab 87bc 24db d8bd d7ab 6e3e 7fa7 073e
00000030: db9d 21bc 4bb8 f1bd 46bf c4bb 6d8e b23d
00000040: e25a 4abd 0e1b b43d 3519 023e fccc f4bd
00000050: 1919 173d 1e68 f83d 634c 2a3e d95b 783e
00000060: 1c88 373e a05a 133e e1e5 0abe 1ce2 133e
00000070: b7dc a33d a575 fd3d bdae 133e 9c7c f5bd
00000080: c015 23bb a1f8 febd 85da 1d3e 2b50 31be
00000090: 48c5 5bbd d6ba f23d bc88 0ebe b805 1abe
000000a0: 003c b2bc c0be babc 8098 96bb 4e35 e2bd
000000b0: 1016 77bc c792 073e 0e20 dc3d d28e 9d3d
000000c0: 9e46 f03d c4d9 1c3d d9e0 2e3e 803c 583d
000000d0: 2046 75bc 7b13 84bd cbd8 2c3e 20bd e0bc
000000e0: 1664 8d3d 2838 7f3d a060 21bc c6ff b5bd
000000f0: aca4 5d3d b91f 2ebe c08e e6bb 9c5c 173d
00000100: c6b5 c13d dd8c 5fbd 81dd f2bd 8817 37be
00000110: 051d db3d d9b6 1dbe df8b d53d 7346 0e3e
00000120: 0422 f0bd f15c 483e f9a3 a93d 722f 2c3e
00000130: 4605 ec3d 1caa f33d e05d b23d 3dc4 e23d
00000140: 8ed1 63bd 93da b43d a918 313e 2e87 a03d
00000150: 3d76 7e3c cbda f8bd 5ef6 8b3d 975d 87be
00000160: a81c b4bd deb6 a3bd bc44 1fbe a715 e73d
00000170: 19a9 ca3c 4bc0 8cbe 59e4 1e3e 643a bbbc
00000180: d1e0 dbbd 3390 1d3e 621e dc3d 5718 1dbe
00000190: bc5e 52bd b221 b83d bcfa 003e d44f b0bd
000001a0: 9993 a8bb 0917 19be daae 963d 0dcb 19bd
000001b0: cd13 1c3e c3b7 16be ea0f 393e 0808 5ebe
000001c0: 465c e13c b063 62bc 40d0 61bc 300d 2cbd
000001d0: 105c a43d 238a fbbd 6f5a 053e ea97 cf3d
000001e0: 553b 35be a5da 133e fda7 f43c 9dd5 b0bd
000001f0: 5404 5f3d 93f0 663e b0d4 2c3d 3aa8 67bd
00000200: 066e 11be db43 c13d de56 bdbe d26e c9bd
00000210: 069e 31bd aea8 0bbe 0f56 1f3e d83e afbc
00000220: bdf4 60bd 7c47 3d3e 0dc8 013c 0735 303e
00000230: 7418 c23d 9045 d33b b727 933d d107 d5bd
00000240: a051 683d c975 1ebd ef8b ee3d 37a5 203e
00000250: 4f26 f9bd 8d24 c13d 378d 213e 5b22 6dbe
00000260: a48e 01bd 2cc4 11be f318 503d 7ad5 803d
00000270: 3063 913d 59cb 96be e9ad 1abe 22f5 123e
00000280: 447b 343d 048a 6f3d 8dc8 63be a101 78bd
00000290: b1f4 9abc 19e6 b4bd 7161 0d3e addf 283e
000002a0: 265a 32be 348f 443e 10ad b9bd 0712 56bc
000002b0: d7b9 8b3d 5e25 be3d a3f0 073e 2062 123d
000002c0: ff41 273e d874 15be c9eb 853d a947 a93d
000002d0: bee7 02be 63b0 05be e121 1ebc 1f2a 5dbe
000002e0: 5b21 5b3e f267 b8bc 1b80 883d 742a 413e
000002f0: 20ad 093e 1bc4 52bd 466c 66bd e3c1 1cbe
00000300: b64c c23d 9ae9 b53d ec72 3cbe 0d8c ccbd
00000310: 5793 4d3e 3fc7 54be bda5 23be 6b13 0e3e
00000320: 4ab7 403e 7bf3 5abd 5e22 163e d588 f138
00000330: da91 18be b23e 9bbd 906d b0bd 92fb abba
00000340: 3421 cb3d 71c6 f0bd c541 003e a644 06be
00000350: 873f 42be c847 ccbd c7a3 4a3c 366a 02be
00000360: 427b a6bb d823 afbc 784d 413e 1850 02be
00000370: a47b 2d3e fb90 12be 3f83 9b3d 816e 853d
00000380: fdbf eabd 541c e23d 28e6 8dbe db25 c03d
00000390: 6bcf c13d d552 a63d 6374 213d 9a74 0ebe
000003a0: 3483 02bd 23e8 013e 40d8 1b3e 87c0 203d
000003b0: 4995 c63d 5b28 063e 3b2c 47bd 2ed4 fc3d
000003c0: b675 6b3d 0790 7bbd 668a c7bd 7b2e a93d
000003d0: 4db5 9d3d 103d 643d c12f 1b3e 1f9e 68be
000003e0: 45cd c13d 70f8 043e 23dc 18be 4706 193e
000003f0: 9942 1fbe ac77 58be 2826 2b3e f024 1fbe
-0.17193119 -0.07836738 0.02374794 0.11390807 0.11839342 0.036291447 -0.123889744 -0.16271916
-0.016561449 -0.10588673 0.23307739 0.13247488 -0.009864296 -0.11802729 -0.006004247 0.08718572
-0.04940308 0.08794223 0.12704928 -0.1195316 0.03688917 0.12129234 0.16630702 0.24253787
0.17923015 0.1439004 -0.13564254 0.14441723 0.080010824 0.123759545 0.14422126 -0.11986658
-0.002488479 -0.12449766 0.1541539 -0.17315738 -0.05365494 0.118520424 -0.13919348 -0.15041244
-0.021757126 -0.022796035 -0.004595816 -0.11045323 -0.015080944 0.13239585 0.107483014 0.076932564
0.11732219 0.038293615 0.1707796 0.052792072 -0.014970332 -0.06449028 0.16879575 -0.027433932
0.069038555 0.062309414 -0.009849697 -0.088866755 0.05411212 -0.17004289 -0.00703606 0.036953554
0.09458499 -0.054577697 -0.11858655 -0.1788007 0.106988944 -0.15401782 0.10427069 0.13894062
-0.11725238 0.19566704 0.082832284 0.16814974 0.11524443 0.1189768 0.087093115 0.11072586
-0.05561977 0.08830752 0.17294563 0.078382835 0.01553112 -0.121511064 0.068341 -0.2643859
-0.08794528 -0.079938635 -0.15553564 0.11283427 0.024738835 -0.27490458 0.15516795 -0.022854991
-0.1073624 0.15387039 0.107479826 -0.15341316 -0.051359877 0.08990802 0.12595648 -0.08608976
-0.005144548 -0.14950193 0.07357569 -0.03754716 0.15241928 -0.14718537 0.18072477 -0.21682751
0.02750982 -0.013817713 -0.013782561 -0.042004764 0.08025372 -0.12282207 0.13022779 0.10136397
-0.17698415 0.14438875 0.02986526 -0.086344935 0.054447487 0.2255271 0.042195022 -0.056556918
-0.14202127 0.094367705 -0.36980337 -0.098355904 -0.043363594 -0.13638565 0.15560172 -0.02139227
-0.0549209 0.184843 0.007921231 0.17207728 0.0947732 0.0064475015 0.071853094 -0.104018815
0.05671847 -0.038686547 0.11647784 0.15688024 -0.1216551 0.094308 0.15776525 -0.23157637
-0.031630173 -0.1423499 0.050805043 0.062907174 0.07098997 -0.29452017 -0.15105404 0.14351323
0.044062868 0.05848123 -0.22244473 -0.06054843 -0.018915506 -0.0883295 0.13806702 0.16491576
-0.17417201 0.19195253 -0.09066212 -0.0130658215 0.068225555 0.09284471 0.1327539 0.03573811
0.1633377 -0.14595354 0.06539113 0.08265621 -0.12783715 -0.13055567 -0.009651632 -0.21598099
0.21399443 -0.022510502 0.06665059 0.18863851 0.13444948 -0.051456552 -0.0562556 -0.15308337
0.09487288 0.088824466 -0.18403214 -0.0998765 0.20075737 -0.20779131 -0.15981193 0.13874595
0.18819919 -0.053454857 0.14661548 0.000115172625 -0.14899388 -0.075803176 -0.086146474 -0.0013121238
0.09918442 -0.117566 0.12525089 -0.13112125 -0.18969546 -0.09974629 0.012368149 -0.12735829
-0.0050806114 -0.021379396 0.18877208 -0.12725866 0.16941696 -0.14313118 0.075933926 0.065152176
-0.114624 0.110405594 -0.27714658 0.0938222 0.0946339 0.08121268 0.039417636 -0.13911667
-0.031863406 0.1268621 0.15219212 0.03924611 0.09696443 0.13101332 -0.048626166 0.123451576
0.057485305 -0.061416652 -0.09743194 0.082608186 0.07700596 0.055722296 0.15154935 -0.22716568
0.0946298 0.12985396 -0.14927725 0.14943801 -0.15552749 -0.21139401 0.16713774 -0.15541434

gain_net.dk_head.0.bias f4 [32]
00000000: 6e83 11bd 74f2 2dbe 5737 303d 4252 b93d
00000010: 9e5a d83d 2963 dfbb 204b 033e 7aa1 1c3e
00000020: 078c c0bd 63d0 3d3d 4f9c 9a3d 6b8d 01be
00000030: 2efc 76bd debf 4c3d 01d4 263c 227d 21be
00000040: 3e6f 173d d60a 17be 0496 1b3e 2a1f 4e3e
00000050: 7231 dc3d d8d5 33be c267 aabc 0d59 dc3d
00000060: b7eb ec3d 0429 77bd bc51 bdbd 4d46 a53d
00000070: ed3d 9f3d b666 57bd 904b 4f3b 985b 0abe
-0.03552573 -0.1698702 0.043021526 0.090488926 0.10564159 -0.0068172407 0.12821627 0.15295973
-0.09401708 0.04634131 0.07549345 -0.12651603 -0.06029909 0.049987666 0.010182382 -0.1577039
0.036971323 -0.14750227 0.15193945 0.20129076 0.107516184 -0.17562044 -0.020801429 0.107591726
0.115683965 -0.06034185 -0.09244105 0.080700494 0.07775483 -0.052588187 0.0031630732 -0.13511503
