results/run1/model_best.pt (torch, 50229 bytes, 22 tensors)

Q f4 [4, 4]
1e-05 0.0 0.0 0.0 0.0 1e-04 0.0 0.0
0.0 0.0 1e-06 0.0 0.0 0.0 0.0 1e-06
00000000: acc5 2737 0000 0000 0000 0000 0000 0000
00000010: 0000 0000 17b7 d138 0000 0000 0000 0000
00000020: 0000 0000 0000 0000 bd37 8635 0000 0000
00000030: 0000 0000 0000 0000 0000 0000 bd37 8635

R f4 [2, 2]
0.0025 0.0 0.0 0.0025
00000000: 0ad7 233b 0000 0000 0000 0000 0ad7 233b

wm f4 [9]
-0.5625 0.1953125 0.1953125 0.1953125 0.1953125 0.1953125 0.1953125 0.1953125
0.1953125
00000000: 0000 10bf 0000 483e 0000 483e 0000 483e
00000010: 0000 483e 0000 483e 0000 483e 0000 483e
00000020: 0000 483e

wc f4 [9]
1.7975 0.1953125 0.1953125 0.1953125 0.1953125 0.1953125 0.1953125 0.1953125
0.1953125
00000000: 7b14 e63f 0000 483e 0000 483e 0000 483e
00000010: 0000 483e 0000 483e 0000 483e 0000 483e
00000020: 0000 483e

gain_net.ln.weight f4 [20]
1.1101445 1.2477574 1.0736947 1.0876998 1.1521634 1.0918714 1.1237789 1.15444
1.0516617 1.073312 1.2055554 1.2410296 1.0846616 1.0829747 1.1399632 1.0735283
1.0322232 1.2723519 1.0044181 1.1572738
00000000: 3719 8e3f 84b6 9f3f d46e 893f bf39 8b3f
00000010: 177a 933f 71c2 8b3f fdd7 8f3f b1c4 933f
00000020: da9c 863f 4a62 893f a44f 9a3f 0fda 9e3f
00000030: 31d6 8a3f ea9e 8a3f 50ea 913f 6069 893f
00000040: e41f 843f 6ddc a23f c690 803f 8c21 943f

gain_net.ln.bias f4 [20]
-0.008098112 0.056167647 0.069488354 -0.051180996 0.052215714 0.040026166 0.03833787 0.030643838
-0.025893161 -0.024855707 -0.038593862 -0.038275227 -0.011911377 -0.046496745 0.033895895 -0.03270386
-0.10044413 -0.03932451 0.040039215 0.030448724
00000000: f2ad 04bc 0c10 663d e94f 8e3d 2aa3 51bd
00000010: 25e0 553d 7af2 233d 2c08 1d3d c908 fb3c
00000020: e51d d4bc 329e cbbc 9914 1ebd 7cc6 1cbd
00000030: f027 43bc 5f73 3ebd 6cd6 0a3d 7cf4 05bd
00000040: a7b5 cdbd bd12 21bd 2900 243d 9a6f f93c

gain_net.enc.0.weight f4 [32, 20]
0.13864648 -0.087965414 0.23520187 0.020473024 -0.22943908 0.11538131 0.09584815 -0.23877579
0.16624701 -0.16364124 -0.2735082 -0.30615503 -0.019129572 -0.11145672 0.11319148 0.09096782
-0.109872736 0.02199128 0.14887007 -0.0039637624 -0.17013815 -0.108125746 0.05754987 -0.14482684
-0.0975578 0.13942131 -0.025662778 0.15236375 -0.04304619 0.07556192 -0.11207367 -0.034153346
-0.21816409 0.14837411 -0.07653913 0.031435743 -0.2255633 -0.14778252 -0.1780063 -0.015015799
-0.15566535 0.17631409 -0.0638332 0.0653619 -0.14824396 0.017987115 -0.19676425 0.0813836
0.029460033 0.104311414 -0.010040033 0.10928668 0.080444485 0.05585138 0.11061159 0.14037408
0.18805814 0.008949796 0.14337397 -0.16366985 0.19235949 0.1443157 -0.15043104 -0.031195214
-0.07199211 -0.09965337 -0.22377653 -0.18813762 0.022719385 0.07905609 0.14289229 -0.16085486
0.14784285 -0.034025047 -0.13241209 0.011214882 0.018798549 0.14346097 0.08954552 0.21263042
0.1373092 -0.19186907 -0.17123967 -0.07547063 -0.15205178 0.0041252524 -0.21697782 -0.094382495
0.055195153 -0.20508286 -0.009579107 -0.21278875 -0.11220313 -0.050482616 -0.054538086 0.090141594
-0.14220196 -0.111471534 0.019054323 -0.16329718 -0.15383804 0.47336712 0.14826499 -0.04990318
-0.0057852194 -0.06496797 -0.2279571 0.16430143 -0.24592209 -0.050358526 0.065487795 -0.24198721
-0.08581314 -0.08640489 0.010581095 -0.16221382 -0.18259966 -0.04963449 -0.03150778 -0.20330997
-0.028334752 0.13600607 -0.039758038 -0.27602604 0.2387091 0.33643568 0.17661572 -0.037450623
-0.060993187 -0.09820761 -0.12023294 0.09551251 0.25648928 0.22762015 0.14897694 -0.08260257
-0.105304785 0.34073225 0.16199079 -0.10356165 -0.22299069 0.122015566 -0.06480472 0.040787548
-0.17038834 -0.08041121 -0.19014466 0.08658409 0.08566332 0.00089004636 -0.048382416 0.17200544
0.16567796 -0.21476519 -0.11298785 0.10610688 0.21702191 -0.009065896 0.00020031631 -0.12386892
0.25000447 0.022931376 -0.07945973 -0.12061286 -0.059626102 0.1986315 0.08534912 0.18547489
-0.26142266 -0.12299987 -0.08891972 -0.20164758 -0.10499738 0.08619311 0.020148164 -0.09332579
0.09290146 0.306418 0.041473698 -0.19241801 -0.0062356642 0.29791048 -0.013405546 -0.0812726
0.2609012 -0.028209979 0.1933761 0.012888832 -0.13811001 -0.14418364 -0.0024623494 -0.08484378
0.21572092 0.10588411 0.28055647 0.12609114 0.17236914 0.11913791 0.058534034 -0.27674323
0.11364755 0.35102344 0.08527448 0.15610361 -0.06235468 0.021672731 0.19953856 -0.22659732
0.0054068053 0.007103683 -0.24697904 -0.035492055 0.13022903 0.03776335 0.05593333 0.18146993
-0.034922224 0.23616128 0.046310864 -0.025906308 -0.18046765 0.08849564 -0.12724896 0.08403179
-0.20453845 -0.04617034 0.16336706 -0.19717896 -0.153391 0.0303092 -0.15012857 0.081961185
-0.13681501 -0.17287514 -0.0965112 0.10600537 -0.059954315 0.20299992 0.088923275 0.16349506
0.22566068 -0.031228412 -0.07353692 -0.27473858 0.2186444 0.26051113 0.09187332 0.37436533
-0.031195452 -0.30590108 0.07704457 -0.018938767 -0.005469442 0.18746677 0.19880338 0.0898279
00000000: 58f9 0d3e 3627 b4bd c2d8 703e 0bb7 a73c
00000010: 14f2 6abe 094d ec3d 094c c43d a481 74be
00000020: a83c 2a3e 9291 27be 4409 8cbe 5ac0 9cbe
00000030: 9fb5 9cbc 6c43 e4bd efd0 e73d 564d ba3d
00000040: f504 e1bd 0f27 b43c 6571 183e 73e2 81bb
00000050: b238 2ebe 0871 ddbd 6ab9 6b3d 7d4d 14be
00000060: 62cc c7bd 76c4 0e3e bf3a d2bc 3e05 1c3e
00000070: 3451 30bd 35c0 9a3d e186 e5bd 61e4 0bbd
00000080: 6866 5fbe 62ef 173e 8cc0 9cbd c4c2 003d
00000090: 11fa 66be 4d54 17be 4947 36be d304 76bc
000000a0: bd66 1fbe ae8b 343e fbba 82bd 76dc 853d
000000b0: 44cd 17be b759 933c 917c 49be 72ac a63d
000000c0: 2b56 f13c 39a1 d53d f37e 24bc b2d1 df3d
000000d0: 14c0 a43d 6bc4 643d 5488 e23d 39be 0f3e
000000e0: 5092 403e 2aa2 123c a0d0 123e 1299 27be
000000f0: e3f9 443e 7fc7 133e 980a 1abe 1b8d ffbc
00000100: 9970 93bd 1117 ccbd ad25 65be 26a7 40be
00000110: 011e ba3c 29e8 a13d 5b52 123e 23b7 24be
00000120: 1e64 173e d95d 0bbd 0997 07be a0be 373c
00000130: 6aff 993c 6fe7 123e a463 b73d cabb 593e
00000140: c89a 0c3e 5379 44be 7459 2fbe 5890 9abd
00000150: 76b3 1bbe 202d 873b 6f2f 5ebe 9c4b c1bd
00000160: 5014 623d 3e01 52be b0f1 1cbc 4be5 59be
00000170: c1ca e5bd dcc6 4ebd 5463 5fbd 289c b83d
00000180: 649d 11be 304b e4bd d017 9c3c 6037 27be
00000190: b887 1dbe 2d5d f23e c7d2 173e 4767 4cbd
000001a0: f091 bdbb ed0d 85bd 966d 69be a23e 283e
000001b0: 00d3 7bbe be44 4ebd 771e 863d 7fcb 77be
000001c0: cdbe afbd 0cf5 b0bd 545c 2d3c 611b 26be
000001d0: 68fb 3abe 894d 4bbd 4d0e 01bd 7d30 50be
000001e0: 481e e8bc 2d45 0b3e 53d9 22bd 4953 8dbe
000001f0: 2970 743e 4c41 ac3e c0da 343e d365 19bd
00000200: fed3 79bd 1221 c9bd b03c f6bd 109c c33d
00000210: 9052 833e 4215 693e 698d 183e 892b a9bd
00000220: 09aa d7bd 7574 ae3e eae0 253e 2118 d4bd
00000230: ac57 64be 4ce3 f93d 56b8 84bd d810 273d
00000240: 487a 2ebe a2ae a4bd 48b5 42be 0053 b13d
00000250: 4070 af3d 0052 693a a42c 46bd 3222 303e
00000260: 7ca7 293e 68eb 5bbe 2d66 e7bd 904e d93d
00000270: fe3a 5e3e 2089 14bc 000c 5239 fdae fdbd
00000280: 9600 803e 95da bb3c c8bb a2bd e003 f7bd
00000290: 803a 74bd 0e66 4b3e 85cb ae3d 21ed 3d3e
000002a0: 31d9 85be 5be7 fbbd 8b1b b6bd b47c 4ebe
000002b0: de08 d7bd 0386 b03d c30d a53c 9721 bfbd
000002c0: 1f43 be3d d2e2 9c3e 53e0 293d 3a09 45be
000002d0: 8b54 ccbb b987 983e efa2 5bbc 4072 a6bd
000002e0: d894 853e 9d18 e7bc 6204 463e ae2b 533c
000002f0: b66c 0dbe e0a4 13be 5e5f 21bb 93c2 adbd
00000300: f2e5 5c3e c5d9 d83d 19a5 8f3e 091e 013e
00000310: 8981 303e 94fe f33d 62c1 6f3d 4ab1 8dbe
00000320: 0cc0 e83d 58b9 b33e 63a4 ae3d a0d9 1f3e
00000330: 9f67 7fbd 038b b13c d653 4c3e 2109 68be
00000340: 922b b13b 03c6 e83b 13e8 7cbe 1e60 11bd
00000350: c25a 053e bead 1a3d 591a 653d 41d3 393e
00000360: 9b0a 0fbd 43d4 713e 76b0 3d3d 7739 d4bc
00000370: 83cc 38be 343d b53d 8d4d 02be dc18 ac3d
00000380: 8772 51be 1c1d 3dbd b249 273e 48e9 49be
00000390: 8812 1dbe 004b f83c 4ebb 19be 44db a73d
000003a0: 3c19 0cbe 2e06 31be aaa7 c5bd 5819 d93d
000003b0: a892 75bd 36df 4f3e 681d b63d 406b 273e
000003c0: 9813 673e bad2 ffbc 869a 96bd 89aa 8cbe
000003d0: 51e4 5f3e b761 853e 1428 bc3d d0ac bf3e
000003e0: 9b8d ffbc 119f 9cbe 8bc9 9d3d 7925 9bbc
000003f0: 0139 b3bb 4af7 3f3e 1d93 4b3e b1f7 b73d

gain_net.enc.0.bias f4 [32]
0.0046896525 -0.0536771 0.18289307 -0.10853285 -0.14325705 0.06333447 -0.018212507 -0.22001463
0.20904309 0.09739115 0.17161895 -0.114757285 0.19394895 -0.042141117 0.083443806 0.22609659
-0.0600189 0.17783459 0.16249706 0.23750645 0.25628406 -0.012452376 0.2153382 0.09439195
0.09535632 -0.08451512 -0.1628638 -0.081265 -0.111350305 0.20101209 0.22198041 0.09301314
00000000: a8ab 993b 85dc 5bbd 5248 3b3e 7946 debd
00000010: fab1 12be 81b5 813d 6532 95bc 844b 61be
00000020: 640f 563e 0375 c73d e1bc 2f3e de05 ebbd
00000030: 8e9a 463e 2a9c 2cbd 96e4 aa3d dd85 673e
00000040: 61d6 75bd 451a 363e a165 263e e434 733e
00000050: aa37 833e 0d05 4cbc 9e81 5c3e 9150 c13d
00000060: 2d4a c33d 4316 adbd c5c5 26be 446e a6bd
00000070: a10b e4bd 1dd6 4d3e d54e 633e ac7d be3d

gain_net.enc.2.weight f4 [32, 32]
-0.07107039 0.1327735 0.13583502 0.10761238 0.1610633 -0.019901115 0.22534831 -0.17336081
0.025089376 -0.014662079 -0.09314726 -0.10124571 0.0048559625 0.18744387 -0.09362268 -0.28888512
0.11247185 0.21567568 -0.20342794 -0.0014677086 0.1403425 0.17983244 -0.12266212 -0.08832622
-0.098389536 0.0072936104 -0.01262486 -0.0058344216 -0.15292418 0.13765955 0.21640854 0.13397029
0.083508655 0.078957535 -0.16109559 -0.08692237 0.11390056 0.19531547 -0.09335703 0.09772681
-0.12658545 0.104067445 -0.00022747484 0.097923025 -0.108554 -0.03521442 0.23082457 0.24566986
-0.13512121 -0.09809521 -0.115084566 -0.003887224 0.10085961 0.07506813 0.14308557 -0.065060034
-0.059346177 0.12223618 -0.109317645 0.034863368 -0.11759746 -0.103631794 0.12866935 0.0077421824
-0.0016703117 0.083934754 -0.06940205 -0.17523302 0.15653567 0.026488895 -0.10513982 0.053618446
0.09254078 0.10405665 -0.039581846 -0.084251404 0.12509462 0.10310559 0.013844218 0.16218296
0.033900507 -0.14984038 -0.026984304 -0.08529281 0.11773663 0.033333894 -0.04894213 -0.028785665
-0.118842185 0.1235482 0.040962547 0.014420461 0.03230948 0.0923444 0.135396 0.01854156
-0.1392908 -0.03860918 -0.0652453 0.0032219724 -0.084745996 0.12575933 -0.043304525 -0.090697676
0.16958393 0.063769504 -0.027657086 0.072132856 0.17124818 0.035662867 0.14155808 0.11240686
0.16689767 0.14036465 0.046826754 -0.15155782 0.2727563 0.13574836 0.19897276 -0.05229046
0.1343341 0.03611034 -0.16667123 -0.044076473 -0.033801984 0.19487591 -0.03628895 -0.07676678
0.21224032 0.091910064 0.14561139 0.09904341 -0.096033975 0.05618523 -0.043824382 0.07341261
0.20059285 0.14308561 0.29876 0.062859565 -0.04714779 0.06472291 0.063771844 0.06750853
-0.05779166 0.09857593 0.07100879 0.20938057 -0.05310804 -0.009116243 0.12093451 4.0630242e-05
0.24349792 0.16330947 0.095349446 0.24560656 0.11185675 0.18902338 0.24963835 -0.084774904
0.012941307 0.1122932 -0.012271046 -0.0032532993 -0.017965183 0.19204716 0.05884429 0.010420099
-0.07552804 0.16465968 -0.022336466 -0.1385655 -0.24347387 -0.04390975 0.07332083 0.044398244
-0.039626762 0.09056772 0.0008124697 -0.1139735 -0.16495737 -0.10406168 -0.11207381 0.19680302
-0.14151019 0.25892326 0.019609898 0.22726439 -0.12726925 0.0998581 -0.07453465 0.05152462
0.008526534 0.11306669 0.07822074 -0.16931713 0.03227617 0.056953967 0.030557409 0.087489024
0.15582721 -0.064759366 -0.15777825 -0.16187732 -0.116934046 0.08530335 -0.01373817 0.11272533
0.17175986 -0.009287313 -0.1444156 0.1469749 -0.12303276 0.17200519 -0.082984485 -0.17314197
-0.14390117 -0.11284631 0.09784956 -0.10804505 -0.1412231 0.013543621 -0.16710138 0.109067425
-0.01311537 -0.1560967 -0.107161775 -0.07132129 0.025969833 0.12638102 -0.11870706 -0.0016776621
-0.1402394 -0.056094125 -0.12625515 -0.11360145 -0.0719187 0.11677205 -0.15233506 0.10741486
0.00091698766 0.039217383 -0.16253763 -0.0075035444 -0.003369122 -0.1289809 0.06554468 -0.016668336
-0.13574336 -0.07529305 -0.011775032 0.08289448 0.08660462 0.020351237 -0.14494742 -0.00316976
00000000: 5a8d 91bd c7f5 073e 5618 0b3e e163 dc3d
00000010: c7ed 243e aa07 a3bc b5c1 663e 7f85 31be
00000020: 3c88 cd3c 3739 70bc fec3 bebd e959 cfbd
00000030: c41e 9f3b 49f1 3f3e 3fbd bfbd c0e8 93be
00000040: a457 e63d 16da 5c3e 6a4f 50be 2160 c0ba
00000050: f2b5 0f3e ff25 383e 4736 fbbd 61e4 b4bd
00000060: 7480 c9bd 3dff ee3b 80d8 4ebc ad2e bfbb
00000070: 2898 1cbe a0f6 0c3e 339a 5d3e 822f 093e
00000080: 9606 ab3d 7db4 a13d 3ef6 24be 5b04 b2bd
00000090: b244 e93d c700 483e f831 bfbd fe24 c83d
000000a0: 9e9f 01be 5021 d53d 5086 6eb9 de8b c83d
000000b0: 8f51 debd ff3c 10bd 475d 6c3e e190 7b3e
000000c0: 375d 0abe 24e6 c8bd 75b1 ebbd ccc0 7ebb
000000d0: 7c8f ce3d 52bd 993d 0685 123e 323e 85bd
000000e0: fa14 73bd f656 fa3d eee1 dfbd e4cc 0e3d
000000f0: f0d6 f0bd e83c d4bd e6c1 033e 22b2 fd3b
00000100: 5cee daba fce5 ab3d a922 8ebd 4970 33be
00000110: e34a 203e 3dff d83c 8c53 d7bd 049f 5b3d
00000120: 0586 bd3d a71b d53d 9320 22bd 008c acbd
00000130: ce18 003e 0629 d33d dcd2 623c 4a13 263e
00000140: 42db 0a3d c26f 19be 300e ddbc ffad aebd
00000150: e71f f13d 1f89 083d 8b77 48bd eacf ebbc
00000160: 8863 f3bd d706 fd3d 58c8 273d cc43 6c3c
00000170: f256 043d 101f bd3d 40a5 0a3e 78e4 973c
00000180: 3fa2 0ebe a924 1ebd 549f 85bd ba27 533b
00000190: 4f8f adbd 0ec7 003e 1660 31bd b4bf b9bd
000001a0: 69a7 2d3e 9699 823d 1d91 e2bc 64ba 933d
000001b0: af5b 2f3e 3a13 123d 9af4 103e 9135 e63d
000001c0: 39e7 2a3e c0bb 0f3e 69cd 3f3d f931 1bbe
000001d0: b7a6 8b3e 9e01 0b3e 84bf 4b3e 852e 56bd
000001e0: e18e 093e 70e8 133d ddab 2abe 8889 34bd
000001f0: f373 0abd 8d8d 473e b9a3 14bd e737 9dbd
00000200: 8755 593e 583b bc3d 271b 153e 45d7 ca3d
00000210: 76ad c4bd 7c22 663d 3281 33bd 5a59 963d
00000220: 3668 4d3e 0985 123e 12f7 983e 84bc 803d
00000230: 0b1e 41bd 728d 843d d09a 823d ea41 8a3d
00000240: f3b6 6cbd 2de2 c93d 0e6d 913d dc67 563e
00000250: d187 59bd 4b5c 15bc 83ac f73d 646a 2a38
00000260: 8557 793e 993a 273e 9246 c33d 4980 7b3e
00000270: 2715 e53d 588f 413e 32a1 7f3e 779e adbd
00000280: c707 543c faf9 e53d 7f0c 49bc 4e35 55bb
00000290: b82b 93bc 03a8 443e b606 713d 10b9 2a3c
000002a0: 72ae 9abd 8c9c 283e f7fa b6bc 1de4 0dbe
000002b0: 3751 79be b6da 33bd 3b29 963d efda 353d
000002c0: ac4f 22bd 927b b93d ebfb 543a f06a e9bd
000002d0: 96ea 28be 4a1e d5bd f486 e5bd bb86 493e
000002e0: 0ce8 10be 9791 843e f0a4 a03c ffb7 683e
000002f0: df52 02be 6782 cc3d 9fa5 98bd 7b0b 533d
00000300: e0b2 0b3c 828f e73d 3232 a03d 7861 2dbe
00000310: 0434 043d 9048 693d 8853 fa3c 722d b33d
00000320: 2b91 1f3e 8fa0 84bd 9f90 21be 2bc3 25be
00000330: 1e7b efbd 86b3 ae3d 1016 61bc 8adc e63d
00000340: d1e1 2f3e d029 18bc afe1 13be 9780 163e
00000350: 9af8 fbbd 2122 303e c5f3 a9bd 214c 31be
00000360: d45a 13be f71b e7bd 5a65 c83d b946 ddbd
00000370: ca9c 10be 10e6 5d3c a01c 2bbe be5e df3d
00000380: d9e1 56bc d0d7 1fbe a277 dbbd e610 92bd
00000390: b0be d43c 076a 013e b01c f3bd 00e5 dbba
000003a0: eb9a 0fbe f4c2 65bd 0849 01be e1a7 e8bd
000003b0: 1d4a 93bd 2f26 ef3d b9fd 1bbe 52fc db3d
000003c0: 0062 703a 68a2 203d 4470 26be 4be0 f5bb
000003d0: 7dcc 5cbb 9213 04be 4a3c 863d 098c 88bc
000003e0: 4f00 0bbe 3e33 9abd 10ec 40bc 95c4 a93d
000003f0: c35d b13d a3b7 a63c 196d 14be c0bb 4fbb

gain_net.enc.2.bias f4 [32]
-0.16229342 -0.10316775 0.011875186 -0.098037586 0.20349891 0.12138518 -0.08028214 0.1302903
0.23178178 0.049562577 0.056175593 0.00032457185 -0.124746725 -0.031467624 -0.15589744 0.01564135
0.034516796 -0.01982062 -0.07165512 0.03322236 0.10639258 0.038793467 -0.117468536 -0.17712209
0.12901983 0.1917382 0.16394567 0.070736095 -0.045979552 0.1927054 -0.13469985 0.015814317
00000000: 3f30 26be 9d49 d3bd 2490 423c eec7 c8bd
00000010: 0562 503e cb98 f83d f66a a4bd d26a 053e
00000020: 3458 6d3e 2102 4b3d 6118 663d 4c2b aa39
00000030: 367b ffbd 32e4 00bd 94a3 1fbe 4a22 803c
00000040: 7c61 0d3d da5e a2bc ebbf 92bd 2b14 083d
00000050: 5ae4 d93d e6e5 1e3d 5893 f0bd 7e5f 35be
00000060: c61d 043e 0557 443e 60e1 273e 16de 903d
00000070: 0e55 3cbd 9054 453e c2ee 09be 078d 813c

gain_net.gru.weight_ih f4 [96, 32]
-0.08889436 0.043137643 0.02108515 0.13799903 0.23371524 -0.127371 -0.12907842 -0.15336132
0.055875883 0.14606407 0.049955323 -0.076077916 0.0395396 0.16866131 -0.15536015 0.1238163
0.048583135 0.079470284 0.01942689 0.1606167 0.20680666 0.072351456 0.047187693 0.08358036
0.15332755 0.049195502 0.19689822 0.013686949 -0.02126705 0.18784168 -0.10588142 -0.08350997
-0.23076622 -0.24268655 0.024950534 -0.21457316 -0.27393654 -0.313104 -0.030622885 0.09984031
0.08794026 -0.37470457 -0.058324672 -0.011689452 -0.13499884 -0.09669963 0.13765697 0.171149
0.13623466 -0.1502602 0.09535017 0.07610648 -0.30133918 0.19032843 0.059138734 0.03261172
-0.104666606 0.020277802 0.041854657 -0.039253674 -0.001016337 0.008455006 -0.07641679 -0.15402775
0.16564651 -0.12191725 -0.0149588045 -0.10831325 0.21310495 0.050175186 -0.15500842 -0.13605946
-0.015181343 -0.026530439 0.05389977 -0.174509 0.1769399 0.1261707 0.043868363 0.14145109
0.027565747 0.032601442 -0.11145616 0.07751946 0.09015693 0.12661263 -0.07812909 -0.16386065
-0.008485358 -0.059045624 -0.033464644 0.14370015 -0.04461509 0.14278385 0.115488105 -0.012789559
0.018519426 0.08887403 0.09466153 0.104883395 -0.11345163 -0.05128066 -0.09409134 -0.12588291
0.0068810484 0.24202931 0.019437214 0.17403583 0.051254094 -0.02453985 0.09519826 0.065617226
0.11871122 -0.11548767 0.06347025 0.20601434 0.19968544 0.06169613 -0.02345819 0.14163859
-0.11941764 -0.086222574 0.15093336 0.173865 -0.02203445 0.09441134 0.1496907 0.097691804
0.17668092 -0.0027944085 0.024659313 0.17010973 0.1075568 -0.1386743 0.13412066 -0.108891204
0.15675238 -0.013047414 0.10799242 0.0052990657 -0.095121995 0.18132849 0.06366575 -0.037721325
0.1380461 -0.0017540926 0.059475563 -0.08408547 -0.07501437 0.0755785 -0.10120509 0.059691757
0.22074938 0.2338557 -0.057209406 -0.11534107 -0.04637526 -0.23212714 0.06727319 -0.12977861
0.08831725 0.15170051 0.22611445 -0.05472026 -0.014438571 -0.00029052206 -0.17539003 0.104684256
0.19871683 0.24449022 -0.13334057 0.07092892 0.0757206 -0.07635974 0.17556109 0.09248822
-0.034824803 0.17334114 0.18513116 0.08716604 0.015697973 -0.014798354 0.050293613 0.038238797
-0.016557684 0.16125087 0.020469058 0.15780002 0.018724428 0.20918298 0.047902577 0.013361127
-0.014623485 -0.0026652804 0.04335193 0.1132819 0.0065639922 -0.12183015 0.017078996 -0.044452693
0.11362863 0.055503055 0.12779585 -0.057248645 0.046070445 -0.14745982 0.046672344 -0.044147283
-0.104882665 0.12570393 0.12039047 -0.19042148 0.14426811 -0.18614683 0.11109436 0.048574768
0.124525346 -0.18859106 -0.023293996 -0.0109419655 0.032318376 0.22798547 0.105438285 -0.115494564
-0.04690267 -0.03559333 -0.04266728 0.18516025 0.19525401 -0.025493681 0.12221672 0.057577796
-0.03710948 0.22368753 0.057854872 -0.12908846 -0.021762937 0.014015098 -0.026535973 -0.010986818
-0.17674239 0.21326599 0.02810279 0.14627206 0.2186891 0.09489342 -0.08321266 0.12089045
-0.022383755 -0.108516395 -0.123191826 -0.12439787 0.060811974 0.13382114 0.16093855 0.05594547
00000000: 3f0e b6bd 19b1 303d c4ba ac3c 9e4f 0d3e
00000010: 0c53 6f3e 8b6d 02be 222d 04be c00a 1dbe
00000020: 1cde 643d d291 153e f49d 4c3d bdce 9bbd
00000030: 47f4 213d 8db5 2c3e bb16 1fbe 6693 fd3d
00000040: 1cff 463d 51c1 a23d 2425 9f3c b478 243e
00000050: 20c5 533e 002d 943d e247 413d 2e2c ab3d
00000060: e601 1d3e 3981 493d b09f 493e 3a3f 603c
00000070: 3d38 aebc 9259 403e 5cd8 d8bd 4607 abbd
00000080: fb4d 6cbe d382 78be 1065 cc3c 11b9 5bbe
00000090: 6941 8cbe 2b4f a0be d8dc fabc 1479 cc3d
000000a0: 061a b43d 47d9 bfbe dae5 6ebd 1e85 3fbc
000000b0: 233d 0abe 750a c6bd f3f5 0c3e af41 2f3e
000000c0: 1981 0b3e cfdd 19be f346 c33d b7dd 9b3d
000000d0: 2149 9abe 75e5 423e 753b 723d de93 053d
000000e0: 725b d6bd a21d a63c ca6f 2b3d 76c8 20bd
000000f0: 9c36 85ba de86 0a3c 6880 9cbd 73b9 1dbe
00000100: 3d9f 293e c0af f9bd c615 75bc 56d3 ddbd
00000110: 2f38 5a3e 7f84 4d3d 87ba 1ebe 2c53 0bbe
00000120: 2bbb 78bc 5d56 d9bc 01c6 5c3d 7db2 32be
00000130: bc2f 353e e432 013e 50af 333d 8ed8 103e
00000140: 90d1 e13c 1789 053d 2143 e4bd 86c2 9e3d
00000150: 32a4 b83d bea6 013e 2502 a0bd 16cb 27be
00000160: 2c06 0bbc d3d9 71bd 3912 09bd 2226 133e
00000170: 50be 36bd ee35 123e 0785 ec3d 4c8b 51bc
00000180: 0db6 973c 9603 b63d e7dd c13d 1bcd d63d
00000190: 5459 e8bd ab0b 52bd f6b2 c0bd 73e7 00be
000001a0: 6b7a e13b 88d6 773e cb3a 9f3c 7336 323e
000001b0: d0ef 513d cc07 c9bc 4ef7 c23d 5362 863d
000001c0: de1e f33d cd84 ecbd b1fc 813d 6cf5 523e
000001d0: 577a 4c3e 15b5 7c3d 642b c0bc b509 113e
000001e0: 3c91 f4bd 7695 b0bd 468e 1a3e ab09 323e
000001f0: 9781 b4bc bc5a c13d 8548 193e a412 c83d
00000200: d8eb 343e 6522 37bb 5402 ca3c 3f31 2e3e
00000210: bd46 dc3d a300 0ebe ed56 093e 5a02 dfbd
00000220: b283 203e d2c4 55bc 212b dd3d c9a3 ad3b
00000230: 52cf c2bd 2dae 393e 3063 823d ad81 1abd
00000240: f55b 0d3e 95e9 e5ba a69c 733d 0135 acbd
00000250: 22a1 99bd e7c8 9a3d 9d44 cfbd 587f 743d
00000260: 200c 623e de77 6f3e 6954 6abd f037 ecbd
00000270: fcf3 3dbd bdb2 6dbe 87c6 893d afe4 04be
00000280: addf b43d 6157 1b3e 8c8a 673e 5a22 60bd
00000290: c28f 6cbc 3651 98b9 7299 33be b364 d63d
000002a0: 6d7c 4b3e a55b 7a3e 6e8a 08be 2e43 913d
000002b0: 6713 9b3d 7f62 9cbd 49c6 333e 776a bd3d
000002c0: 74a4 0ebd 5780 313e 0693 3d3e 1c84 b23d
000002d0: 0999 803c cc74 72bc ad00 4e3d 49a0 1c3d
000002e0: fba3 87bc f31e 253e baae a73c 5496 213e
000002f0: f963 993c 1034 563e 7e35 443d a1e8 5a3c
00000300: 5797 6fbc fcab 2ebb cb91 313d 5700 e83d
00000310: c216 d73b 1682 f9bd 40e9 8b3c 0714 36bd
00000320: 21b6 e83d 2c57 633d eadc 023e 8e7d 6abd
00000330: 5db4 3c3d b5ff 16be 802b 3f3d c8d3 34bd
00000340: b9cc d6bd 88b8 003e 478f f63d d9fd 42be
00000350: 05bb 133e 469d 3ebe 7185 e33d 56f6 463d
00000360: 2507 ff3d 041e 41be 0dd3 bebc ee45 33bc
00000370: 4660 043d 0675 693e 07f0 d73d 6a88 ecbd
00000380: 041d 40bd 50ca 11bd e3c3 2ebd a69a 3d3e
00000390: abf0 473e 20d8 d0bc c24c fa3d b2d6 6b3d
000003a0: 1c00 18bd 580e 653e 3bf9 6c3d c42f 04be
000003b0: 3048 b2bc 959f 653c f861 d9bc 0e02 34bc
000003c0: f5fb 34be 6662 5a3e d237 e63c 58c8 153e
000003d0: 09f0 5f3e 7b57 c23d 666b aabd 6a95 f73d
000003e0: 235e b7bc d83d debd ff4b fcbd 4fc4 febd
000003f0: fa15 793d 6908 093e 13cd 243e 1427 653d

gain_net.gru.weight_hh f4 [96, 32]
0.09449517 0.04767249 0.06285306 -0.18739755 -0.1773618 -0.027725069 -0.05205214 0.13112141
0.05188792 -0.08484492 0.10198021 -0.06650318 0.21284261 0.21354252 -0.013866232 0.1275389
-0.017884415 -0.09120496 -0.16795339 -0.12226416 -0.22807471 0.13510944 -0.13408883 -0.12342393
0.13108328 -0.15411963 -0.046487033 0.092505254 -0.14818028 -0.03273526 -0.041174695 -0.065622285
-0.12762871 -0.07416826 -0.20132767 0.14184885 -0.07066732 0.04999435 0.12272827 0.078547895
0.009059159 -0.030809542 0.12487219 0.20023985 0.041970603 -0.056893572 -0.06430461 -0.11083864
0.15543504 0.00669157 0.21132568 0.09658889 0.00095104304 -0.15579914 -0.034138132 -0.023828924
0.049253903 -0.113082305 0.09035467 0.03209324 -0.1435524 0.011529104 -0.221302 -0.030201025
0.0025674936 0.108882196 0.16456382 0.13376206 -0.07528412 -0.11165468 -0.0864159 -0.0019003837
-0.18108349 0.023864059 0.19429737 -0.013140313 0.1790775 0.0057042614 0.060304675 -0.08329625
-0.14115351 0.04869522 0.06004193 0.059706993 0.043374225 0.079105675 -0.03386608 -0.0053931833
0.071395025 -0.19725798 0.05844113 -0.11280937 0.04200514 -0.057006367 -0.09699524 0.037463617
-0.01781225 -0.048383933 0.21852222 -0.12525336 0.015864259 0.10870828 -0.06891611 0.16922157
0.05836775 0.079283476 0.08777873 -0.06019702 0.11366555 0.022083638 0.108768724 -0.13260329
0.110250145 0.044177152 -0.21365264 0.07084922 -0.033302635 -0.043737724 -0.09048631 -0.0076411604
0.1750512 -0.11490016 0.12086084 -0.030142572 0.11768071 -0.09999694 -0.11633025 -0.21723907
0.11330424 0.23658639 0.009478278 0.0754165 0.73633456 0.07415209 -0.103624515 -0.0575891
-0.017379254 0.04151411 0.11076866 -0.032304853 0.018846788 0.1446619 -0.28694126 -0.13362916
-0.19624521 0.087779954 0.1119409 0.021883762 0.1282836 -0.14608727 -0.1692829 0.05561572
-0.013708746 -0.112876505 -0.4351569 -0.016937088 0.32491413 -0.12660019 -0.12295566 -0.092979334
-0.20981687 -0.03407318 0.08544738 -0.17663519 0.017643694 -0.16488077 -0.08911728 0.028759237
-0.013030355 -0.027662782 -0.03254591 -0.032796733 0.13910507 0.0802178 0.1894698 0.045694895
-0.057204038 -0.0034551178 0.10693927 -0.14046511 0.054165926 -0.073102966 -0.02761011 -0.026858304
-0.065539144 0.06270478 0.05357837 -0.024083199 -0.06505224 -0.047651425 0.20361972 -0.1757909
0.099109925 0.06661735 -0.15673085 -0.08418987 -0.15286946 0.07610625 -0.049248528 0.1856997
0.16574666 0.052780874 0.07932763 0.029154232 0.044584908 0.055199347 0.1711455 -0.012240819
-0.059620474 0.027448054 -0.026291378 -0.17336003 0.030778669 0.04980122 -0.095319726 -0.09259838
0.061719984 0.024485271 -0.08203341 -0.17206417 -0.12191451 -0.14633492 -0.022332227 0.087885655
-0.12085977 0.002229962 -0.07676719 -0.074744865 -0.22049464 0.09614329 0.09238791 0.0065687187
0.06108676 0.09519123 0.14945932 0.12329551 0.10346629 0.1704103 -0.036357276 -0.08014095
-0.12965381 0.07251484 -0.10148694 0.0709556 -0.038333263 0.15500364 -0.1535813 0.17213449
0.06269118 0.12411614 0.19420168 -0.198957 -0.046983436 0.07904192 0.20874584 -0.13525572
00000000: af86 c13d 3b44 433d 1bb9 803d 25e5 3fbe
00000010: 559e 35be af1f e3bc a034 55bd b144 063e
00000020: 6d88 543d 2cc3 adbd 00db d03d d232 88bd
00000030: 6af3 593e e4aa 5a3e 312f 63bc 8f99 023e
00000040: 5682 92bc abc9 babd f9fb 2bbe a265 fabd
00000050: 6b8c 69be 215a 0a3e 954e 09be afc5 fcbd
00000060: b23a 063e 89d1 1dbe 3069 3ebd 6573 bd3d
00000070: 92bc 17be 6815 06bd cca6 28bd fa64 86bd
00000080: 1ab1 02be 87e5 97bd d728 4ebe d340 113e
00000090: 07ba 90bd e0c6 4c3d f658 fb3d b8dd a03d
000000a0: de6c 143c 4b64 fcbc febc ff3d ad0b 4d3e
000000b0: 5ee9 2b3d 3c09 69bd 23b2 83bd 5eff e2bd
000000c0: 5d2a 1f3e f544 db3b c265 583e 65d0 c53d
000000d0: 6b4f 793a cf89 1fbe 6dd4 0bbd e034 c3bc
000000e0: 76be 493d b297 e7bd df0b b93d 3474 033d
000000f0: 66ff 12be 91e4 3c3c fe9c 62be 2468 f7bc
00000100: 6543 283b a1fd de3d 6b83 283e ecf8 083e
00000110: 902e 9abd 35ab e4bd d2fa b0bd 4c16 f9ba
00000120: f36d 39be 8f7e c33c e4f5 463e 784a 57bc
00000130: 1860 373e d0ea ba3b 0902 773d 3997 aabd
00000140: 8c8a 10be a474 473d 87ee 753d 528f 743d
00000150: 2ca9 313d 2802 a23d 29b7 0abd 4db9 b0bb
00000160: 8e37 923d fffd 49be f75f 6f3d 9908 e7bd
00000170: 950d 2c3d 827f 69bd 71a5 c6bd 7373 193d
00000180: ffea 91bc 3b2e 46bd 4ac4 5f3e 6b42 00be
00000190: c3f5 813c 72a2 de3d e423 8dbd 6b48 2d3e
000001a0: 0613 6f3d 605f a23d 56c5 b33d 2791 76bd
000001b0: 7cc9 e83d bfe8 b43c 23c2 de3d 28c9 07be
000001c0: d4ca e13d 1af3 343d c2c7 5abe 6519 913d
000001d0: 5868 08bd 5426 33bd e350 b9bd b362 fabb
000001e0: 9f40 333e c650 ebbd e385 f73d 8eed f6bc
000001f0: 9602 f13d 32cb ccbd 8e3e eebd eb73 5ebe
00000200: 0e0c e83d b443 723e c84a 1b3c f773 9a3d
00000210: 6c80 3c3f 0ddd 973d 1739 d4bd 8ce2 6bbd
00000220: f05e 8ebc b30a 2a3d aeda e23d 1852 04bd
00000230: 9464 9a3c 4022 143e f7e9 92be 15d6 08be
00000240: 81f4 48be fac5 b33d 4541 e53d 9345 b33c
00000250: c75c 033e e797 15be 7f58 2dbe 4fcd 633d
00000260: a69a 60bc cc2b e7bd e3cc debe a6bf 8abc
00000270: 255b a63e 7ba3 01be 2dd0 fbbd f36b bebd
00000280: 3cda 56be 5290 0bbd 09ff ae3d dbdf 34be
00000290: 8289 903c 81d6 28be 1f83 b6bd 7e98 eb3c
000002a0: 457d 55bc 0f9d e2bc dc4e 05bd de55 06bd
000002b0: 8f71 0e3e 3b49 a43d 5f04 423e 922a 3b3d
000002c0: c84e 6abd 426f 62bb fa02 db3d 16d6 0fbe
000002d0: 17dd 5d3d 02b7 95bd 992e e2bc f205 dcbc
000002e0: 6339 86bd 5d6b 803d fe74 5b3d 214a c5bc
000002f0: 1c3a 85bd 242e 43bd b081 503e 8802 34be
00000300: 25fa ca3d ad6e 883d 0d7e 20be bd6b acbd
00000310: d089 1cbe 98dd 9b3d d3b8 49bd 1028 3e3e
00000320: 7eb9 293e c230 583d 8676 a23d dbd4 ee3c
00000330: aa9e 363d b618 623d c440 2f3e b78d 48bc
00000340: 9934 74bd beda e03c 0461 d7bc 4b85 31be
00000350: 8c23 fc3c 5dfc 4b3d fd36 c3bd 38a4 bdbd
00000360: 18ce 7c3d 5695 c83c 2201 a8bd 9731 30be
00000370: 51ae f9bd d2d8 15be 13f2 b6bc 65fd b33d
00000380: 5485 f7bd 8e24 123b 1e38 9dbd d613 99bd
00000390: 59c9 61be c6e6 c43d df35 bd3d 683e d73b
000003a0: 1c36 7a3d 9ff3 c23d dd0b 193e 5b82 fc3d
000003b0: 22e6 d33d 0a80 2e3e 5eeb 14bd f020 a4bd
000003c0: f8c3 04be a982 943d 63d8 cfbd 2b51 913d
000003d0: 5703 1dbd 46b9 1e3e 6b44 1dbe 0644 303e
000003e0: 3c64 803d 9a30 fe3d cedc 463e 62bb 4bbe
000003f0: b471 40bd bbe0 a13d 78c1 553e 7a80 0abe

gain_net.gru.bias_ih f4 [96]
-0.12252 -0.08622496 -0.075662114 0.15617399 0.19966704 -0.0075405072 0.006814141 -0.13715802
0.15344621 -0.014331548 -0.09376081 -0.014898908 0.22502258 0.044161025 0.17458911 -0.12290046
0.070379 0.19057585 0.043168444 -0.090455584 0.14839344 0.21573076 0.15237866 0.17449324
0.2068082 -0.07042728 0.20641306 -0.0907369 -0.05447112 0.16087595 0.15114307 0.05933586
0.0656297 0.084293045 -0.21851331 -0.02395781 -0.20947917 -0.25467378 -0.089335434 0.005274315
-0.14702874 -0.17233615 -0.19732171 -0.05289753 -0.2157714 -0.12581348 0.05680026 -0.18189217
-0.15798217 -0.025255648 0.05250819 -0.051397324 -0.10091001 -0.025189476 -0.27567175 -0.26825815
-0.1249541 -0.010451009 -0.03482987 -0.21656288 -0.13223787 -0.25585717 -0.067676485 -0.21607654
-0.058868323 -0.078906976 0.014096594 0.026106104 0.13491638 -0.17162178 -0.08290583 -0.0022550959
0.0527233 0.24290858 0.13532707 0.0010614251 -0.08072597 0.22390257 0.15338753 -0.05852993
-0.051497005 -0.04638407 -0.015324921 0.027691554 0.033194914 -0.08697789 -0.23573801 0.03818084
0.18759961 -0.022842137 -0.012740042 -0.14292623 0.15064454 -0.17874822 -0.013185432 -0.19778925
00000000: c4eb fabd b696 b0bd bdf4 9abd 13ec 1f3e
00000010: 8475 4c3e 5c16 f7bb 2849 df3b 2773 0cbe
00000020: 0121 1d3e dece 6abc ab05 c0bd 8d1a 74bc
00000030: 526c 663e 31e2 343d 7dc7 323e 3db3 fbbd
00000040: dd22 903d 5126 433e 65d1 303d c740 b9bd
00000050: 73f4 173e 86e8 5c3e 2709 1c3e 5bae 323e
00000060: 87c5 533e 2e3c 90bd f25d 533e 45d4 b9bd
00000070: 1c1d 5fbd aabc 243e 40c5 1a3e 290a 733d
00000080: dd68 863d d5a1 ac3d f4c1 5fbe 2b43 c4bc
00000090: b581 56be 9a64 82be 7ff5 b6bd 29d4 ac3b
000000a0: b48e 16be e378 30be b40e 4abe 15ab 58bd
000000b0: 2ef3 5cbe 40d5 00be 64a7 683d f141 3abe
000000c0: 14c6 21be efe4 cebc d412 573d 0086 52bd
000000d0: e8a9 cebd 295a cebc d924 8dbe 2259 89be
000000e0: efe7 ffbd b53a 2bbc c4a9 0ebd a9c2 5dbe
000000f0: 5d69 07be b6ff 82be f899 8abd 2b43 5dbe
00000100: e91f 71bd fb99 a1bd 67f5 663c 78dc d53c
00000110: 8527 0a3e 9fbd 2fbe 88ca a9bd 3bca 13bb
00000120: 63f4 573d 07bd 783e 2e93 0a3e 841f 8b3a
00000130: a853 a5bd b746 653e 9f11 1d3e 14bd 6fbd
00000140: 86ee 52bd 39fd 3dbd 6115 7bbc 66d9 e23c
00000150: 64f7 073d 7721 b2bd 4e65 71be 8363 1c3d
00000160: 1d1a 403e 6f1f bbbc 9cbb 50bc 415b 12be
00000170: 9042 1a3e c609 37be b607 58bc 4489 4abe

gain_net.gru.bias_hh f4 [96]
0.020925468 0.031251136 0.07320351 -0.10622268 0.16103108 -0.06324918 0.049059916 0.04557974
-0.04272277 -0.012774948 0.06630307 -0.017505212 0.028840704 -0.053430203 -0.00732114 -0.16453628
-0.033941757 0.09361129 0.03491267 0.04800162 0.1301573 0.15031846 0.16836628 0.089042164
0.13030347 -0.046881683 0.20683101 0.14241245 -0.10073527 -0.052301813 -0.05515316 -0.075752504
-0.014230698 0.121279165 0.023020579 -0.10557212 -0.17336595 -0.050844148 -0.24832067 -0.17511402
-0.05629519 -0.118242316 -0.007530676 -0.10417242 0.039753594 -0.13206592 0.09745981 -0.011765908
-0.09063903 -0.08039727 0.004027609 -0.11502513 -0.057649154 0.0009210482 -0.18268622 -0.06579665
0.074759014 0.034179255 -0.017310457 -0.060209017 0.013333253 -0.17167282 -0.23021646 -0.08728521
0.07414231 -0.11228946 0.040039983 0.08772171 0.0026827753 -0.18048127 0.041421052 -0.0077756564
0.046283606 0.26377636 0.07613921 0.009550069 0.21370359 0.16093329 0.09451644 0.076111846
-0.12890771 0.040392533 -0.104887 -0.13960777 -0.1961522 0.031144453 0.039073892 0.05845285
0.22687039 0.06305592 -0.001344582 0.05940034 0.017509503 0.1012458 0.08743659 -0.2254223
00000000: e36b ab3c 3101 003d b9eb 953d 478b d9bd
00000010: 55e5 243e c988 81bd 0df3 483d d2b1 3a3d
00000020: 12fe 2ebd 044e 51bc e7c9 873d 1767 8fbc
00000030: 5743 ec3c a1d9 5abd 2ce6 efbb 337c 28be
00000040: 8306 0bbd 47b7 bf3d 9600 0f3d 599d 443d
00000050: f547 053e 15ed 193e 3668 2c3e bd5b b63d
00000060: 466e 053e 0207 40bd 82cb 533e 92d4 113e
00000070: 4b4e cebd 6d3a 56bd 48e8 61bd 2124 9bbd
00000080: e027 69bc 3661 f83d a795 bc3c 3236 d8bd
00000090: d886 31be f441 50bd c647 7ebe 1751 33be
000000a0: c995 66bd 0729 f2bd e4c3 f6bb 5a58 d5bd
000000b0: aad4 223d 4a3c 07be 0299 c73d ccc5 40bc
000000c0: f5a0 b9bd 53a7 a4bd 08fa 833b 4c92 ebbd
000000d0: 8521 6cbd 8072 713a 1912 3bbe 65c0 86bd
000000e0: 411b 993d 8cff 0b3d a9ce 8dbc bb9d 76bd
000000f0: b773 5a3c 00cb 2fbe ddbd 6bbe 97c2 b2bd
00000100: ecd7 973d 04f8 e5bd f700 243d 71a7 b33d
00000110: 80d1 2f3b 15d0 38be 1fa9 293d efca febb
00000120: e193 3d3d b20d 873e e0ee 9b3d e577 1c3c
00000130: 1dd5 5a3e b2cb 243e d691 c13d 87e0 9b3d
00000140: 6200 04be a472 253d ffce d6bd 57f5 0ebe
00000150: 1fdc 48be a722 ff3c f20b 203d 416c 6f3d
00000160: b650 683e 7623 813d af3c b0ba c54d 733d
00000170: 1770 8f3c f559 cf3d f411 b33d 1ad5 66be

gain_net.trunk.0.weight f4 [32, 32]
0.12328316 -0.11593394 -0.0469106 -0.1130542 -0.13140474 -0.035680547 -0.1095086 -0.007313326
0.08322288 -0.17510498 -0.10322532 -0.11187198 0.14309292 -0.08191969 0.09873776 -0.017800808
0.09184794 -0.05027075 0.027331352 0.038865015 -0.1220852 -0.12853067 0.16805927 -0.11364143
0.09641121 0.012787461 -0.08269932 0.09883691 -0.06383827 0.14715181 -0.06598369 0.047958076
-0.022482308 -0.29177165 0.17262171 -0.13184333 -0.1758573 -0.23559603 -0.10618751 0.10762977
-0.16276956 0.282277 0.243984 0.039699275 0.29490995 0.108823486 0.06021003 0.18775159
-0.23822021 0.009672185 -0.15025577 -0.16922615 -0.2946619 0.22271302 -0.123165525 0.3125901
0.03487011 -0.0010471689 0.2742756 -0.18683766 -0.06260618 -0.28068584 0.04852686 -0.19433856
-0.24182992 0.2570961 0.13143802 -0.10816671 0.540304 -0.14723563 -0.05215857 0.28232074
-0.255164 -0.08111228 0.08415968 -0.15051256 0.21406522 0.08290318 -0.3683542 -0.29783976
-0.05579071 0.22812133 -0.21856342 -0.03881457 0.07311199 -0.3238575 -0.2544528 -0.0089113815
0.21621019 -0.1038239 -0.57974136 -0.05456082 0.23105787 0.06281005 -0.45071766 -0.21429092
-0.18036126 -0.13186188 -0.028976131 -0.043806322 -0.38620093 -0.10267353 -0.30445164 0.24329272
-0.0752528 0.02100614 0.10297873 -0.2784777 0.17183696 0.27257866 -0.21479349 0.18877397
0.014061307 -0.3212669 -0.2903716 -0.028682891 -0.25163117 -0.022519292 -0.30125576 0.28724283
0.063688725 -0.20914671 -0.02267139 -0.16621082 0.09419584 -0.23713972 0.20573308 -0.09995101
-0.13260663 -0.06835951 0.18608923 -0.21536131 0.12788051 -0.2132444 -0.25992596 0.21766566
-0.009276976 -0.02430705 0.31102028 -0.29699248 -0.010006311 0.23231702 -0.12544617 0.31685975
-0.26248977 0.038748544 -0.17237315 0.036152378 -0.24554287 0.35063565 -0.22763684 0.09992591
0.15223353 -0.008678757 0.0003593408 -0.12140525 -0.2106665 -0.18038118 0.20533784 -0.08069201
-0.21011339 0.28941762 -0.021656297 -0.21241851 0.21695057 -0.085125126 -0.18748644 0.20256786
0.0578474 0.088925034 0.077468604 -0.020982275 0.20569594 0.28302577 -0.20186538 -0.109509274
-0.14044613 0.15106495 -0.080801114 -0.16770075 -0.2451567 -0.19617999 0.04426508 0.06730154
0.2335636 0.031658534 -0.2541305 -0.06843186 0.24091269 -0.2795394 -0.36126864 -0.24073154
-0.2695779 0.05928979 -0.021255486 -0.04130062 -0.42004296 -0.23936874 -0.033620957 0.19385158
-0.10957735 -0.03198762 0.077923894 -0.068705305 0.26119265 -0.009885577 0.18830392 0.065495975
-0.048221454 -0.37033466 -0.10333089 -0.018327499 -0.09728003 0.07224167 -0.19197893 0.026018258
0.18488178 -0.27956715 0.27943712 -0.26036775 -0.074940875 -0.17476486 0.18829966 -0.18865089
-0.07866802 0.11163284 -0.106656626 0.13680775 0.028086111 -0.1568919 0.16422455 -0.13767895
0.064376086 0.036014706 0.0016036034 0.10975684 0.12250207 0.08331491 -0.1301702 -0.12586322
0.06739114 -0.10918088 0.1090989 0.079175964 -0.060331278 -0.0345193 0.1460857 0.118425176
-0.1206278 -0.08770194 0.1316715 -0.023721382 0.044441864 -0.13640587 -0.03309469 0.16180839
00000000: e27b fc3d c66e edbd 5425 40bd f688 e7bd
00000010: f78e 06be c425 12bd 0b46 e0bd a0a4 efbb
00000020: c270 aa3d b84e 33be cc67 d3bd 231d e5bd
00000030: f386 123e 83c5 a7bd 0637 ca3d 00d3 91bc
00000040: c61a bc3d b4e8 4dbd 00e6 df3c ec30 1f3d
00000050: ce07 fabd 8b9d 03be bb17 2c3e d7bc e8bd
00000060: 3e73 c53d 8082 513c 435e a9bd 026b ca3d
00000070: a4bd 82bd f7ae 163e 7522 87bd b06f 443d
00000080: d12c b8bc 1863 95be bfc3 303e f001 07be
00000090: f013 34be 1640 71be d678 d9bd ff6c dc3d
000000a0: 10ad 26be 9c86 903e f1d6 793e b59b 223d
000000b0: 70fe 963e d9de de3d cb9e 763d f441 403e
000000c0: 00f0 73be 1678 1e3c a6dc 19be 9f49 2dbe
000000d0: eddd 96be e20e 643e 353e fcbd cf0b a03e
000000e0: f6d3 0e3d 2841 89ba da6d 8c3e 5f52 3fbe
000000f0: ab37 80bd 0eb6 8fbe 1ac4 463d b000 47be
00000100: 43a2 77be 1aa2 833e b097 063e 8286 ddbd
00000110: 5d51 0a3f f0c4 16be 3aa4 55bd 588c 903e
00000120: dba4 82be 321e a6bd e95b ac3d f71f 1abe
00000130: ea33 5b3e 24c9 a93d ec98 bcbe 747e 98be
00000140: cd84 64bd a398 693e 17cf 5fbe 07fc 1ebd
00000150: bdbb 953d a6d0 a5be a347 82be 0b01 12bc
00000160: 3466 5d3e a0a1 d4bd ee69 14bf 2b7b 5fbd
00000170: 6f9a 6c3e 8ea2 803d 77c4 e6be 146f 5bbe
00000180: 9fb0 38be cd06 07be 5a5f edbc 426e 33bd
00000190: 21bc c5be 8046 d2bd 16e1 9bbe ba21 793e
000001a0: 241e 9abd 1215 ac3c 83e6 d23d a194 8ebe
000001b0: 07f6 2f3e 6e8f 8b3e d3f2 5bbe f74d 413e
000001c0: 6561 663c 187d a4be 96ab 94be 62f8 eabc
000001d0: cdd5 80be 617a b8bc 323e 9abe 7e11 933e
000001e0: 3c6f 823d 8e2a 56be 5ab9 b9bc 2b33 2abe
000001f0: c0e9 c03d c1d4 72be b1ab 523e 1db3 ccbd
00000200: 08ca 07be 1200 8cbd 2d8e 3e3e ad87 5cbe
00000210: 1cf3 023e bd5c 5abe 0415 85be bfe3 5e3e
00000220: 75fe 17bc 941f c7bc 0d3e 9f3e 660f 98be
00000230: 83f1 23bc 83e4 6d3e f674 00be 713b a23e
00000240: 0f65 86be cbb6 1e3d 9682 30be 8414 143d
00000250: 976f 7bbe 8486 b33e a219 69be f5a5 cc3d
00000260: 1be3 1b3e 5831 0ebc e865 bc39 51a3 f8bd
00000270: f5b8 57be d8b5 38be 1544 523e da41 a5bd
00000280: f727 57be 8c2e 943e 8c68 b1bc 3d84 59be
00000290: 4a28 5e3e 1556 aebd 72fc 3fbe f36d 4f3e
000002a0: 65f1 6c3d 541e b63d dca7 9e3d 05e3 abbc
000002b0: f5a1 523e c1e8 903e ccb5 4ebe 6646 e0bd
000002c0: 1cd1 0fbe c5b0 1a3e 0e7b a5bd bfb9 2bbe
000002d0: 5c0a 7bbe 68e3 48be 4d4f 353d 64d5 893d
000002e0: 4c2b 6f3e 61ac 013d 651d 82be 0126 8cbd
000002f0: d1b1 763e ca1f 8fbe 34f8 b8be 5482 76be
00000300: 1d06 8abe dad9 723d fc1f aebc d72a 29bd
00000310: df0f d7be 141d 75be 21b6 09bd 0781 463e
00000320: 176a e0bd 7305 03bd 9096 9f3d 5eb5 8cbd
00000330: 0bbb 853e 1df7 21bc bed2 403e c122 863d
00000340: dc83 45bd 819c bdbe 259f d3bd 8d23 96bc
00000350: c13a c7bd 71f3 933d 2096 44be 3e24 d53c
00000360: a651 3d3e 6d23 8fbe 6212 8f3e ec4e 85be
00000370: 9a7a 99bd 8ff5 32be a0d1 403e b32d 41be
00000380: b31c a1bd c29f e43d ca6e dabd 5517 0c3e
00000390: d814 e63c 45a8 20be 7b2a 283e b6fb 0cbe
000003a0: 9cd7 833d 2884 133d 0030 d23a 32c8 e03d
000003b0: 5ee2 fa3d 02a1 aa3d 564b 05be 4ae2 00be
000003c0: 5e04 8a3d 3a9a dfbd 3e6f df3d 0227 a23d
000003d0: ee1d 77bd 1c64 0dbd 7d97 153e e688 f23d
000003e0: b50b f7bd 139d b3bd e5d4 063e 5853 c2bc
000003f0: ac08 363d fbad 0bbe 4c8e 07bd 19b1 253e

gain_net.trunk.0.bias f4 [32]
-0.05827965 0.10996337 0.06939268 0.12655096 0.22709723 -0.0045670723 0.10342287 -0.10244099
0.12065351 0.15762852 0.17425816 0.10859226 -0.115990914 0.11015043 0.20623176 0.3069085
0.14462972 -0.016926888 0.191506 0.016279759 -0.06272677 -0.10091909 0.01595744 -0.035272066
0.3071548 -0.10574276 0.030637853 0.29026213 -0.10706749 0.13471968 -0.030937716 -0.16574238
00000000: a4b6 6ebd 7a34 e13d c01d 8e3d 9396 013e
00000010: 2d8c 683e 61a7 95bb 5fcf d33d 95cc d1bd
00000020: 3019 f73d 5f69 213e bb70 323e 9e65 de3d
00000030: a58c edbd 8c96 e13d 6b2e 533e 1c23 9d3e
00000040: d019 143e 42aa 8abc 261a 443e 215d 853c
00000050: e576 80bd abae cebd 2db9 823c 7179 10bd
00000060: 6543 9d3e a98f d8bd 3cfc fa3c 3d9d 943e
00000070: 3346 dbbd f5f3 093e 1871 fdbc 5fb8 29be

gain_net.dk_head.0.weight f4 [32, 32]
-0.17193119 -0.06718356 0.025944095 0.10385872 0.12145354 0.0418759 -0.11796104 -0.16271916
-0.012831973 -0.09244436 0.23124608 0.1349576 -0.009864296 -0.11802729 0.00749606 0.07692985
-0.042641778 0.088370636 0.13095386 -0.1195316 0.03688926 0.12129234 0.16630702 0.23970132
0.18067807 0.1439004 -0.1307669 0.14582932 0.080010824 0.12675703 0.14422126 -0.11986658
-0.002488479 -0.12449766 0.1541539 -0.17315738 -0.05365494 0.118520424 -0.13919348 -0.15041244
-0.021757126 -0.022796035 -0.004595816 -0.11045323 -0.015080944 0.13239585 0.107483014 0.076932564
0.11732219 0.038293615 0.1707796 0.052792072 -0.014970332 -0.06449028 0.16879575 -0.027433932
0.069038555 0.062309414 -0.009849697 -0.088866755 0.05411212 -0.17004289 -0.00703606 0.036953554
0.09458499 -0.05234473 -0.10786994 -0.17249006 0.11644687 -0.15740724 0.10452555 0.13894062
-0.1115728 0.19864084 0.092515066 0.1688904 0.11524443 0.1189768 0.08861522 0.12410339
-0.051921446 0.088307075 0.17937528 0.078382835 0.015530277 -0.121511064 0.068341 -0.2596524
-0.086708724 -0.079938635 -0.14180313 0.11901764 0.024738835 -0.2752703 0.15516795 -0.022854991
-0.1073624 0.1319348 0.074227765 -0.10064128 -0.057928808 0.06113066 0.12501971 -0.08608976
-0.01576037 -0.18069379 0.08021675 -0.019608334 0.15241928 -0.14718537 0.15007198 -0.17420913
0.020711148 -0.013817713 -0.0055219755 -0.042004764 0.08025372 -0.12282207 0.13022779 0.09312586
-0.17677201 0.14438875 0.0020847605 -0.0785556 0.054447487 0.19715424 0.042195022 -0.056556918
-0.14202127 0.09137743 -0.35693243 -0.09995769 -0.033681955 -0.14290121 0.14501739 -0.02139227
-0.054342166 0.17898484 0.016314913 0.16815199 0.0947732 0.0064475015 0.064535595 -0.099249646
0.052368402 -0.040789805 0.11337891 0.15688024 -0.121656224 0.094308 0.15776525 -0.22941297
-0.03661481 -0.1423499 0.05885997 0.059850693 0.07098997 -0.30116135 -0.15105404 0.14351323
0.044062868 0.054665316 -0.2280673 -0.06863373 -0.008815285 -0.099165425 0.11744361 0.16491576
-0.18132852 0.17898226 -0.08970144 -0.017751254 0.068225555 0.09284471 0.11982275 0.029649585
0.15245989 -0.14669567 0.051420458 0.08265621 -0.12783746 -0.13055567 -0.009651632 -0.22382672
0.20231394 -0.022510502 0.06548294 0.17777161 0.13444948 -0.06875108 -0.0562556 -0.15308337
0.09487288 0.08489127 -0.19777724 -0.0929535 0.17220148 -0.21069863 -0.13568668 0.13874595
0.1762155 -0.04529627 0.12559915 0.0026417396 -0.14899388 -0.075803176 -0.074569926 -0.0030371852
0.10169143 -0.117566 0.1400481 -0.13112125 -0.18969524 -0.09974629 0.012368149 -0.12236266
-0.004550104 -0.021379396 0.16932192 -0.118696935 0.16941696 -0.12610993 0.075933926 0.065152176
-0.114624 0.11141133 -0.2750744 0.09361856 0.1007237 0.08168551 0.033360593 -0.13911667
-0.033345263 0.12274766 0.15498595 0.041607734 0.09696443 0.13101332 -0.05240068 0.12248298
0.053866614 -0.06200087 -0.10147467 0.082608186 0.07700593 0.055722296 0.15154935 -0.22569007
0.092871904 0.12985396 -0.14987041 0.14673613 -0.15552749 -0.21366394 0.16713774 -0.15541434
00000000: bb0e 30be 8997 89bd b688 d43c e1b3 d43d
00000010: a2bc f83d 1086 2b3d 8f95 f1bd da9f 26be
00000020: 323d 52bc 7853 bdbd c6cb 6c3e 5332 0a3e
00000030: db9d 21bc 4bb8 f1bd 82a1 f53b 668d 9d3d
00000040: 25a9 2ebd aafb b43d c518 063e fccc f4bd
00000050: 3119 173d 1e68 f83d 634c 2a3e 4374 753e
00000060: ac03 393e a05a 133e c2e7 05be 4854 153e
00000070: b7dc a33d 98cc 013e bdae 133e 9c7c f5bd
00000080: c015 23bb a1f8 febd 85da 1d3e 2b50 31be
00000090: 48c5 5bbd d6ba f23d bc88 0ebe b805 1abe
000000a0: 003c b2bc c0be babc 8098 96bb 4e35 e2bd
000000b0: 1016 77bc c792 073e 0e20 dc3d d28e 9d3d
000000c0: 9e46 f03d c4d9 1c3d d9e0 2e3e 803c 583d
000000d0: 2046 75bc 7b13 84bd cbd8 2c3e 20bd e0bc
000000e0: 1664 8d3d 2838 7f3d a060 21bc c6ff b5bd
000000f0: aca4 5d3d b91f 2ebe c08e e6bb 9c5c 173d
00000100: c6b5 c13d 6d67 56bd eaea dcbd 3ca1 30be
00000110: b27b ee3d 5d2f 21be 7e11 d63d 7346 0e3e
00000120: 4880 e4bd 8168 4b3e 8a78 bd3d 9bf1 2c3e
00000130: 4605 ec3d 1caa f33d e57b b53d eb29 fe3d
00000140: 95ab 54bd 57da b43d 27ae 373e 2e87 a03d
00000150: b472 7e3c cbda f8bd 5ef6 8b3d 29f1 84be
00000160: 5894 b1bd deb6 a3bd d734 11be 85bf f33d
00000170: 19a9 ca3c 3bf0 8cbe 59e4 1e3e 643a bbbc
00000180: d1e0 dbbd eb19 073e ba04 983d 041d cebd
00000190: c246 6dbd 2564 7a3d 2b05 003e d44f b0bd
000001a0: e41b 81bc cb07 39be ae48 a43d a8a1 a0bc
000001b0: cd13 1c3e c3b7 16be 78ac 193e e163 32be
000001c0: 6daa a93c b063 62bc b0f1 b4bb 300d 2cbd
000001d0: 105c a43d 238a fbbd 6f5a 053e c5b8 be3d
000001e0: b903 35be a5da 133e 7aa0 083b c2e1 a0bd
000001f0: 5404 5f3d cde2 493e b0d4 2c3d 3aa8 67bd
00000200: 066e 11be 1724 bb3d d9bf b6be 9eb6 ccbd
00000210: 17f6 09bd b254 12be 707f 143e d83e afbc
00000220: e495 5ebd cd47 373e daa6 853c 0930 2c3e
00000230: 7418 c23d 9045 d33b 3d2b 843d 6643 cbbd
00000240: 4080 563d 3613 27bd 3433 e83d 37a5 203e
00000250: e626 f9bd 8d24 c13d 378d 213e 3ceb 6abe
00000260: 69f9 15bd 2cc4 11be 2717 713d 0026 753d
00000270: 3063 913d d231 9abe e9ad 1abe 22f5 123e
00000280: 447b 343d bde8 5f3d 798a 69be d78f 8cbd
00000290: fc6d 10bc 3e17 cbbd 4786 f03d addf 283e
000002a0: 2fae 39be 2047 373e 63b5 b7bd 146b 91bc
000002b0: d7b9 8b3d 5e25 be3d a165 f53d b0e3 f23c
000002c0: 721e 1c3e 6437 16be 429e 523d a947 a93d
000002d0: d3e7 02be 63b0 05be e121 1ebc d532 65be
000002e0: 632b 4f3e f267 b8bc eb1b 863d c309 363e
000002f0: 20ad 093e 5ecd 8cbd 466c 66bd e3c1 1cbe
00000300: b64c c23d 79db ad3d 1e86 4abe 685e bebd
00000310: 9655 303e 62c1 57be 73f1 0abe 6b13 0e3e
00000320: d671 343e 9588 39bd 109d 003e 0921 2d3b
00000330: da91 18be b23e 9bbd 1eb8 98bd 830b 47bb
00000340: 9943 d03d 71c6 f0bd c568 0f3e a644 06be
00000350: 783f 42be c847 ccbd c7a3 4a3c 4699 fabd
00000360: 0a19 95bb d823 afbc ba62 2d3e 6117 f3bd
00000370: a47b 2d3e f622 01be 3f83 9b3d 816e 853d
00000380: fdbf eabd a02b e43d 8dd6 8cbe 16bb bf3d
00000390: 3a48 ce3d bc4a a73d 1ea5 083d 9a74 0ebe
000003a0: 0b95 08bd 2063 fb3d a3b4 1e3e df6c 2a3d
000003b0: 4995 c63d 5b28 063e 18a2 56bd 5bd8 fa3d
000003c0: 3da3 5c3d a0f4 7dbd f4d1 cfbd 7b2e a93d
000003d0: 49b5 9d3d 103d 643d c12f 1b3e 4c1b 67be
000003e0: a033 be3d 70f8 043e a177 19be ff41 163e
000003f0: 9942 1fbe b8ca 5abe 2826 2b3e f024 1fbe

gain_net.dk_head.0.bias f4 [32]
-0.026322572 -0.1698702 0.042204563 0.06724089 0.10018399 -0.017156176 0.12916978 0.15208513
-0.09401708 0.052475274 0.06618963 -0.11699369 -0.0475868 0.040182848 0.010182382 -0.1413217
0.046094034 -0.14750227 0.15507856 0.18992092 0.109586 -0.17562044 -0.02156011 0.10527697
0.117093936 -0.06034185 -0.08566994 0.069630876 0.069699556 -0.0439595 0.010266636 -0.13511503
00000000: 6fa2 d7bc 74f2 2dbe b1de 2c3d 97b5 893d
00000010: 442d cd3d 1c8b 8cbc 1545 043e 34bc 1b3e
00000020: 078c c0bd 50f0 563d 6e8e 873d 639a efbd
00000030: 60ea 42bd c596 243d 01d4 263c a3b6 10be
00000040: 19cd 3c3d d60a 17be eacc 1e3e a17a 423e
00000050: a06e e03d d8d5 33be d49e b0bc 749b d73d
00000060: f2ce ef3d 0429 77bd b973 afbd a29a 8e3d
00000070: a4be 8e3d e00e 34bd 6435 283c 985b 0abe
